TD3/data/exp/InvertedDoublePendulum-v2/2022-06-30-11-46-36_actor.pt (torch, 23127 bytes, 5 tensors)

weight f4 [64, 11]
0.15290417 -0.6492567 0.3182902 -0.12862898 -0.21958455 -0.2843883 -0.39359972 -0.18021013
0.056363195 -0.0917795 0.2406745 0.26365972 0.1536441 0.3257767 -0.22371672 0.008930353
0.073550984 -0.1032971 -0.005978419 -0.17534316 -0.13420287 0.11437079 0.19125758 -0.25645593
-0.5642376 -0.09558196 0.036449526 -0.15472955 -0.20844604 -0.14105406 -0.079003446 0.027371854
0.28376007 -0.07519568 -0.10478023 -0.14675744 0.3039793 0.045776498 0.26035202 0.106471874
-0.03848306 0.18134531 0.29803044 -0.19947372 0.25374278 0.21322264 -0.5682698 0.19193071
0.005565879 -0.10523147 0.2802126 0.2786003 -0.24621361 0.036413074 -0.11066264 0.3216308
0.18752456 0.5421406 -0.13367988 -0.24345769 0.1831622 0.25866395 0.16616789 0.08772772
0.06325859 0.13587144 0.12430235 0.23073453 0.2543227 0.26615646 -0.19677567 0.2585035
-0.2713657 -0.32937458 0.19810666 -0.15921593 -0.067063004 -0.19837913 -0.6546023 -0.7871155
0.33400598 0.32141632 -0.42827556 -0.21398395 -0.2350256 -0.050963886 0.038571596 -0.11574878
0.10757121 0.35177293 0.7697545 0.060015332 -0.1185638 0.12909359 0.29100695 0.19549058
0.015729677 0.209355 -0.11651017 0.21589276 -0.191135 0.6478073 0.13606104 0.14223684
0.0119727515 0.025584392 0.16302544 0.11090871 0.1580171 0.10628101 0.2391552 0.50701123
-0.5559203 -0.25778428 -0.03123187 0.27669954 0.19812794 -0.0029989413 0.044665307 -0.24349284
0.14142534 0.12818281 0.043864336 0.11968988 0.32488808 -0.11820259 -0.18877845 -0.17231962
0.27368522 0.12253869 -0.1806197 -0.040440023 -0.18671358 -0.27337417 0.25310943 -0.20243625
-0.17985146 -0.09712418 0.010067517 -0.22711648 -0.39601663 -0.11424479 -0.2752387 0.27279282
-0.5781815 -0.20247822 -0.04033883 0.06685875 -0.011768824 -0.26913774 -0.17827955 0.16669498
0.21961075 -0.23534368 0.29120037 0.030906571 -0.05546047 -0.29325995 -0.3024056 0.044268545
0.09860226 0.041331265 -0.18369424 -0.27861518 0.12911725 0.061188057 -0.053526666 1.9118792
-0.44744867 -0.105550915 0.0398823 0.055710215 0.3134021 0.21355322 -0.26438278 0.11028066
-0.2855171 -0.9240521 -0.4465164 0.29216295 -0.17441316 -0.17688042 -0.3386443 0.048443727
0.36032835 0.09260243 -0.20623583 0.15041043 0.22639069 -0.41941282 0.119414546 -0.09893578
-0.12486972 0.1423546 0.10075222 -0.23150575 0.24140012 -0.166956 0.21240716 -0.028534362
-0.30712667 -0.015391916 -0.32948235 -0.14181401 -0.10008845 -0.09301414 -0.16904789 0.12071589
-0.13176583 -0.033891574 -0.39108962 -0.68810946 0.1767652 -0.102210574 -0.16773564 -0.27469128
-0.15207784 -0.10824478 -0.022041798 -0.11779426 -0.020341245 -0.19170299 0.3509316 -0.2857957
0.27128038 -0.078447 0.19725639 0.19870368 0.041448783 -0.27597326 -0.13203648 0.29690033
-0.16501358 -0.69216204 0.25921732 -0.31386048 0.1067749 -0.10751739 -0.21265526 0.014710665
0.26808488 -0.19108942 -0.04050442 0.1958127 -0.49359855 0.19252749 0.15868646 -0.08314864
0.12283589 0.031775214 -0.23574704 0.21198064 -0.24527055 -0.29101998 -0.16769099 -0.5819982
00000000: e992 1c3e b035 26bf eff6 a23e 51b7 03be
00000010: c6da 60be 589b 91be e785 c9be 0189 38be
00000020: 18dd 663d e4f6 bbbd 6073 763e 68fe 863e
00000030: e154 1d3e 34cc a63e ff15 65be 9e50 123c
00000040: e6a1 963d 6e8d d3bd 9de6 c3bb 288d 33be
00000050: 7a6c 09be 3c3b ea3d 07d9 433e 314e 83be
00000060: e071 10bf 7ac0 c3bd 194c 153d 6c71 1ebe
00000070: e172 55be 7a70 10be 8fcc a1bd f03a e03c
00000080: 0049 913e 3100 9abd 0497 d6bd 9547 16be
00000090: 2da3 9b3e 2380 3b3d dc4c 853e ed0d da3d
000000a0: 6aa0 1dbd 96b2 393e 7297 983e d742 4cbe
000000b0: 93ea 813e 0957 5a3e 217a 11bf 7c89 443e
000000c0: fa61 b63b 9983 d7bd 0778 8f3e b3a4 8e3e
000000d0: 6c1f 7cbe e025 153d 18a3 e2bd cbac a43e
000000e0: 7006 403e bac9 0a3f 61e3 08be f94c 79be
000000f0: df8e 3b3e 9a6f 843e ea27 2a3e 97aa b33d
00000100: b88d 813d e221 0b3e 3b92 fe3d ac45 6c3e
00000110: 9636 823e a945 883e 907f 49be 925a 843e
00000120: 72f0 8abe c9a3 a8be 79dc 4a3e 8009 23be
00000130: 5458 89bd e623 4bbe 0494 27bf 6780 49bf
00000140: d502 ab3e ae90 a43e ef46 dbbe 9c1e 5bbe
00000150: 8daa 70be 82bf 50bd 40fd 1d3d b20d edbd
00000160: 4b4e dc3d 951b b43e a20e 453f a3d2 753d
00000170: 94d1 f2bd 1c31 043e ddfe 943e af2e 483e
00000180: 86db 803c 2861 563e e29c eebd fe12 5d3e
00000190: e5b8 43be b3d6 253f 9653 0b3e 89a6 113e
000001a0: 5c29 443c 5c96 d13c 24f0 263e 1b24 e33d
000001b0: 3ccf 213e dca9 d93d 1ae5 743e 7dcb 013f
000001c0: cb50 0ebf 4dfc 83be fbd9 ffbc 90ab 8d3e
000001d0: 0de2 4a3e e389 44bb f8f2 363d 3056 79be
000001e0: ced1 103e 5b42 033e 17ab 333d f81f f53d
000001f0: bb57 a63e 3314 f2bd 234f 41be 8e74 30be
00000200: 7820 8c3e 91f5 fa3d 5ff4 38be 70a4 25bd
00000210: d831 3fbe b3f7 8bbe 8f97 813e 734b 4fbe
00000220: fb2a 38be 0be9 c6bd 3af2 243c 3991 68be
00000230: b1c2 cabe 2cf9 e9bd 16ec 8cbe 80ab 8b3e
00000240: b403 14bf 7356 4fbe 543a 25bd 3eed 883d
00000250: 07d2 40bc 6ccc 89be ea8e 36be 17b2 2a3e
00000260: a4e1 603e effd 70be 3718 953e c72f fd3c
00000270: 852a 63bd 2b26 96be e8d4 9abe ef52 353d
00000280: fbef c93d f94a 293d 581a 3cbe a6a6 8ebe
00000290: 5037 043e 54a0 7a3d c73e 5bbd 75b8 f43f
000002a0: fe17 e5be 142b d8bd 9f5b 233d 6530 643d
000002b0: 3d76 a03e b2ad 5a3e 2e5d 87be d4da e13d
000002c0: 4c2f 92be ae8e 6cbf cc9d e4be 6296 953e
000002d0: 5d99 32be 2420 35be c962 adbe ee6c 463d
000002e0: f57c b83e 58a6 bd3d 7c2f 53be 3105 1a3e
000002f0: f6d2 673e 47bd d6be 9d8f f43d d89e cabd
00000300: b2bb ffbd 67c5 113e 2e57 ce3d d80f 6dbe
00000310: 9831 773e 83f6 2abe 4381 593e e5c0 e9bc
00000320: b53f 9dbe 602e 7cbc e9b1 a8be b137 11be
00000330: 2cfb ccbd 337e bebd e41a 2dbe e439 f73d
00000340: 9fed 06be e4d1 0abd e63c c8be f127 30bf
00000350: f001 353e c753 d1bd e4c2 2bbe 56a4 8cbe
00000360: 4bba 1bbe 70af ddbd 0091 b4bc 1e3e f1bd
00000370: afa2 a6bc ca4d 44be 4fad b33e d053 92be
00000380: 43e5 8a3e d2a8 a0bd 94fd 493e fa78 4b3e
00000390: 33c6 293d 5e4c 8dbe 9234 07be 5203 983e
000003a0: 52f9 28be 8831 31bf 22b8 843e 52b2 a0be
000003b0: ccac da3d 1432 dcbd 4dc2 59be 0005 713c
000003c0: 6c42 893e f2ac 43be f6e7 25bd 2083 483e
000003d0: f3b8 fcbe ed25 453e b47e 223e d649 aabd
000003e0: 6291 fb3d ba26 023d ac67 71be 7411 593e
000003f0: 3428 7bbe 9200 95be 30b7 2bbe d6fd 14bf

bias f4 [64]
0.3540754 -0.0776337 0.10653887 0.28117552 -0.051867023 0.041815482 -0.11696491 0.08701867
-0.22591254 0.411863 0.17409104 0.44840357 0.31059876 -0.26621726 -0.08078051 -0.3882849
0.27508053 0.1737953 -0.16145307 0.1446705 -0.067812264 0.24810843 0.29268512 -0.19724706
0.13655113 0.20912597 0.16398345 0.087348916 0.21401282 -0.30215427 -0.12152783 0.20026581
-0.30387354 -0.006312546 0.029094119 0.21649109 0.09163528 -0.42572203 0.040356215 0.00678666
-0.03332945 -0.11333762 -0.04582767 0.07963454 0.042105682 -0.14687108 -0.34692058 0.14213313
-0.23167452 -0.0086726155 -0.413162 -0.19529991 0.14229205 -0.24890853 0.096607365 -0.13332213
0.12970917 0.1286053 0.06338946 0.036377653 0.2661482 -0.09134965 -0.17445691 0.09813152
00000000: 5f49 b53e 6bfe 9ebd 0d31 da3d 3df6 8f3e
00000010: 8472 54bd b646 2b3d 4c8b efbd d836 b23d
00000020: 9e55 67be b5df d23e ec44 323e 2795 e53e
00000030: cd06 9f3e a14d 88be 4170 a5bd 47cd c6be
00000040: 5bd7 8c3e 65f7 313e f453 25be 8124 143e
00000050: 28e1 8abd 2310 7e3e d3da 953e 22fb 49be
00000060: 0fd4 0b3e 1e25 563e 47eb 273e fde3 b23d
00000070: 2d26 5b3e f7b3 9abe 95e3 f8bd 7b12 4d3e
00000080: 5095 9bbe 79d9 cebb ca56 ee3c d7af 5d3e
00000090: 47ab bb3d 3df8 d9be 8f4c 253d a162 de3b
000000a0: 7684 08bd 8e1d e8bd cbb5 3bbd 6f17 a33d
000000b0: 0277 2c3d 5f65 16be 939f b1be 598b 113e
000000c0: 163c 6dbe 9617 0ebc f889 d3be b3fc 47be
000000d0: 02b5 113e e1e1 7ebe 15da c53d 9985 08be
000000e0: 7bd2 043e 1cb1 033e 55d2 813d bc00 153d
000000f0: 9444 883e 8615 bbbd d5a4 32be 2ef9 c83d

weight f4 [64, 64]
-0.10853178 -0.061197948 -0.26888752 -0.13920382 -0.14947039 -0.00919921 0.044256024 0.027884826
0.19298749 -0.023281796 -0.09294012 -0.022564642 0.14149855 -0.018321024 -0.06457347 -0.0055887722
-0.15369229 0.06299326 0.04713122 -0.27961117 0.033086516 -0.2582619 -0.106364936 -0.098348424
-0.09844779 0.06075615 -0.0897866 -0.04621854 -0.20063204 -0.004485029 -0.12505224 -0.013188513
-0.12664877 -0.12015691 0.11435715 0.1183519 -0.057250354 -0.11098188 -0.18368405 -0.03521035
-0.1278399 0.091759905 -0.15807095 0.078210324 -0.07684742 0.029863626 0.076961674 0.07094363
0.08581378 0.027674183 -0.07050028 -0.121128924 -0.019314827 0.02798432 -0.11220463 -0.44053656
-0.22329827 -0.000393826 -0.13507865 -0.011588899 0.029174058 -0.071928985 -0.21758284 0.13534957
-0.071874425 -0.02629712 -0.41691512 -0.06374917 -0.07512744 0.14930059 -0.083646744 -0.17031145
0.37988177 0.08513266 0.10690852 -0.042971358 0.20590787 -0.028901717 0.07269232 0.02213363
-0.025344899 -0.07063906 -0.16067062 -0.3471969 0.044276856 -0.14754108 0.026788559 -0.09604416
-0.033651255 -0.08702718 0.11308097 -0.014981349 -0.12083034 -0.0017257269 -0.051911876 -0.11692434
0.0060988185 -0.034775898 0.1049083 -0.019425677 -0.03324383 -0.03037369 -0.1350101 -0.046084043
-0.052051518 -0.08234776 -0.06695124 0.034332138 0.114315696 -0.08599443 0.03552353 0.018710824
0.089962386 0.077474184 0.012531518 0.012533076 -0.17176382 0.23745628 -0.12979704 -0.13953246
-0.12679411 0.04095494 -0.12020835 0.1373311 0.060249254 -0.09980563 -0.25377706 -0.040406767
-0.18157685 -0.05829929 0.06829303 -0.016526958 0.055334084 0.07529361 -0.14185737 0.029400531
-0.11563625 0.04146594 0.06713981 0.062103838 0.007718303 -0.12968813 0.025408618 -0.010853066
-0.066759616 0.121413216 -0.07511069 0.12014575 -0.09269379 0.15179208 0.015842235 0.009103075
0.014313894 -0.14411175 0.010051385 0.05323651 0.0052736513 0.10557692 0.031805556 0.1408999
-0.06945622 -0.01946031 -0.06198926 0.01670282 0.06754938 0.039251186 0.042028226 -0.0071156668
0.09758345 -0.0772194 -0.052474204 0.09223433 0.06591729 -0.002492236 0.037579782 -0.016399877
-0.13027704 -0.13188262 0.097220525 -0.07114065 -4.5863457e-05 -0.09933556 0.0858777 0.12239457
0.06542193 0.11269826 -0.06848245 -0.1546014 -0.00538133 -0.11314326 -0.11990765 0.070644476
0.16994166 -0.001017737 -0.19719525 0.11946138 0.05964256 0.026827883 0.041166704 0.110107735
0.1172468 0.1704841 -0.124715716 0.09881588 0.15495278 0.069602914 -0.0061291475 0.07660939
0.07390349 0.07577817 -0.008215457 0.015155517 0.14456448 -0.111816764 0.029128166 -0.090424754
-0.016897393 -0.016571295 0.10273678 -0.06932479 -0.04235182 -0.12330741 -0.110811226 -0.018469736
-0.056721862 0.1349762 0.049817506 0.045703206 0.00998775 -0.12773764 -0.027660523 0.04536009
-0.032027427 -0.01942944 -0.037616476 -0.08427484 -0.08030724 -0.1224778 0.020940721 0.037055608
0.1047326 -0.06567645 -0.097767256 -0.058867134 0.0065644193 0.093310304 0.008969202 -0.105866395
-0.015200308 -0.11766855 0.08352765 -0.019526595 0.01623982 0.049534928 -0.058387358 -0.048156835
00000000: e945 debd b3aa 7abd a0ab 89be 728b 0ebe
00000010: c40e 19be 49b8 16bc ce45 353d b86e e43c
00000020: 839e 453e 77b9 bebc 6457 bebd 7cd9 b8bc
00000030: ffe4 103e f915 96bc 183f 84bd 0522 b7bb
00000040: 8361 1dbe 9c02 813d ab0c 413d 3229 8fbe
00000050: ba85 073d e73a 84be dcd5 d9bd e66a c9bd
00000060: ff9e c9bd 71db 783d 09e2 b7bd a74f 3dbd
00000070: 7c72 4dbe 26f7 92bb b20d 00be a214 58bc
00000080: 37b0 01be d314 f6bd 1534 ea3d 7b62 f23d
00000090: 597f 6abd 784a e3bd ac17 3cbe ba38 10bd
000000a0: 76e8 02be 9eec bb3d 5add 21be bc2c a03d
000000b0: 2e62 9dbd 90a4 f43c 159e 9d3d e54a 913d
000000c0: 23bf af3d f8b4 e23c 7362 90bd 7112 f8bd
000000d0: 213a 9ebc 5f3f e53c 8bcb e5bd 028e e1be
000000e0: 4da8 64be 6e7a ceb9 0f52 0abe 5edf 3dbc
000000f0: 6ffe ee3c 814f 93bd 09ce 5ebe 1499 0a3e
00000100: e632 93bd 0f6d d7bc e675 d5be ed8e 82bd
00000110: 6adc 99bd 41e2 183e fc4e abbd 2066 2ebe
00000120: dd7f c23e 085a ae3d dbf2 da3d bc02 30bd
00000130: 83d9 523e 4bc3 ecbc b6df 943d 9651 b53c
00000140: 1ba0 cfbc 36ab 90bd d786 24be cbc3 b1be
00000150: a65b 353d 0215 17be ae73 db3c cdb2 c4bd
00000160: e6d5 09bd 4e3b b2bd ff96 e73d 5574 75bc
00000170: e675 f7bd c931 e2ba 8ca1 54bd 0776 efbd
00000180: 99d8 c73b 2c71 0ebd 2ada d63d 9922 9fbc
00000190: af2a 08bd 3fd2 f8bc 1640 0abe 9fc2 3cbd
000001a0: f933 55bd f1a5 a8bd bb1d 89bd db9f 0c3d
000001b0: 591e ea3d d91d b0bd 1f81 113d 7147 993c
000001c0: 333e b83d c9aa 9e3d ff50 4d3c 8857 4d3c
000001d0: dbe2 2fbe bd27 733e 84e9 04be 99e1 0ebe
000001e0: 51d6 01be 5ec0 273d cc2f f6bd 86a0 0c3e
000001f0: ecc7 763d e566 ccbd 11ef 81be 9181 25bd
00000200: 48ef 39be 3ccb 6ebd 37dd 8b3d 8b63 87bc
00000210: fea5 623d 8933 9a3d 0f43 11be 62d9 f03c
00000220: b3d2 ecbd 31d8 293d 9980 893d 9860 7e3d
00000230: d1e9 fc3b f7cc 04be bc25 d03c 0fd1 31bc
00000240: 44b9 88bd 7ea7 f83d a2d3 99bd fa0e f63d
00000250: 3ed6 bdbd 626f 1b3e 93c7 813c 1025 153c
00000260: d384 6a3c 0892 13be 90ae 243c 870e 5a3d
00000270: 98ce ac3b b638 d83d 8b46 023d 1048 103e
00000280: 103f 8ebd 3a6b 9fbc 73e8 7dbd 5ad4 883c
00000290: 5457 8a3d dac5 203d ca25 2c3d 8a2a e9bb
000002a0: d5d9 c73d 3425 9ebd 31ef 56bd 5ae5 bc3d
000002b0: a5ff 863d c854 23bb 42ed 193d 0959 86bc
000002c0: 5867 05be 3d0c 07be 8e1b c73d 30b2 91bd
000002d0: 835d 40b8 7170 cbbd a6e0 af3d 01aa fa3d
000002e0: effb 853d 58ce e63d 8740 8cbd d44f 1ebe
000002f0: de55 b0bb a7b7 e7bd 2492 f5bd 0dae 903d
00000300: 3005 2e3e 9665 85ba 8ded 49be 2ba8 f43d
00000310: c24b 743d 26c6 db3c 6b9e 283d 2a80 e13d
00000320: 171f f03d 6293 2e3e f46a ffbd fb5f ca3d
00000330: f1ab 1e3e f98b 8e3d 04d7 c8bb 62e5 9c3d
00000340: b75a 973d 9631 9b3d 209a 06bc d84e 783c
00000350: b608 143e 3000 e5bd 319e ee3c 9d30 b9bd
00000360: 676c 8abc 86c0 87bc a967 d23d 28fa 8dbd
00000370: 1a79 2dbd 9888 fcbd fff0 e2bd d84d 97bc
00000380: 2f55 68bd 3337 0a3e 710d 4c3d 4933 3b3d
00000390: a9a3 233c a8cd 02be 5298 e2bc 80cb 393d
000003a0: 312f 03bd 7d2a 9fbc bc13 1abd 4a98 acbd
000003b0: 1f78 a4bd a4d5 fabd e08b ab3c 9fc7 173d
000003c0: 0c7e d63d 6081 86bd 333a c8bd aa1e 71bd
000003d0: 571a d73b 7919 bf3d 8ff3 123c 7bd0 d8bd
000003e0: b60a 79bc 35fc f0bd 8b10 ab3d 3df6 9fbc
000003f0: 5f09 853c 23e5 4a3d 9527 6fbd 1a40 45bd

bias f4 [64]
-0.03201553 0.016898405 0.08542531 0.11958057 -0.036686786 -0.08868532 0.094740406 -0.0126097975
0.053615168 0.1459018 -0.023083493 0.087937966 -0.14004952 -0.15020433 -0.12869698 -0.101044446
0.0015206625 -0.18435636 -0.09554289 -0.08585927 -0.13240446 -0.030857831 -0.028717706 -0.00023593561
0.108414344 0.08188352 -0.006635844 0.06525931 -0.053558387 -0.052149117 0.0961189 -0.05588038
0.004106519 -0.022926718 0.0022778637 -0.07187402 -0.09093744 0.047612302 -0.09835487 -0.014576446
-0.04799227 0.014952064 0.038240477 -0.027866255 0.13045476 0.073084205 -0.11631607 0.09267279
-0.10324422 -0.0123041505 0.06508368 0.08345911 0.106509715 -0.05902536 0.057716977 0.116402626
-0.007756343 -0.078160204 -0.084691085 0.105462715 -0.09210256 0.09384586 0.08710922 0.079443164
00000000: b722 03bd 866e 8a3c 77f3 ae3d a8e6 f43d
00000010: e244 16bd a6a0 b5bd 4207 c23d 5399 4ebc
00000020: 949b 5b3d 4867 153e 9819 bdbc d218 b43d
00000030: 2469 0fbe 2acf 19be 24c9 03be 64f0 cebd
00000040: f750 c73a eac7 3cbe feab c3bd fcd6 afbd
00000050: 0995 07be 90c9 fcbc 6541 ebbc 7c65 77b9
00000060: 5708 de3d 8cb2 a73d 7e71 d9bb aca6 853d
00000070: 0a60 5bbd 509a 55bd fcd9 c43d d3e2 64bd
00000080: fa8f 863b d0d0 bbbc 3648 153b b032 93bd
00000090: 693d babd 1e05 433d 476e c9bd 0cd2 6ebc
000000a0: 8b93 44bd 80f9 743c 0ca2 1c3d c647 e4bc
000000b0: ef95 053e 2cad 953d 1f37 eebd 3bcb bd3d
000000c0: b571 d3bd 5997 49bc 984a 853d 9cec aa3d
000000d0: c421 da3d 93c4 71bd a368 6c3d 8064 ee3d
000000e0: ec28 febb 7512 a0bd 8572 adbd d6fc d73d
000000f0: 44a0 bcbd 4232 c03d 5266 b23d 19b3 a23d

weight f4 [1, 64]
-0.076141715 -0.16209133 0.09379372 -0.22988476 -0.3464853 0.2692298 0.10020654 0.10296479
0.3393307 -0.38460037 0.21019241 -0.25738433 0.3147421 0.3132286 0.4013543 -0.21919905
0.22936222 0.15428099 0.21581084 0.31988716 -0.10746539 -0.1301992 0.09526169 -0.22239423
0.25442255 0.2482247 -0.091805525 -0.29728445 0.36450157 0.3132242 -0.27234894 -0.11689669
-0.77653986 -0.0588139 0.35255328 -0.28750217 0.19775863 0.3588853 -0.21029153 0.34869206
0.3062541 -0.23860581 0.25301126 0.37332574 0.121665776 0.18759313 0.2517665 -0.21187797
0.16409579 0.18385339 -0.31227127 -0.1568468 0.28308654 -0.18478511 -0.19384159 -0.21564591
0.21493062 0.26081783 0.28078225 0.11491504 -0.087134674 -0.16896144 -0.1921479 -0.18730846
00000000: 30f0 9bbd 45fb 25be ec16 c03d e966 6bbe
00000010: 8566 b1be 7dd8 893e 1639 cd3d 34df d23d
00000020: c1bc ad3e 57ea c4be ae3c 573e e1c7 83be
00000030: e025 a13e 805f a03e 507e cd3e b775 60be
00000040: eedd 6a3e d6fb 1d3e 84fd 5c3e 40c8 a33e
00000050: d016 dcbd f052 05be 9018 c33d 50bb 63be
00000060: ac43 823e 9e2e 7e3e 8904 bcbd ab35 98be
00000070: f39f ba3e ec5e a03e 5271 8bbe 8867 efbd
00000080: 51cb 46bf d8e6 70bd dd81 b43e 7c33 93be
00000090: 3d81 4a3e d0bf b73e aa56 57be c487 b23e
000000a0: 56cd 9c3e 1555 74be b18a 813e 8d24 bf3e
000000b0: e82b f93d 6a18 403e 8ae7 803e 8af6 58be
000000c0: ba08 283e 1044 3c3e 05e2 9fbe 739c 20be
000000d0: b8f0 903e 4f38 3dbe 697e 46be 48d2 5cbe
000000e0: c616 5c3e ea89 853e b1c2 8f3e 9458 eb3d
000000f0: aa73 b2bd 3a04 2dbe 6bc2 44be cacd 3fbe
