TD3/data/exp/InvertedDoublePendulum-v2/2022-06-30-11-46-36_critic.pt (torch, 23319 bytes, 5 tensors)

weight f4 [64, 12]
000000 24 ce 56 3e a9 47 fa 3e 83 ed d8 3f 15 09 32 be
       0.20977074 0.48882797 1.6947483 -0.17386277
000010 94 96 6c 3e 04 8e 4f 3e b2 c8 68 3e 2e 7f af 3d
       0.23104316 0.20269018 0.22732809 0.085691795
000020 ff 3a ee 3d 40 2d 9c bb 5c 5b a5 bd de 7e 0d 3e
       0.11632346 -0.0047661364 -0.08074066 0.13817927
000030 97 eb 7c bd 30 63 3b bf 65 97 cb bf b1 65 05 be
       -0.061748113 -0.73198223 -1.5905577 -0.13027073
000040 19 68 38 3e 2c 6c 2c 3d fa f6 a0 bd 55 0d dc be
       0.1800846 0.04209535 -0.07859607 -0.42978922
000050 7d da 6e bd 8a ea 42 3e 90 18 b9 bc 21 d6 99 be
       -0.058313835 0.19034782 -0.02259472 -0.3004618
000060 e6 ef 55 bf a8 6f 5c be 1a b3 a0 bf 8f 34 a2 3e
       -0.8356918 -0.21526968 -1.2554657 0.31680724
000070 b0 08 88 3e 72 e2 ba be 8c 2a 08 3d f1 5a fe bc
       0.26569128 -0.3650089 0.0332437 -0.031049224
000080 f4 05 c5 be 04 ad 66 be 3c bd ac 3d fd 8d 0f bf
       -0.38481104 -0.22526938 0.08434531 -0.5607603
000090 c4 86 8a 3d 73 10 8f 3f e6 e0 e8 3f ae 00 2c be
       0.06763986 1.1176895 1.8193634 -0.16797134
0000a0 5e d0 ad 3d 04 aa db 3d e5 55 0a 3e d3 51 4e 3e
       0.084870085 0.10725787 0.13509329 0.20148401
0000b0 38 29 c7 be a0 87 60 bd 3a 96 a0 bd 84 bb 16 3d
       -0.38898635 -0.054816842 -0.078411534 0.036799923
0000c0 e9 77 7d 3e 5e 7f 0e be 45 93 b9 bf 67 75 82 be
       0.24752773 -0.13915774 -1.4498068 -0.25480196
0000d0 a6 83 5d be c8 b5 12 be 71 70 95 be 3c cc 92 be
       -0.21632251 -0.14327157 -0.29187348 -0.28671443
0000e0 b3 17 d2 bd 10 0a d8 3c 7e 87 0e 3e 91 45 17 be
       -0.102584265 0.026371986 0.13918874 -0.14772631
0000f0 a7 3b 1f be ce ec d2 bf e7 b4 77 3d f0 9f 2c 3e
       -0.155501 -1.6478517 0.060475256 0.16857886
000100 b5 5f 3a 3d 3b e0 95 be 21 1f c5 be 54 28 da bd
       0.04550143 -0.29272637 -0.38500312 -0.10652223
000110 17 f9 dd 3e 28 03 e0 bd f8 ba fd 3d f3 de 1a bd
       0.43354103 -0.10938102 0.12389177 -0.037810277
000120 ae e8 25 3f 8b 58 28 bf d8 03 98 bf 9a 48 9e be
       0.64808166 -0.65760106 -1.1876173 -0.30914766
000130 98 de a1 be 68 f3 49 3e d0 c7 06 be 54 9d 1d be
       -0.31615138 0.19721758 -0.1316216 -0.15392047
000140 fa ef 59 be 90 dd e2 bc dd 66 85 be 7f 57 21 be
       -0.2128295 -0.02769354 -0.2605504 -0.15756033
000150 19 bc d4 3e 8d 7c fb 3e 75 16 bb bf b5 0c dc 3d
       0.41549757 0.49118462 -1.4616228 0.10744611
000160 4f dc 8b 3c db 36 8e 3e 64 6f a5 bd f1 6b 8e bd
       0.017072825 0.27776226 -0.08077887 -0.06954182
000170 d0 aa 96 3c 56 cb 81 3e e0 0b dc bc 6f d3 e4 bd
       0.018391997 0.25350446 -0.026861131 -0.1117314
000180 97 07 91 be be ad 27 bf 84 a3 c1 3f 01 e4 bc be
       -0.28326103 -0.65499485 1.5128026 -0.36892703
000190 a6 5c c7 be 23 a1 eb be 31 56 9e bc b0 e5 4d 3e
       -0.38937873 -0.46021375 -0.019328209 0.2010715
0001a0 64 f3 d6 3e 30 8c 29 bd 6a 12 90 bd 0d 86 cc 3e
       0.41982567 -0.04139346 -0.07034762 0.39946023
0001b0 0f a8 3c be b9 9c 03 bf 47 2c de bf d3 07 ee 3d
       -0.18423484 -0.51411015 -1.7357262 0.11622586
0001c0 a5 87 6e be 47 23 6b be 82 d7 84 be c6 7f 80 be
       -0.23293932 -0.22962676 -0.2594567 -0.25097483
0001d0 01 35 d6 be 04 91 a5 bd dc de fc bd 9d 1e 6c be
       -0.41837314 -0.080843 -0.123471946 -0.23058553
0001e0 7c 7f b3 3d 01 bc 80 be 22 48 a7 bf 72 75 39 3d
       0.0876455 -0.25143436 -1.3068888 0.04527802
0001f0 e4 ae 53 3e 45 c8 13 3e ca 82 78 be 03 cb 59 be
       0.20672184 0.14431866 -0.24268642 -0.21268849
000200 79 2b 8a 3e 9c 70 71 3e ac cd 1a 3e 44 41 af 3c
       0.26986292 0.23578113 0.1511752 0.021393426
000210 e3 43 9c be bd d9 85 bf 91 cc 8f bf b9 fc 4e be
       -0.30520543 -1.0457073 -1.1234304 -0.20213594
000220 2d 24 12 3e 95 60 47 be d1 a9 e6 be 29 2e 39 be
       0.14271612 -0.19470437 -0.45051435 -0.18084015
000230 73 0e ac 3d c0 7b 85 3e e0 d0 a7 3c d4 f8 a6 3e
       0.084011935 0.26070976 0.020485342 0.32611716
000240 23 6c fd 3e 93 5b 75 3f 6a 41 40 be de 64 db bc
       0.49496564 0.95842856 -0.18774953 -0.026781496
000250 22 34 90 3e 99 4d 85 3e 65 9c ec 3e 4b 53 36 3e
       0.28164774 0.26035765 0.4621307 0.17805211
000260 1b ea 67 be a6 53 ed bd d3 dc 82 be e7 09 a1 be
       -0.22647898 -0.1158822 -0.255591 -0.31452867
000270 cd 9d b9 be 0b f0 b7 3f 1a 4c 9b 3e fb c8 82 3e
       -0.36253205 1.437013 0.30331498 0.2554396
000280 7b 48 4f 3d c3 13 69 3c 0e 58 bd 3e 91 a2 6d 3e
       0.050606232 0.014225903 0.36981243 0.23206545
000290 bc ef ac be 80 cf 00 3b 08 17 29 3d b8 04 d1 be
       -0.33776653 0.001965493 0.04128173 -0.40823913
0002a0 dd 94 0c 3f d2 91 2c bf 31 04 d4 bf ba c2 7d 3e
       0.5491465 -0.67410004 -1.6563779 0.24781314
0002b0 81 25 71 3e 1e d2 17 3e 58 da cb bd 1f 00 92 be
       0.23549463 0.14826247 -0.09953755 -0.28515717
0002c0 29 2d 84 3c c9 a1 00 be 62 71 50 3d 06 a8 d0 be
       0.016134815 -0.12561716 0.05088938 -0.40753192
0002d0 c5 4c 0f 3f 65 1e b7 3e d7 b6 d4 3f 81 40 4d bd
       0.55976516 0.35765377 1.6618298 -0.050110344
0002e0 7c a8 fd bd c9 68 85 bc 66 89 a4 3e 1d 59 98 3e
       -0.123856515 -0.016285317 0.32136077 0.29755488
0002f0 e6 7c 02 3e 34 f3 61 3e 80 51 e2 bb 65 94 35 3e
       0.12742957 0.22065431 -0.006906688 0.1773239
000300 93 b9 36 3f 04 b9 b2 be 7c 4b 4e 3f 82 fb 02 be
       0.71376914 -0.3490678 0.8058393 -0.12791255
000310 c3 f0 b9 be 8f 75 ae 3e 5b af 71 3d f7 f0 3b 3d
       -0.363165 0.34074065 0.059005123 0.0458841
000320 a0 a5 c8 3e 9f 50 90 be f8 cf 1c 3d e5 74 83 3e
       0.39188862 -0.2818651 0.038284272 0.2567512
000330 6c 81 78 3e cd a4 a8 bf df 33 94 bf 17 be 04 3e
       0.2426812 -1.3175293 -1.157833 0.12963139
000340 91 2e 72 be 4e c5 2b be 5b e6 e5 be f4 9c 84 be
       -0.23650576 -0.16774485 -0.4490231 -0.25900996
000350 11 6d 9d be 6a a8 a8 bd 00 39 91 3c a1 6a 98 3e
       -0.30747274 -0.082352474 0.017727375 0.2976885
000360 b0 dc 7d 3d ef de 2a 3f e9 fc 98 3e 06 a9 af bd
       0.061978042 0.6674642 0.29880455 -0.085771605
000370 21 1f 9a 3c b1 d7 6a 3e 9a a1 28 3e e4 22 39 bc
       0.018813672 0.22933842 0.16467896 -0.0112998225
000380 9a cb 7b bc fa 2b f1 bd f1 74 57 be 46 18 aa be
       -0.015368367 -0.11775966 -0.21040703 -0.33221644
000390 75 3d 8b be 2d f5 72 bf 7e 02 c6 bf 97 0f 19 be
       -0.27195325 -0.9490536 -1.546951 -0.14947353
0003a0 28 7d 48 3d a6 27 f3 3d e6 52 b0 be 04 7f 6c be
       0.048947483 0.11872797 -0.34438246 -0.23095328
0003b0 d5 90 6d be 14 cc 98 bd f0 e0 fe bc 0f 2d f0 3d
       -0.2319978 -0.074608 -0.031113118 0.11727344
0003c0 3a cd d5 be d8 12 44 bf 60 f9 2d 3f 01 d1 e8 bd
       -0.41758138 -0.76591253 0.6795864 -0.11367989
0003d0 b7 1d 94 bc 14 d9 01 bf 4c a9 5f be ea 66 d2 3d
       -0.018080575 -0.5072186 -0.21841925 0.102735355
0003e0 d7 64 3f bc 7d 2d 89 be a0 21 09 3d 8c dc 59 3e
       -0.011681757 -0.26792517 0.033479333 0.21275538
0003f0 31 60 2f be 3a 72 6a bf 23 39 2f bf df e8 6a be
       -0.17126538 -0.91580546 -0.6844656 -0.22940396

bias f4 [64]
000000 64 d8 5d bd 9d dd 08 be 1b 3d ca 3d 8f af 8f 3d
       -0.054161444 -0.13365789 0.09874936 0.07015907
000010 81 aa d0 3e 0d 4a 08 3d d0 98 44 3e d0 96 99 be
       0.40755084 0.033273745 0.19198918 -0.29997873
000020 42 32 87 3e 41 27 b9 bd 80 b5 32 be cd 70 cc 3c
       0.2640553 -0.0904069 -0.1745205 0.024956131
000030 8b 57 b4 bd 6c ae 0a 3e 09 26 23 3d af 3e 36 3a
       -0.0880576 0.13543099 0.039831195 0.00069520896
000040 e3 46 f2 bd ce d4 e5 bd 7f 49 96 3e 43 c1 86 bd
       -0.11829927 -0.1122223 0.29352948 -0.065798305
000050 0b cf 58 be 16 38 7f 3e 84 30 71 3e 0d 8c b6 bd
       -0.2117273 0.24923739 0.23553663 -0.08913431
000060 2b dd 8f 3d 52 88 10 b9 22 bb 0d 3e 1d 93 50 3e
       0.07024606 -0.00013783693 0.13840917 0.2036862
000070 b5 7a af be 97 c5 cc 3d 31 bb ba 3d 13 cc 29 bd
       -0.34273306 0.09998625 0.09117735 -0.041454386
000080 31 a1 9f 3e d5 08 8e 3d 74 19 b3 3d df e8 3e bc
       0.31177667 0.06935278 0.08745089 -0.0116522005
000090 b3 28 ba be 51 81 24 3e 9d 4d a5 3c b7 52 47 3e
       -0.36359176 0.16064955 0.02017861 0.19465147
0000a0 eb 6d 55 3e 29 d5 c0 bd ed 84 52 bb ad 26 8d be
       0.20842712 -0.09415657 -0.0032122687 -0.2756857
0000b0 73 13 aa 3d 86 a9 9f 3c 60 ac af 3d 9b cf 0a 3c
       0.08304491 0.019490015 0.085778 0.008472349
0000c0 5d 49 d9 bc 3d d3 ad 3e de 63 eb 3d de 5c 09 3b
       -0.02652424 0.33950225 0.114936575 0.0020959894
0000d0 ff 7f 51 3d d2 e0 6e 3e 6f 6d 75 3e 0b 95 73 bb
       0.051147457 0.2332795 0.23967527 -0.0037167694
0000e0 5f 04 0e 3e 92 55 b3 bd 86 f6 db 3c a8 ce 08 3c
       0.13868855 -0.087565556 0.02685095 0.008350052
0000f0 43 07 33 bc ca 52 54 be c0 c7 77 be eb d0 53 3d
       -0.010927024 -0.20734707 -0.24197292 0.05171291

weight f4 [64, 64]
000000 87 f5 0c 3f 6a 3e 24 bc a6 ce 0b bf a6 6b 15 be
       0.55062145 -0.010024646 -0.54612195 -0.14591846
000010 e0 36 e2 3c bd 1b 95 3d ed 19 20 bd f7 aa 5d bf
       0.027614057 0.07280681 -0.039087225 -0.86588997
000020 c2 77 8c 3f 7d 63 60 bc 0c 9b ee be 20 ce 25 3f
       1.0974047 -0.013695595 -0.46602666 0.64767647
000030 a8 66 9a bf 59 c1 fc be 05 e9 f9 be e3 5a 88 3e
       -1.2062578 -0.49366263 -0.48810592 0.2663184
000040 30 ab 81 3e 67 cb 00 3f b9 e4 30 3d 6f 35 c0 3e
       0.25325918 0.5031037 0.043186877 0.37540767
000050 1a 46 86 3f 32 de 13 3f 9a f2 19 bf 5d 34 c8 be
       1.0490143 0.5776092 -0.60135806 -0.3910245
000060 1f 62 1c bf ac 96 b3 3e 34 a9 f1 3d 70 21 81 be
       -0.6108722 0.3507589 0.11799851 -0.25220823
000070 ad 9a b0 3d dc e8 6e 3c 66 b3 b2 be f4 1c 1d 3d
       0.08623252 0.014581885 -0.34902495 0.03835769
000080 62 40 62 3e 7c 02 72 3e 9a 13 08 3e 0b ec 95 3e
       0.22094873 0.2363376 0.13288727 0.2928165
000090 24 ec 34 bf 97 e3 0a 3f f4 8b f1 3d 82 34 37 be
       -0.7067282 0.54253525 0.11794272 -0.17891124
0000a0 d3 c5 08 be 99 c6 7d bf b4 88 ba be 8a 1e d9 3d
       -0.13356714 -0.9913116 -0.3643242 0.10601528
0000b0 fb ed cd be 5a 92 3c bf b8 24 27 bf 39 d2 90 be
       -0.40220627 -0.73660815 -0.65290403 -0.28285387
0000c0 ac a2 e6 bd ed b7 2b 3f 40 5a 26 bf eb 8a 9b 3c
       -0.11261496 0.67077523 -0.6498146 0.01898714
0000d0 c8 33 b8 3d d0 0b 07 bd b7 f9 3c bd 99 2e 6a 3e
       0.089942515 -0.03297025 -0.046136584 0.22869338
0000e0 17 34 3c 3d 1d 60 57 be 41 da 2e bf 1e d2 d4 3e
       0.045948114 -0.21032758 -0.6830178 0.41566557
0000f0 27 0c e0 be 7e 98 38 3f ba da 86 be 78 62 ab 3e
       -0.43759272 0.72107685 -0.2633875 0.33473563
000100 54 1c fc be 9f cf 0a 3e 71 fb 54 3f 5d 2a 0e bf
       -0.49240363 0.13555764 0.8319617 -0.5553339
000110 fa 7b ab bd fb d1 be 3f 1f d3 ab be 57 1a af be
       -0.08373256 1.4907831 -0.3355951 -0.34199783
000120 ab e5 98 3e b8 6f 07 3d 46 e2 45 3e 0a b8 f9 3e
       0.29862723 0.033065528 0.19324598 0.48773223
000130 6e c9 dc be c5 8e a0 3b c2 2c 05 3d e7 65 2b bf
       -0.4312243 0.004899832 0.032513388 -0.66952366
000140 1e 31 60 bf 29 0b ae 3e ed 7d 28 bf 32 10 9d 3e
       -0.87574947 0.3399289 -0.6581715 0.3067642
000150 e6 ee 7c 3e 22 68 c0 3e 2c 90 90 3d a4 73 ff 3e
       0.24700508 0.37579447 0.070587486 0.49892914
000160 82 74 c7 bc 43 e3 d0 3e 24 50 b2 3e 7c 35 18 3f
       -0.024347547 0.40798387 0.34826767 0.5945661
000170 91 96 59 3f 92 96 b9 bf f4 32 02 bf 2b 7f e5 be
       0.8499537 -1.4499075 -0.50859 -0.44823584
000180 48 22 6e bf f4 78 40 bf 28 ee 40 be 3d fc 98 bd
       -0.9302106 -0.7518456 -0.1884085 -0.07469986
000190 c4 22 86 3d 9d a7 8a be c4 c9 57 3f d6 dc 8d bf
       0.065496 -0.27081004 0.84292245 -1.1083019
0001a0 f8 b0 ac 3d d2 3d 2a bf 68 db fb be 11 bc 26 40
       0.084321916 -0.6650058 -0.4919083 2.6052287
0001b0 9a 8b e6 3e 41 b8 51 3f 35 ec c3 be e4 6a 2a 3d
       0.45028383 0.81921774 -0.3826615 0.041605845
0001c0 b5 f2 6a bf 9b 49 26 3f 2c bb 37 be f5 3b 9b 3f
       -0.9177659 0.64956063 -0.17942494 1.2127672
0001d0 06 65 86 3f bb 4c 26 bf c7 63 8e 3e 07 5b 19 3f
       1.049958 -0.6496083 0.278105 0.5990452
0001e0 b7 02 8a bf 6e 5d 82 bf c5 a6 cf 3e d2 10 0c bf
       -1.0782079 -1.0184762 0.40556923 -0.54713166
0001f0 54 13 0c 3f a7 93 10 3d 47 b1 1a bf 30 7a d4 3e
       0.5471699 0.035297062 -0.60426754 0.41499472
000200 a3 62 18 3f 88 52 db be d5 50 32 3e fc cf 74 3f
       0.5952551 -0.42836404 0.17413647 0.9562986
000210 40 ee 89 bf b9 ff 1d be 05 4c 28 bf e3 a9 a8 3c
       -1.0775833 -0.15429582 -0.65740997 0.02058882
000220 85 4d 8d be 1a af 3e bf 3e 31 5a be b5 f9 a2 bf
       -0.27598205 -0.74485934 -0.21307847 -1.2732455
000230 22 4c 4a 3f e0 7d 2d 3f 5b 80 88 bd a2 a3 26 3f
       0.7902242 0.67770195 -0.06665107 0.65093434
000240 6e 19 62 3b 62 54 8e bf ff aa 89 3e ab a6 8a bf
       0.003450002 -1.1119502 0.26888272 -1.0832113
000250 8e e2 0f bf 2f fe 56 bf 0a c6 ee 3d 71 43 75 be
       -0.5620507 -0.83981603 0.11658867 -0.23951508
000260 2c 01 3a 3e 71 34 cf bf a9 6a 5d bf 0c 34 c8 3e
       0.1816451 -1.6187879 -0.86490875 0.3910221
000270 6d 72 0d bd 20 c0 1f 3f c2 93 81 3f 94 50 39 bf
       -0.034532953 0.62402534 1.0123217 -0.7238858
000280 5a e1 6f 3f 0e 5b 3d 3e 17 b7 f2 3d fe 25 31 bf
       0.93703234 0.18491766 0.11851328 -0.69198596
000290 72 88 d6 bd 65 da 5a 3e 09 22 90 3e 40 7b 9f be
       -0.10475244 0.21372373 0.28150967 -0.3114872
0002a0 09 82 05 3f 20 e4 ef 3e f6 11 b9 3f c2 2a e0 be
       0.5215154 0.46853733 1.4458606 -0.43782622
0002b0 e2 9e 05 be 46 4c 98 bd 43 3c 9b be 6d a7 8f 3e
       -0.1304889 -0.07436423 -0.30319414 0.28057423
0002c0 87 96 ff bb c8 fe 88 bf e6 e0 44 3f 40 c0 cd be
       -0.0077999267 -1.0702753 0.7690567 -0.40185738
0002d0 da a9 17 bc 56 88 97 3e 17 77 48 3e 93 22 2b 3e
       -0.009256804 0.29596204 0.19576679 0.16712408
0002e0 da ad 6b 3c 4f dd 88 3e ac fd 08 3e 93 0c fe 3e
       0.014384711 0.26731345 0.13378018 0.49618968
0002f0 77 38 58 3e a2 d8 9a bd 0e 59 ea be 2f b9 81 bf
       0.2111529 -0.07560851 -0.45771068 -1.0134639
000300 10 a4 23 3f 11 44 04 bf 72 71 3e bc 5c 9a 55 3f
       0.63922215 -0.5166636 -0.011623727 0.8343866
000310 c8 03 b4 bf 18 93 30 bd ff 7d 12 bf a6 11 a5 be
       -1.4063654 -0.04310903 -0.57223505 -0.32240027
000320 fc 91 98 bd 32 76 4e bf 7c af 95 be ee ea 8c bf
       -0.07449719 -0.806491 -0.29235446 -1.1009195
000330 26 51 2b 3f 86 a7 08 3f 3d 7d e6 ba dd 11 2f 3f
       0.669207 0.5338062 -0.0017584931 0.6838663
000340 d2 53 9d 3d 80 23 80 bf 4d 5b 79 be b8 a7 8f bf
       0.07682003 -1.0010834 -0.24351235 -1.1223059
000350 09 5f c7 bd c0 05 48 bf e7 09 e4 3d 65 34 ce be
       -0.097349234 -0.78133774 0.11134701 -0.4027435
000360 06 2a 69 3c 99 57 a6 bf d6 11 3d bf 92 cd 53 3e
       0.014231211 -1.2995483 -0.7385534 0.20683888
000370 ab d6 11 bd 20 d2 1a 3f 0d b5 57 3f 5f 99 77 bf
       -0.035605114 0.60476875 0.84260637 -0.967184
000380 ad a4 7f 3f b5 8e 34 3e e4 f7 18 3e 55 c8 2b bf
       0.9986065 0.17632563 0.14938313 -0.6710256
000390 e9 d5 8e be 3c fe 18 3e b5 25 95 3e e6 ea 3b bf
       -0.27897575 0.14940733 0.2913033 -0.734053
0003a0 48 28 25 3f 76 ed a8 bc e1 61 a0 3f d3 81 b4 be
       0.6451459 -0.020621043 1.252987 -0.35255298
0003b0 08 33 cc 3d 3a 58 75 bd 4d dd 1f be a7 07 73 3e
       0.09970671 -0.059898593 -0.15611763 0.23733388
0003c0 10 14 7f be 66 01 85 bf 24 b5 2f 3f 63 29 bf be
       -0.24909997 -1.0391052 0.68635774 -0.37336263
0003d0 00 77 d6 ba e5 8a 1a 3e 3f eb 65 3e f7 21 8e 3e
       -0.0016362369 0.15092047 0.2245302 0.27760288
0003e0 59 65 3e be bd 7f c6 3e c9 4c b3 bc bb 38 1d 3f
       -0.18593349 0.38769332 -0.0218872 0.6141469
0003f0 12 4f 9e 3e 20 ca 30 bd e3 c8 51 bf 0b 71 86 bf
       0.309197 -0.04316151 -0.81947154 -1.0503248

bias f4 [64]
000000 09 2e be 3d 35 06 68 3d 0f b0 a2 bb 31 3b 4a be
       0.09286124 0.056646544 -0.0049648355 -0.19749142
000010 3f b2 77 be fa 46 a0 be 79 58 ad 3e d5 78 6f be
       -0.24189089 -0.3130415 0.33856562 -0.23385938
000020 f5 a0 e6 3d 26 25 e7 3d 05 7d 06 3e c3 da 09 3e
       0.11261169 0.112863824 0.13133629 0.13462357
000030 86 f1 f6 bd ec 8e a3 bd f5 eb 9d be 8c a2 5d 3e
       -0.12057786 -0.079862446 -0.30844083 0.21644038
000040 1c 6e ae be 63 45 45 3e 7e e1 7d b9 3a 00 15 3c
       -0.34068382 0.1926475 -0.00024211963 0.009094292
000050 81 43 05 3e 41 ce e5 3e 4c 66 2b bd 89 79 89 3c
       0.13014032 0.44883922 -0.041845605 0.016781585
000060 c8 3f 93 bd ad af 29 3e fe 92 35 3e da 6e 4c be
       -0.071899 0.16570921 0.17731854 -0.19964162
000070 c0 50 af 3d 4b fd 67 3d 0a cc 8b 3b 37 87 86 be
       0.08560324 0.056638043 0.0042662667 -0.26275036
000080 88 3a 03 be 1c bc 9a 3e 93 04 19 3e 86 b1 15 3e
       -0.12815297 0.3022164 0.14943151 0.14618501
000090 72 f8 40 3e b0 9a 06 bc b8 be 9f be 50 53 8c bd
       0.18844774 -0.008215591 -0.31200194 -0.06851828
0000a0 77 09 20 bd 62 e1 44 3e 51 05 0b 3d e4 e0 9b 3c
       -0.039071526 0.19226602 0.033940617 0.019028135
0000b0 96 78 2a 3e c1 41 83 3e 2f ce 07 be 23 91 91 3e
       0.16647562 0.25636104 -0.13262247 0.28431043
0000c0 6d 9b 6f bc 2a 10 11 be 54 b8 e8 3d 94 d2 55 3e
       -0.014624459 -0.14166322 0.11363283 0.2088111
0000d0 66 91 4f be 0b 50 6d 3e 31 75 f0 3d 4e 80 a5 be
       -0.20270309 0.23175065 0.117411025 -0.3232445
0000e0 08 2a 36 be 7b 2e 61 3e a0 98 f8 bd 55 2b 21 3e
       -0.17789471 0.21990387 -0.12138486 0.15739186
0000f0 fc ca da 3d dc 98 2f be de 11 36 be 3d f2 89 3d
       0.106832474 -0.17148155 -0.17780253 0.067356564

weight f4 [1, 64]
000000 93 a1 46 c1 8a d4 47 41 45 f1 45 41 78 6a 44 41
       -12.414447 12.489389 12.371404 12.275993
000010 c6 f4 48 41 0c 76 46 41 81 95 47 c1 54 14 46 41
       12.559759 12.40382 -12.474 12.379963
000020 86 f9 44 c1 48 e6 45 c1 07 65 46 c1 72 76 45 c1
       -12.310919 -12.368721 -12.399665 -12.341417
000030 5c 43 46 41 d6 4f 46 41 73 d4 44 41 72 53 45 c1
       12.391445 12.394491 12.3018675 -12.332872
000040 fb 2f 47 41 ca 64 48 c1 47 28 46 41 4d b0 47 41
       12.449214 -12.524607 12.384833 12.480542
000050 ed 42 47 c1 0e bd 47 c1 e6 d2 45 41 17 c7 45 c1
       -12.453839 -12.483656 12.363989 -12.361106
000060 03 7a 45 41 ca b2 45 c1 9a e9 48 c1 ab f4 44 41
       12.342288 -12.35615 -12.557032 12.309733
000070 e7 ad 44 c1 65 94 46 c1 ad de 45 c1 63 17 45 41
       -12.292457 -12.411229 -12.366864 12.31821
000080 31 d4 44 41 2e de 47 c1 d8 bf 47 c1 3b dc 45 c1
       12.301805 -12.491743 -12.484337 -12.366267
000090 bc b4 44 c1 ea f2 47 c1 37 05 47 41 75 ea 46 41
       -12.294125 -12.496805 12.438773 12.4322405
0000a0 35 a3 47 41 1a aa 48 c1 25 65 46 c1 fc 65 44 41
       12.477345 -12.541529 -12.3996935 12.274899
0000b0 16 38 45 c1 48 9f 46 c1 4b d4 44 41 00 2f 47 c1
       -12.326193 -12.413887 12.301829 -12.448975
0000c0 3c 44 46 41 b1 ad 46 41 b4 2a 47 41 ef d0 44 c1
       12.391659 12.417405 12.447926 -12.301009
0000d0 ad 97 45 41 14 8a 47 c1 98 a9 44 c1 30 4a 46 41
       12.34953 -12.4712105 -12.291405 12.393112
0000e0 7b 90 45 41 c6 e7 48 c1 7f d4 46 41 ca 35 45 c1
       12.347774 -12.556585 12.426879 -12.325632
0000f0 15 89 44 c1 ba da 45 41 52 be 44 41 d0 28 48 c1
       -12.283467 12.3659 12.296465 -12.509964
