TD3/data/exp/InvertedDoublePendulum-v2/2022-06-30-11-46-36_critic_2.pt (torch, 23319 bytes, 5 tensors)

weight f4 [64, 12]
0	0xbd854b0c	-0.06508455
1	0x3f9ff1eb	1.2495703
2	0x3f8cb784	1.0993505
3	0x3e6ad1eb	0.2293164
4	0x3e30ca6a	0.17264715
5	0x3ddd7002	0.108123794
6	0x3eaae91a	0.33380967
7	0x3e8acc8e	0.27109188
8	0x3e0a75a9	0.13521446
9	0xbc2936a0	-0.010327965
10	0x3e3938b2	0.18088034
11	0x3aef0729	0.0018236387
12	0x3de7ae80	0.1131258
13	0xbf6b66de	-0.9195384
14	0xbfaa9f79	-1.3329917
15	0x3e32d171	0.17462708
16	0xbe87bd83	-0.26511773
17	0x3ba0a7a9	0.004902799
18	0xbec9b6d1	-0.3939729
19	0xbe979d83	-0.2961236
20	0xbef1f741	-0.47258952
21	0xbd6022cc	-0.054720685
22	0xbd892b58	-0.0669772
23	0x3e216c13	0.15763883
24	0xbf4c3890	-0.7977381
25	0x3db27eda	0.08715601
26	0xbeab521b	-0.3346108
27	0x3e397d18	0.18114126
28	0x3eb52e4b	0.3538688
29	0xbdffeff7	-0.124969415
30	0x3e412b7e	0.18864247
31	0x3d25c7f3	0.04047389
32	0xbed6af2f	-0.4193053
33	0x3e6d78bc	0.23190588
34	0xbd520b3c	-0.051280245
35	0xbed56d79	-0.41685084
36	0xbde98d90	-0.11403954
37	0xbfc51fa9	-1.5400287
38	0x3ebde034	0.37085116
39	0x3bd8c4a8	0.00661524
40	0x3e379875	0.17929251
41	0xbec52191	-0.38502172
42	0xbe3e64c4	-0.18593127
43	0x3d03ebf3	0.03220744
44	0x3eab3258	0.33436847
45	0xbe0c11ed	-0.13678713
46	0xbe7bac03	-0.24577336
47	0xbe5e0a23	-0.21683554
48	0xbefd0a5c	-0.49421966
49	0xbe9267e1	-0.28594878
50	0xbfccff25	-1.6015364
51	0xbdc322ea	-0.09528144
52	0xbeb2e914	-0.3494345
53	0xbead1faf	-0.33813235
54	0xbeabdb41	-0.33565715
55	0xbe5d6ca6	-0.21623477
56	0x3db80445	0.08985189
57	0xbcdf58a0	-0.02726394
58	0xbe2ffeba	-0.17187014
59	0xbe8f9450	-0.2804284
60	0x3e75b007	0.2399293
61	0x3fa81fec	1.3134742
62	0xbf055375	-0.5208047
63	0xbe46e5d5	-0.19423611
64	0xbebecef1	-0.3726726
65	0x3eb24881	0.3482094
66	0x3e758ddf	0.23979901
67	0xbe1c0e5c	-0.15239853
68	0xbd3a9b14	-0.04555805
69	0xbdc6f142	-0.09713985
70	0x3e78e220	0.2430501
71	0xbf19549b	-0.5989472
72	0x3f20339f	0.6257877
73	0x3f0ac3aa	0.5420481
74	0xbfd0730c	-1.628511
75	0x3e709e60	0.23497915
76	0x3eb667f3	0.35626182
77	0x3efebbe5	0.49752727
78	0xbdb09a16	-0.086231396
79	0xbe96e71a	-0.29473191
80	0x3ac190ff	0.0014767944
81	0xbc753c40	-0.014967978
82	0xbe37ace0	-0.1793704
83	0xbe6309de	-0.22171733
84	0x3f2eaa6e	0.68228805
85	0x3f3264f4	0.6968529
86	0xbfde1dd5	-1.7352854
87	0xbe80e51c	-0.25174797
88	0xbd3ec454	-0.04657395
89	0x3dab6c1c	0.083702296
90	0x3d82302c	0.06356844
91	0xbdf7afca	-0.12094076
92	0x3ed5fa5e	0.41792578
93	0xbe2fb85f	-0.17160176
94	0xbe7506ea	-0.23928419
95	0xbe9a7692	-0.30168587
96	0xbf67f217	-0.90603775
97	0x3e92bc11	0.28659108
98	0x3f3fadbc	0.7487447
99	0x3ed91d7c	0.42405307
100	0x3efda4f6	0.49539918
101	0xbec6a5ec	-0.38798463
102	0x3e346804	0.17617804
103	0x3e480f93	0.19537191
104	0x3f030125	0.5117362
105	0x3e18da8c	0.14927119
106	0xbdf32c04	-0.1187363
107	0xbe87ff2b	-0.26561865
108	0x3e8c5a5d	0.27412692
109	0xbf885ab3	-1.0652679
110	0xbe62ea8e	-0.22159788
111	0x3bb474de	0.0055070957
112	0x3e91bc92	0.2846418
113	0xbe838493	-0.25687084
114	0xbe8b3ff5	-0.27197233
115	0xbd9e76f8	-0.07737535
116	0xbeae387e	-0.34027475
117	0x3e3647b8	0.17800796
118	0x3e866bbe	0.26254076
119	0x3f106f06	0.5641941
120	0xbd61c808	-0.055122405
121	0xbf2b8074	-0.6699288
122	0xbfecdfd3	-1.8505806
123	0xbe2bec23	-0.16789298
124	0x3e62c587	0.22145663
125	0xbea9723c	-0.33094966
126	0xbe837c0d	-0.2568058
127	0xbdd3f127	-0.103487305
128	0xbefe8a4d	-0.4971489
129	0xbe2f4320	-0.1711545
130	0xbd580328	-0.052737385
131	0xbe28353c	-0.16426557
132	0x3e61a4f5	0.22035582
133	0xbf694c03	-0.9113161
134	0xbff0d8ba	-1.881614
135	0x3daa3ec8	0.08312756
136	0xbe642fe7	-0.22283898
137	0xbd185635	-0.03719159
138	0xbe5cc1ce	-0.21558306
139	0xbe9fdae8	-0.312217
140	0x3dc4e4c9	0.0961395
141	0xbe6f4ae4	-0.23368412
142	0xbe42f9dc	-0.19040626
143	0xbe21ea8f	-0.15812133
144	0x3c9d473a	0.019199003
145	0x3f6876e4	0.9080641
146	0x3faf30c3	1.3686756
147	0x3d0e8c86	0.034801982
148	0xbe6c1217	-0.23053776
149	0x3ea1ad17	0.3157737
150	0x3eb55372	0.35415226
151	0x3e4e2fe1	0.20135452
152	0xbec11ee4	-0.3771888
153	0xbe674d0b	-0.22587983
154	0x3e1af954	0.15134174
155	0x3e16b0e2	0.14715913
156	0xbe0a5f15	-0.13512833
157	0xbe06fc19	-0.13182105
158	0x3fa16525	1.2608992
159	0x3df7a65d	0.12092278
160	0xbc09862e	-0.008393807
161	0xbe069fb2	-0.13146856
162	0x3d5216ba	0.051291205
163	0x3e5af3ab	0.21382014
164	0x3e8356a6	0.25652045
165	0x3d27c7a0	0.04096186
166	0xbe14f484	-0.145464
167	0x3e446cd5	0.19182141
168	0x3f753a3e	0.95791996
169	0xbec3935d	-0.38198367
170	0xbfc88882	-1.5666659
171	0x3edada10	0.42744493
172	0x3e5185e9	0.20461239
173	0x3e8f96d6	0.28044766
174	0xbc733cb2	-0.014846014
175	0xbe3ef866	-0.18649444
176	0x3e84a7ea	0.25909358
177	0x3e90649a	0.28201753
178	0xbe541b7c	-0.2071361
179	0xbee02c1a	-0.43783647
180	0xbeebc4b4	-0.4604851
181	0xbfd46e42	-1.6596148
182	0xbd88e450	-0.06684172
183	0xbe34764c	-0.17623252
184	0x3e60e383	0.21961789
185	0xbe19c987	-0.15018283
186	0xbe94ba52	-0.290484
187	0xbe1d4bc7	-0.15360938
188	0x3e5b4a90	0.21415162
189	0xbdcd3138	-0.10019153
190	0x3dc7b350	0.09750998
191	0xbdd6224b	-0.104557596
192	0xbea8281e	-0.32843107
193	0x3f8728fa	1.055938
194	0xbfa33b84	-1.2752538
195	0xbcb6901b	-0.022285512
196	0x3e7bf0f4	0.24603635
197	0x3f0419dd	0.51601964
198	0x3a3e1d5d	0.00072523
199	0xbcb85cad	-0.022505129
200	0xbc86e227	-0.01646526
201	0x3da0c854	0.078507096
202	0xbe2c186d	-0.16806193
203	0xbe9ad3c5	-0.30239692
204	0x3f153868	0.58289194
205	0x3eac47c6	0.3364851
206	0x3fab2dc6	1.3373344
207	0x3ca3aedd	0.019980842
208	0xbeb6263b	-0.35576043
209	0x3e666eb2	0.22503164
210	0x3ed0367d	0.4066657
211	0x3e967fc3	0.2939435
212	0xbede6dc1	-0.4344311
213	0xbdbbaa58	-0.0916335
214	0xbe5337db	-0.20626776
215	0x3e631c92	0.22178867
216	0xbf2cbaa3	-0.67472285
217	0x3f58ad4e	0.8463944
218	0xbe58f009	-0.21185316
219	0xbf056e7a	-0.521217
220	0xbea7d4c7	-0.32779524
221	0xbeaf2e3f	-0.3421497
222	0x3dc088cd	0.09401093
223	0x3e20b709	0.15694822
224	0x3eee8a37	0.46589825
225	0xbe60ee7d	-0.21965976
226	0xbe77cfb0	-0.2420032
227	0xbe9e5d2d	-0.30930462
228	0xbf3e3560	-0.74300194
229	0x3e6a690a	0.22891632
230	0xbf8b2ef8	-1.0873709
231	0x3eb48171	0.35255006
232	0x3e2ada0d	0.16684742
233	0xbdfff764	-0.12498358
234	0x3da28922	0.07936312
235	0xbdb3a677	-0.08771985
236	0xbee1ffeb	-0.44140562
237	0xbc2cf5e0	-0.010556668
238	0xbc35cd20	-0.011096269
239	0xbefdf351	-0.49599698
240	0xbd0a77e9	-0.03380576
241	0x3f9c3f3b	1.2206796
242	0x3f24e025	0.6440452
243	0x3d943cdb	0.0723817
244	0xbe8efa08	-0.27925134
245	0x3dcea575	0.10090152
246	0x3e766162	0.24060586
247	0x3e17bdad	0.1481845
248	0xbd151122	-0.036393292
249	0xbe335508	-0.17512906
250	0x3de5bbe8	0.11217481
251	0xbed2997a	-0.41132718
252	0x3d428bc3	0.04749657
253	0x3fc895e0	1.5670738
254	0xbeba53bd	-0.36392012
255	0xbe731754	-0.23739368

bias f4 [64]
0	0xbebf20ba	-0.37329656
1	0xbdee2c88	-0.116295874
2	0x3d3422d9	0.043978546
3	0x3d16f9a3	0.036859166
4	0x3d1a9b7e	0.037745945
5	0x3e370610	0.17873406
6	0xbd62d777	-0.055381265
7	0xbde76b28	-0.11299735
8	0xbca7c2c1	-0.020478608
9	0xbde4ee0d	-0.11178217
10	0xbe18ad83	-0.1490994
11	0xbc4bfcb1	-0.012450383
12	0x3e7e0a9e	0.24808738
13	0x3d3fe79d	0.046851743
14	0x3da9cad3	0.08290639
15	0xbd53f8b5	-0.051750857
16	0xbcae9457	-0.021310968
17	0x3dabe096	0.08392446
18	0xbce64b3c	-0.028112046
19	0x3df1f56b	0.11814388
20	0x3e5e3d86	0.21703157
21	0xbb89b6bc	-0.004202692
22	0xbd6d3d9c	-0.057920083
23	0xbd64bad1	-0.055842225
24	0xbdd0837b	-0.10181328
25	0xbb9dba9e	-0.0048135063
26	0x3d8b11b0	0.06790483
27	0xbdc4b404	-0.09604648
28	0x3dbf35b4	0.09336415
29	0xbea6b9b3	-0.32563552
30	0x3ec0e99d	0.37678233
31	0xbd033e1b	-0.03204165
32	0x3dc31853	0.09526124
33	0xbed26d04	-0.41098797
34	0xbe9b5275	-0.30336347
35	0xbebaea05	-0.36506668
36	0xbd8bbe25	-0.068233766
37	0x3ce67da5	0.028136084
38	0xbe1b37e5	-0.15158041
39	0xbe0b0c7e	-0.13578984
40	0x3d9cf5dc	0.076640815
41	0x3c0ebd9d	0.0087121995
42	0xbe872e87	-0.26402685
43	0x3e3a4c06	0.18193063
44	0x3e1485a2	0.14504102
45	0x3e866415	0.26248232
46	0x3e1457e5	0.14486654
47	0xbe3b2b94	-0.18278342
48	0xbe75d810	-0.24008203
49	0x3e32f0cc	0.17474669
50	0x3dd29b45	0.102835216
51	0x3e186085	0.1488057
52	0xbe445d8e	-0.19176313
53	0x3d723827	0.059135582
54	0x3c1b1077	0.009464375
55	0x3e119359	0.14216365
56	0x3ea3a9e7	0.31965563
57	0x3ca73942	0.020413045
58	0x3cc333a1	0.02382833
59	0x3d808318	0.06275004
60	0xbe114b37	-0.14188848
61	0xbe854d48	-0.26035523
62	0x3e905fd0	0.281981
63	0xbe7bc387	-0.24586307

weight f4 [64, 64]
0	0x3e96673d	0.2937564
1	0xbebd8b24	-0.37020218
2	0xbf344b8c	-0.70427775
3	0xbf2c1def	-0.67233175
4	0xbf01de90	-0.5073023
5	0x3ec402fb	0.38283524
6	0xbf2b5fd3	-0.6694309
7	0x3f01bef2	0.50681984
8	0xbf5d518c	-0.86452556
9	0xbe9713b5	-0.29507223
10	0xbee2dbb8	-0.44308257
11	0xbeed0a06	-0.4629671
12	0x3fd7206d	1.680677
13	0xbe02a953	-0.12759905
14	0xbedd3710	-0.43206072
15	0xbe8ff05e	-0.28113073
16	0xbdf20208	-0.11816794
17	0x3fbe173a	1.4850838
18	0xbd6db56a	-0.058034338
19	0xbf24275c	-0.6412256
20	0x3eaace66	0.33360595
21	0x3db9f5da	0.090800956
22	0x3fabced4	1.3422494
23	0xbfae95aa	-1.3639424
24	0xbfd0de77	-1.6317891
25	0xbe6267b4	-0.22109872
26	0x3f0cb8a7	0.5496926
27	0x3fbb7f2d	1.4648186
28	0xbf149aba	-0.58048594
29	0x3db80ae6	0.08986454
30	0xbe52c9c9	-0.20584787
31	0xbf106991	-0.5641108
32	0x3ea5a3c5	0.3235151
33	0x3e72c39e	0.23707435
34	0x3cf7989d	0.030224139
35	0x3f22320c	0.63357615
36	0xbfb5dc0a	-1.4207776
37	0xbe93ae29	-0.2884381
38	0xbf56f5c5	-0.83968765
39	0xbcb4fa72	-0.022092078
40	0xbd77b640	-0.06047654
41	0xbf3dee5c	-0.7419183
42	0xbefd62bf	-0.494894
43	0xbe26f500	-0.16304398
44	0x3d328de0	0.043592334
45	0x3f49d1a6	0.78835523
46	0x3fab841e	1.3399694
47	0xbeb1069c	-0.34575355
48	0x3ebe3187	0.3714716
49	0x3f599804	0.8499758
50	0xbe85611a	-0.26050645
51	0xbee32850	-0.44366693
52	0xbde0e992	-0.1098205
53	0xbf5781d5	-0.8418248
54	0xbed8e98b	-0.4236568
55	0x3de71656	0.11283557
56	0xbeabd3db	-0.3356007
57	0xbe820251	-0.25392392
58	0x3db4af1b	0.08822461
59	0x3ee17a44	0.44038594
60	0xbf577664	-0.84165025
61	0xbe00e4f1	-0.12587334
62	0x3e9e0bc2	0.30868345
63	0xbf64fc76	-0.89447725
64	0x3f450b2b	0.76970166
65	0xbf465640	-0.7747536
66	0x3f3c1ded	0.73483163
67	0x3edc3aed	0.43013707
68	0xbf56ff26	-0.83983076
69	0xbf263ef6	-0.6493982
70	0xbe40a92a	-0.18814531
71	0xc0073e54	-2.1131792
72	0x3fd8b29f	1.6929511
73	0x3d586632	0.052831836
74	0xbf2e3eeb	-0.68064755
75	0xbf84da01	-1.037903
76	0x3edf3043	0.43591508
77	0x3f3084f2	0.6895286
78	0xbe617c75	-0.22020133
79	0x3e17b602	0.14815524
80	0x3e007c6f	0.12547468
81	0xbebc757e	-0.3680839
82	0xbe3d621e	-0.1849446
83	0x3f81e85b	1.0149034
84	0xbd160b87	-0.036632087
85	0xbe95f692	-0.2928968
86	0xbe2b67b1	-0.16738774
87	0x3e911a38	0.28340316
88	0xbe26ab8e	-0.1627638
89	0xbcbc1a8d	-0.02296188
90	0xbea81ec7	-0.3283598
91	0x3f11653c	0.56795096
92	0xbea7bf45	-0.32763115
93	0x3db3b832	0.08775367
94	0x3e31b975	0.17355902
95	0xbee2fa7a	-0.44331723
96	0x3e1096ca	0.14120021
97	0x3ee8dbfd	0.45480338
98	0xbe8cc1b5	-0.27491537
99	0xbfee13c2	-1.859978
100	0xbe47518d	-0.19464703
101	0xbe56f964	-0.20993572
102	0x3ee99c6f	0.45627162
103	0x3f928ad3	1.1448616
104	0x3ecc827a	0.39943296
105	0xbeb73ba9	-0.35787705
106	0xbb695e3e	-0.0035609151
107	0xbf4e849f	-0.80671114
108	0x3defa857	0.1170203
109	0xbf08acbb	-0.53388566
110	0xbf21a1cf	-0.63137525
111	0xbe68c757	-0.22732292
112	0x3ee035e4	0.43791115
113	0xbe733fdc	-0.23754829
114	0xbdf32fcf	-0.11874353
115	0x3f31eb32	0.69499505
116	0xbe1d2f11	-0.15349986
117	0xbecd35ec	-0.40080202
118	0xbea792a9	-0.3272908
119	0x3e4a0a30	0.19730449
120	0xbe0c76d6	-0.13717207
121	0xbca76589	-0.020434158
122	0x3ea9110d	0.3302082
123	0x3f1791ea	0.5920702
124	0x3f5158d4	0.81776166
125	0x3e4790e5	0.19488867
126	0xbe649cdb	-0.2232546
127	0xbdfbbae6	-0.122915074
128	0xbf3c90f2	-0.7365867
129	0x3f4b2e94	0.7936795
130	0xbe2f84ff	-0.17140578
131	0xbe25513e	-0.16144273
132	0x3fb95e2b	1.4481863
133	0x3e3038a3	0.17209105
134	0xbe8cea30	-0.2752242
135	0x3f1ce440	0.6128578
136	0xbeb56998	-0.35432124
137	0xbe49d266	-0.19709167
138	0x3f678445	0.904362
139	0x3f4f0d1f	0.80879396
140	0xbed5879f	-0.41705033
141	0xbed59c4a	-0.41720802
142	0xbe541686	-0.20711717
143	0x3f073673	0.5281746
144	0x3e467299	0.19379653
145	0xbf061411	-0.5237437
146	0x3f2abe67	0.6669678
147	0x3e1f8ac6	0.15580282
148	0xbbd9115a	-0.006624383
149	0xbbcab4a9	-0.006186087
150	0xbea78c37	-0.32724163
151	0x3eee4ec0	0.46544456
152	0x3f23676c	0.63829684
153	0x3eff0239	0.49806383
154	0x3e231af2	0.15928248
155	0xbf139bc8	-0.5765958
156	0x3da20d01	0.079126365
157	0x3e77b44a	0.24189869
158	0x3ebaa354	0.36452734
159	0x3f7df6a2	0.99204457
160	0xbf0d2f7b	-0.55150574
161	0xbf76c8a5	-0.9639991
162	0x3f022eed	0.50852853
163	0x3eeaf544	0.45890248
164	0x3f49041f	0.78521913
165	0x3f24b4dd	0.64338475
166	0x3e8ce5cb	0.27519068
167	0xbf18e0c1	-0.5971795
168	0xbebdaff9	-0.3704832
169	0x3d01df48	0.03170708
170	0x3e522616	0.20522341
171	0x3f2e290c	0.6803138
172	0xbe945add	-0.28975573
173	0x3d44d132	0.048051067
174	0xbe14db21	-0.14536716
175	0x3cf47d14	0.029844798
176	0xbf483d9a	-0.78218997
177	0xbea34e8a	-0.31895858
178	0xbea7a1ed	-0.32740727
179	0xbead85ea	-0.3389123
180	0xbe32a243	-0.1744471
181	0x3ebbfc1a	0.36715776
182	0x3f54c36d	0.83110696
183	0xbd875ac9	-0.06609113
184	0xbeaa8c6f	-0.33310267
185	0xbf023143	-0.5085642
186	0xbf539350	-0.82646656
187	0xbfb0acf6	-1.3802783
188	0xbd51612b	-0.051118057
189	0xbea90205	-0.33009353
190	0x3e62f412	0.22163418
191	0x3ee71514	0.4513327
192	0x3f4349d7	0.76284546
193	0xbed63b06	-0.41841906
194	0x3f1d3b0f	0.6141824
195	0xbe2c34fa	-0.16817084
196	0xbeccc34e	-0.39992756
197	0x3db1ca4d	0.08681164
198	0x3f828d19	1.019931
199	0x3de4539a	0.11148758
200	0x3eb7f9a5	0.3593265
201	0x3da752d5	0.08170096
202	0x3d90bd37	0.0706734
203	0xbd9b8a63	-0.075947545
204	0xbd95e8ec	-0.07319817
205	0x3e18dff8	0.14929187
206	0x3f330d05	0.6994174
207	0xbf6177cf	-0.8807344
208	0x3e9c312a	0.3050626
209	0xbd1f1bc1	-0.038844828
210	0xbd332b53	-0.04374249
211	0x3f0c0fb2	0.5471145
212	0x3ddfa08a	0.10919292
213	0x3f349ecd	0.7055481
214	0xbec0045e	-0.37503332
215	0xbe8d5c28	-0.27609372
216	0xbd002e95	-0.031294424
217	0xbe8e65eb	-0.27812132
218	0x3e9a505e	0.3013944
219	0x3e90da2e	0.28291458
220	0x3f1e6d5a	0.6188561
221	0xbe9b91e5	-0.30384746
222	0xbe827bc9	-0.25485066
223	0xbf04278b	-0.5162284
224	0x3e6fb721	0.23409702
225	0x3f67ab24	0.90495515
226	0x3d88d12c	0.06680521
227	0xbe47a3ac	-0.1949603
228	0x3d5b57b9	0.053550456
229	0xbe867795	-0.2626311
230	0xbe8fecd4	-0.28110373
231	0x3ec84b7b	0.39120087
232	0x3e9f657f	0.31132123
233	0x3f6aa642	0.9165994
234	0xbd68866d	-0.056768823
235	0xbf1767ed	-0.59142953
236	0xbdf37e47	-0.1188932
237	0x3e690bc2	0.22758391
238	0x3ee80521	0.45316413
239	0x3e8cf46b	0.27530226
240	0x3f067bfc	0.52532935
241	0x3d342946	0.043984674
242	0x3f04e390	0.5190973
243	0x3f16789b	0.5877778
244	0x3faff60d	1.3746964
245	0x3ec2d5a9	0.38053635
246	0x3cf73966	0.030178737
247	0xbf9accee	-1.209379
248	0x3ecd633c	0.40114772
249	0x3f55d183	0.83522815
250	0x3e3cc82d	0.18435736
251	0x3ef49803	0.47772226
252	0xbe8258b0	-0.25458288
253	0x3dd6e081	0.104920395
254	0xbe8a2cf1	-0.26987413
255	0x3eaa21eb	0.33229002

bias f4 [64]
0	0x3e98f83d	0.2987689
1	0xbdc0af9c	-0.09408495
2	0x3e619976	0.22031197
3	0xbe29cbcc	-0.16581649
4	0x3eb21dcf	0.34788367
5	0x3e9bd42d	0.30435315
6	0xbe5370fe	-0.20648572
7	0x3d45950b	0.04823784
8	0x3e0d27b2	0.13784674
9	0xbe261034	-0.16217119
10	0x3e29f81f	0.16598557
11	0x3eb7b011	0.35876516
12	0x3e60c710	0.21950936
13	0xbe09d73f	-0.13461016
14	0xbd865700	-0.06559563
15	0xbe11b7ab	-0.1423022
16	0xbe546dc2	-0.20744994
17	0x3e8de3fd	0.27713004
18	0xbe455f36	-0.19274601
19	0x3ddcc912	0.107805386
20	0xbe51747d	-0.20454593
21	0xbe5c85ed	-0.21535464
22	0xbd8b61f7	-0.06805795
23	0xbd8a2af6	-0.067464754
24	0xbd7e59ab	-0.062097233
25	0xbe98fd6a	-0.2988084
26	0x3c95ef1c	0.018302493
27	0x3e13499c	0.14383548
28	0xbe47154d	-0.1944172
29	0x3e246cae	0.16057083
30	0x3e31efd4	0.17376643
31	0x3e69a59f	0.22817086
32	0x3e07754d	0.1322834
33	0xbe3d44e2	-0.18483308
34	0xbeac5718	-0.33660197
35	0xbe671287	-0.22565661
36	0xbd0d41e7	-0.034486677
37	0x3dfc050f	0.12305652
38	0xbe9b0db4	-0.30283892
39	0xbe60a165	-0.21936567
40	0xbe1b4984	-0.15164763
41	0xbeb6a039	-0.35669115
42	0x3e2d462a	0.16921297
43	0xbe855b74	-0.26046336
44	0xbe12b956	-0.14328513
45	0xbe9babed	-0.30404606
46	0xbd8bc6a4	-0.06824997
47	0x3e4ac6f4	0.19802457
48	0xbe82508d	-0.2545208
49	0xbd3dc3ef	-0.046329435
50	0x3e0583ae	0.13038513
51	0x3ea4e537	0.32206127
52	0xbea89eed	-0.3293375
53	0xbe873df5	-0.26414457
54	0xbe8e4fd9	-0.27795294
55	0xbdeeacd1	-0.11654056
56	0xbd09dc43	-0.033657324
57	0x3eb4fd15	0.35349336
58	0xbdb5377a	-0.08848472
59	0x3da8e19b	0.08246156
60	0x3edc5360	0.4303236
61	0xbe19e5a0	-0.15029001
62	0x3d00f8b3	0.031487178
63	0x3bab655b	0.0052305884

weight f4 [1, 64]
0	0xc14842f7	-12.516349
1	0x41479455	12.473714
2	0xc1464997	-12.392966
3	0x41456606	12.337408
4	0xc1451ecc	-12.320019
5	0xc1493c9a	-12.577295
6	0x4147be04	12.483891
7	0xc144969f	-12.286773
8	0xc1444a01	-12.268067
9	0x414658cb	12.396678
10	0xc145674a	-12.337717
11	0xc147c9bb	-12.486751
12	0xc1444c64	-12.26865
13	0x41445404	12.270512
14	0x4145895f	12.346038
15	0x4146e090	12.429825
16	0x4147aa3c	12.479061
17	0xc145c7eb	-12.361308
18	0x41462852	12.384844
19	0xc146b607	-12.41944
20	0x4145d38b	12.364146
21	0x41463c32	12.389696
22	0x4144cf73	12.300647
23	0x4146249e	12.38394
24	0x41473e5a	12.452723
25	0x41465b85	12.397344
26	0xc1464bc5	-12.393498
27	0xc14655ed	-12.395978
28	0x4145895f	12.346038
29	0xc14482c0	-12.281921
30	0xc1458c2c	-12.346722
31	0xc1461af6	-12.381582
32	0xc1449402	-12.286135
33	0x414572cb	12.340526
34	0x41458a2f	12.346236
35	0x414858d3	12.521686
36	0x41464923	12.392856
37	0xc1468532	-12.407518
38	0x41459431	12.34868
39	0x4148f583	12.559939
40	0x4147706c	12.464947
41	0x4144ef83	12.308475
42	0xc1460f8e	-12.378798
43	0x4146ab08	12.416756
44	0x414599df	12.350066
45	0x41483309	12.51246
46	0x4146c09f	12.422027
47	0xc1463232	-12.387255
48	0x4144b103	12.293216
49	0x41458317	12.344504
50	0xc146e3a5	-12.430577
51	0xc1467dde	-12.405729
52	0x414794c2	12.473818
53	0x414882ab	12.531901
54	0x4145d768	12.365089
55	0x4145f624	12.372593
56	0xc146ac63	-12.417087
57	0xc1479bba	-12.475519
58	0x41457153	12.340167
59	0xc14527a2	-12.322176
60	0xc1460a89	-12.377572
61	0x41456dd7	12.339316
62	0xc147a7bb	-12.47845
63	0x4148968e	12.5367565
