DDPG/data/exp/HumanoidStandup/2022-06-24-13-32-59_actor.pt (torch, 670167 bytes, 6 tensors)

weight f4 [256, 376]
00000000: b1b3 473d 342b a33b ea20 4bbd 02a4 bc3a
00000010: 832c dcbc 7b24 173c f096 03bc e965 6abd
00000020: d407 e7bb 2358 0a3b fae6 ee3d a304 e7bd
00000030: e562 103d e8ae e6bd aca2 c63d 7baa 02be
00000040: a033 b5bc 6cff 6fbd 8306 833d c1a3 583d
00000050: 62b7 823d d34a 8c3d 99bc 30bd a702 093e
00000060: 7675 2ebb 8c0b 59bd 3557 6cbc 8d97 943d
00000070: 7b3b 8c3d db62 d0bc e880 743c 31b9 113d
00000080: 724f 85bb 316a 843d 6be8 1fbc 89e4 123d
00000090: 4a87 a1bc d5ed 28bc 9d74 a53b c94f 7abc
000000a0: 3784 4bbd 18b8 70bd 600a 57bd 9ade 573c
000000b0: 2a53 583d c704 96bc 81fe 00bd 90d1 85bc
000000c0: 071f 1fbc 8725 483c c46a 4e3d 9467 193d
000000d0: 882e 393d cc73 813c a4f0 0f3d ea9a a03d
000000e0: b26f 833e f845 9d3a 55e7 1b3d 10f6 923d
000000f0: 6a41 b63d 37ef 1fbd 5306 cbbc 1fc6 a1bc
00000100: b54c e93d 96db c53d 52e8 b03d 3c23 d23d
00000110: b56a 4ebd f235 8f3d e4ad afbd f7b1 873c
00000120: 6b84 aa3a 624a 05be ff0a a7bd 42b5 5fbd
00000130: 9d66 5e3d 81cc e6bb 6051 7b3d 1778 dabc
00000140: 1575 93bd 4a56 873d c56b 86bd 2bd0 f23c
00000150: 2857 df3d 0261 5c3e 00ab 953d 2c5e 05be
00000160: 0a99 b1bd e68d 6ebc d942 a6bd fba0 e4bd
00000170: 30e5 ec3c fb12 84bd 5b47 89bd ef0c 733d
00000180: dbfa 383d ca67 13be 1d9e 73bc bffe 303d
00000190: 1820 64bd 101e 143b 554f 4c3c 1d6f eb3c
000001a0: 80af d13d d333 a0bd 605e 4e3e c577 47bd
000001b0: bdc3 8abc b75f 283d ea65 3dbd df4a 1dbd
000001c0: 017c ddbb 34a7 9a3d 5266 a4bc dc3c 773c
000001d0: c709 683d b131 d5bd 967a 573d 5005 303e
000001e0: 0f06 6b3b 97a0 373d 78b2 42bd bc09 6f3d
000001f0: 3d7a edbd ac51 003d 1323 753e fe43 5ebe
00000200: 7c5b 53be ead3 2a3c 3736 2fbc f8d8 e9bd
00000210: 2220 613c 93bb 53bc 19af c03d db6a 1c3b
00000220: 46c2 373e e89f 59be 78f1 28be 04de 063d
00000230: a416 2ebd 1f55 80bd debb 663d 339e d73d
00000240: cf65 aebd 718a 8c3d 9514 2a3e ef97 6a3b
00000250: 3f22 b6bd 8deb 36bd b627 0b3d dbd5 0a3d
00000260: 6821 a0bd f826 fbbd ddf1 e43d 43d8 5c3d
00000270: c7c1 153e 0755 923d 97cc 043e f79b 503c
00000280: a36d 0bbb 2040 33bd f417 36bd f5a7 17bc
00000290: 7539 b5bd 1924 963c 0a6a 74bc 2223 f73a
000002a0: 1675 9b3c f9de 8bbc 034d b93d d3b2 8bbc
000002b0: a7d8 5c3d 9179 073e 6dbd bb3d 3f43 e53d
000002c0: 3972 923d aab5 efbd 44bc e2bd de7a 80bd
000002d0: 32b6 a9bd 5205 d63d c6d0 313d 0455 813c
000002e0: 30c2 dfbd dcda b63c d0c2 e43b b41d 92bc
000002f0: f6ba 2fbd 76f3 ffbb 95b1 93bb d3bc 90bb
00000300: 59ed f33c 8028 3a3c 95b1 0b3d 139d 383d
00000310: d74f 5e3d 890e 933b ef49 e6bc 8abd ecbb
00000320: 976f f23c 5e17 d3bb dde9 4c3c e4ff 45bd
00000330: 099e 973c 65a4 c93a a9aa b23c 0d12 ec3b
00000340: eaa7 88bc 14d5 61bc 21ec 69bd b4cf 59bb
00000350: 603d 85ba 46c8 eabb e5cb 143d 95ba 0b3c
00000360: 2cac 05bc 06af 643d 1a2d c0bc ea0f 35bd
00000370: 0e70 833b 1ef5 a03b fca1 08bc 2d24 65bc
00000380: f1d5 1bbd 4711 423d 5a4d 11bd dcad 9a3d
00000390: 9d65 03bd ed7b 4dbd f7b2 5c3c 7450 56bc
000003a0: 05e2 553c 29ae 923d a21f 13bb bbeb c0bc
000003b0: 031c 253d 6d1c 23bd 6f41 01bd 22de 25bd
000003c0: 1ca8 483a bada 0fbd c0fc d1bc 91f0 563a
000003d0: a660 8ebd 96cc 76bb 6190 333c 0ea9 c53b
000003e0: a528 773c 9032 f3bb 8f57 74bb e30a ab3b
000003f0: cb4c ce3b 4049 aa3b b3c5 83bb 4e29 ae3c
0.04875535 0.0049795154 -0.049591936 0.001439214 -0.026876694 0.009225006 -0.008031592 -0.057226095
-0.0070504937 0.0021109662 0.11665149 -0.11280181 0.035250563 -0.112638295 0.09698996 -0.12760346
-0.022119343 -0.0585932 0.063977264 0.052890543 0.06382634 0.06850209 -0.04314861 0.13379918
-0.0026620305 -0.052989528 -0.014425089 0.072554685 0.068472825 -0.025437763 0.014923312 0.035577003
-0.0040683085 0.06465567 -0.009760003 0.03586248 -0.019717831 -0.01031061 0.005049302 -0.015277811
-0.049686637 -0.058769315 -0.05250013 0.013175631 0.052813686 -0.018312825 -0.031492714 -0.016335279
-0.009711987 0.0122159785 0.05039479 0.037452295 0.04521039 0.015802287 0.035141602 0.078420475
0.25671154 0.0011999002 0.038062412 0.07175839 0.088991955 -0.039046492 -0.024783289 -0.019747792
0.11391584 0.09661023 0.086380616 0.10260627 -0.050394733 0.06992711 -0.08578089 0.016564352
0.0013009434 -0.13016656 -0.08156394 -0.05461622 0.05429708 -0.0070434217 0.061356902 -0.026668591
-0.07200066 0.06608255 -0.06563524 0.029640278 0.109052956 0.2152138 0.07308006 -0.13024205
-0.08671768 -0.014560198 -0.08118219 -0.11163517 0.028917879 -0.06448933 -0.06703063 0.059338506
0.04516111 -0.14395061 -0.01486924 0.043211695 -0.05569467 0.0022600926 0.012470086 0.028739506
0.10238552 -0.07822385 0.20153189 -0.048698206 -0.016939038 0.041106906 -0.04623977 -0.03840148
-0.006759167 0.07551423 -0.020068321 0.015090194 0.05664995 -0.104098685 0.05260714 0.17189527
0.0035861766 0.044830885 -0.047533482 0.058358893 -0.11595581 0.03132789 0.23939161 -0.21705624
-0.20640367 0.010426501 -0.010694078 -0.11418337 0.013740571 -0.012923139 0.09408397 0.0023867402
0.17945203 -0.21252406 -0.16498363 0.032926574 -0.04250206 -0.062662356 0.056331508 0.10528221
-0.08515512 0.06862343 0.16609414 0.0035796126 -0.08893251 -0.044658232 0.03397342 0.033895355
-0.07818872 -0.12263292 0.11178944 0.05391718 0.14624701 0.07145124 0.1296867 0.012732497
-0.0021275065 -0.043762326 -0.044456437 -0.009256353 -0.0884885 0.01832776 -0.01491786 0.0018855075
0.01897673 -0.017074095 0.09047892 -0.017053043 0.053917553 0.13229968 0.091669895 0.11194467
0.071506925 -0.117045715 -0.11071065 -0.06273435 -0.08286704 0.104502335 0.043411992 0.015787609
-0.1092571 0.022321157 0.0069812313 -0.01783643 -0.04290291 -0.007811005 -0.0045072534 -0.004417041
0.029776262 0.011362195 0.034104902 0.045071673 0.05427536 0.0044878167 -0.028111426 -0.0072247433
0.029594226 -0.0064419946 0.012506929 -0.04833974 0.018507974 0.0015384076 0.021809893 0.0072043003
-0.01668163 -0.013783712 -0.057109956 -0.0033235373 -0.0010165386 -0.0071649877 0.03632726 0.008528371
-0.008158725 0.055830978 -0.023459006 -0.04420463 0.0040111607 0.0049120327 -0.008339401 -0.013985676
-0.038045827 0.04737976 -0.03547416 0.07552692 -0.032079328 -0.050167013 0.013470403 -0.013080705
0.013054376 0.07162125 -0.0022449275 -0.023549905 0.040309917 -0.03982203 -0.031556543 -0.040495045
0.0007654445 -0.035120703 -0.025633216 0.00081992993 -0.06952028 -0.0037658564 0.010959716 0.006032116
0.015085374 -0.007421799 -0.0037283634 0.0052198037 0.0062957755 0.0051967204 -0.0040213703 0.02125993

bias f4 [256]
00000000: 3be1 8cbd 083a ccbc 8618 f1bd f8f3 e43b
00000010: 6c1c 0bbe c7a6 1ebd 61f8 cdbd 6e39 2bbd
00000020: 9a7a 3c3e 1378 c5bd 3c5c 0fbe 6734 043d
00000030: 5a9e 953d ff70 14be dde2 953d d88f e9bc
00000040: c64b 1bbe 8603 a83d 1c12 ab3d 4fd4 323c
00000050: 9f05 053e c7f0 3fbd 6748 ce3c 0327 423c
00000060: e288 ae3d 27d5 dd3c 7e28 a0bd d2cd ffbc
00000070: c3a0 d53a 1fb3 07bd bec5 93bb 7681 b6bd
00000080: a639 04bd a899 e13c 64a6 0abe 79cf eebc
00000090: eef0 cb3d bda6 b43d cae3 153e f1e2 ca3d
000000a0: eb9a 62bd bc8e 8ebd 20e8 b93c c792 fe3d
000000b0: eb9a b0bd 0625 7e3d 4426 4e3d c3c3 87ba
000000c0: aba0 13bd e11c acbd f415 013d f481 52bd
000000d0: a998 8fbd 9540 123d 3fbf 9abc c350 6ebd
000000e0: 8ef3 173d f524 653d 1a12 453c 219f 9cbd
000000f0: 8e5e 96bc 0adc 56bd fb49 dfbd f25d 263d
00000100: 00ae d33d d5e0 9cbd d1bc 4e3d 95c7 0b3e
00000110: e0fc 93bd 77b2 c93c b830 4c3c c19f 3b3d
00000120: 35f0 0bbe b070 62bd 580e cdbb 4eae a03c
00000130: c027 cbbd cd55 27be 18b2 8d3c d1b9 f1bc
00000140: 4531 eb3d 375b 233d 0a72 a5bd 0a7f 33bd
00000150: 8b7e 60bd 3e73 1cbe c157 97bd 2f7f b43c
00000160: 1287 2abd cc2f 00bd 535b 063c 47e8 0f3d
00000170: c36c ae3c c3ed 67bd adfa 22be d587 85bd
00000180: afcf eebc f91a ab3d ddf4 aa3d 6969 3b3c
00000190: 3c51 8a3d 26e9 ca3d a7e7 84bd a6fb ddbc
000001a0: 75b1 cabd f69a 913c 9c19 91bd 5836 9f3d
000001b0: 7807 743d 7963 463e 3319 0a3e a475 c93d
000001c0: 0426 293e 5c5d 0fbb 3235 e5bb 4e1a f13c
000001d0: ea88 9bbc 2d8d 89bd 1119 013e d879 04be
000001e0: c1f4 0e3e a19a aebd fd3f f4bc 050e 033e
000001f0: eaeb ad3d c32e 27bc e211 d0bb b4ef f73d
00000200: 8dfe 4cbd 5b49 723c 43ed 26bd 6718 9e3d
00000210: c9d9 493d 105d 843d 5c35 b8bd 14ce 223e
00000220: 78d6 0cbe dd34 bebc fe2f f73c ca77 763c
00000230: 635d 7ebc c38c dabd 737a e73d 92cb 8c3d
00000240: 2925 1bbe 3e50 e83c a1d7 a63c 1662 f8bd
00000250: eae6 ecbb ff1e a33d 53da bebc 7e3a 143d
00000260: 249c 1fbc e2eb 9bbd 02ae e83d ab9a d23d
00000270: 9bab 89ba 6bc9 8f3d 55d8 4abe 0cbc 42be
00000280: 9093 0bbe f257 0abc 585c 0cbd 7bed c03d
00000290: a825 16bd c603 cd3d 9f93 a4bd 358d a6bc
000002a0: dc66 9bbd 22b1 1f3e c46d c7bd da41 f4bd
000002b0: 983a 4b3d 4033 8abd 7da7 a1bd 5546 e8bb
000002c0: b51d a9bb bfd2 843c f99d 0ebc a04e fc3c
000002d0: 1f5b f53c e144 9dbd 835a 163e c924 e6bc
000002e0: cd1d dabd c6ea 80bc e5b2 193d 35fd 73bc
000002f0: be52 0dbc f39c 923c 02ef a23d fb0d 653d
00000300: 54d6 8dbd c0e0 893a 5d76 443c 78ba 85ba
00000310: 6fca 04bd f4e1 cd3d 9902 16be eed4 813b
00000320: 1dc0 e4bc 3f88 4e3d 2f8c b33a fa60 dbbd
00000330: 7e40 b43d f354 a73b fb3d b7bc f91e 343d
00000340: fd8d 383c 8fc3 e6bd a316 eb3d c3aa c43c
00000350: ecc0 fcbd 29fc 213e d4f3 463a ab96 02bd
00000360: 0174 6d3c c162 5f3d a0f8 9a3c 5459 42bd
00000370: d7c4 51bd 2425 cfbd 2fcb a4bd f636 18bd
00000380: ec53 aabd aeb8 153d 6885 09be 9542 963c
00000390: 3cf5 bebc afed ae3c 4bd9 cdbd b5ae 63bc
000003a0: 0d95 63bd e694 083e 2865 6abd 01ed f1bc
000003b0: b4c5 bf3b 023e f9bc 149d 28bd a402 cd3d
000003c0: e7fb 003c 2bfc 6a3d 543e 173d 4b70 703c
000003d0: 1f66 703d 5d0d 75bc e9fb dfbd 6c9d 673c
000003e0: c266 d1bd 45ac 813c db80 253e 0d83 e5bd
000003f0: 713b c63d 5e32 5abd 0d3b e93c 0b39 943d
-0.06878897 -0.024930015 -0.117722556 0.006987091 -0.13585061 -0.03873327 -0.1005714 -0.041802816
0.18406144 -0.09642043 -0.14000028 0.032276537 0.07305594 -0.1449623 0.07318661 -0.028510973
-0.15165624 0.08203797 0.083530635 0.010914876 0.12990426 -0.046860483 0.025181009 0.011850121
0.08522202 0.027079178 -0.07820223 -0.031226072 0.0016298521 -0.033129808 -0.0045096567 -0.089114115
-0.03228154 0.02753909 -0.13540035 -0.029151665 0.09958063 0.08820865 0.14637676 0.09906567
-0.055323523 -0.06960818 0.022693694 0.12430339 -0.08623298 0.062047027 0.05032946 -0.0010358024
-0.036041897 -0.08403946 0.031515077 -0.051393464 -0.070115395 0.03570612 -0.018890021 -0.05818249
0.037097506 0.055943448 0.0120282415 -0.07647539 -0.018355634 -0.05245594 -0.109027825 0.040616937
0.10335922 -0.07660071 0.050473038 0.13650353 -0.072259665 0.024621231 0.012462787 0.04580665
-0.1366585 -0.05528325 -0.0062578134 0.019614365 -0.09919691 -0.16341324 0.017296836 -0.02950755
0.11484007 0.03988191 -0.08078392 -0.043822326 -0.05480818 -0.15278336 -0.073897846 0.022033302
-0.04163272 -0.031295583 0.008200484 0.035133626 0.021292096 -0.05662323 -0.15915938 -0.065200485
-0.029151766 0.08354754 0.08347485 0.011438706 0.067537755 0.09907751 -0.06489497 -0.027097534
-0.098971285 0.017774086 -0.07084963 0.07774037 0.059577435 0.19373883 0.13486175 0.09836891
0.16518408 -0.0021875715 -0.0069948668 0.029431488 -0.018986184 -0.0671638 0.12607218 -0.12937105
0.13960554 -0.08525587 -0.029815668 0.12798317 0.08492263 -0.01020402 -0.006349788 0.121062666
-0.050047446 0.014787997 -0.040753614 0.07719498 0.04927996 0.06463063 -0.089945525 0.15898925
-0.13753688 -0.023218567 0.030174252 0.015043208 -0.015525195 -0.106713794 0.11302652 0.068747655
-0.15150894 0.028358575 0.020366492 -0.121280834 -0.0072296755 0.079648964 -0.023297464 0.036188595
-0.009741817 -0.076133505 0.11361314 0.10283407 -0.0010503413 0.07020839 -0.19809087 -0.19017047
-0.1363051 -0.008443819 -0.034267753 0.09420296 -0.036657006 0.10010485 -0.08035969 -0.020331005
-0.07587978 0.15594915 -0.09737733 -0.11926623 0.049616426 -0.067480564 -0.07893274 -0.0070884624
-0.005161012 0.016213773 -0.008704656 0.03079921 0.029950676 -0.07679153 0.14682965 -0.028093712
-0.10650215 -0.015736949 0.037524123 -0.014891912 -0.008625684 0.017897105 0.07955743 0.055921536
-0.069256455 0.0010519251 0.011991111 -0.0010202667 -0.03241962 0.10052863 -0.14649428 0.003962151
-0.027923638 0.050422903 0.0013698394 -0.10711856 0.088013634 0.0051065623 -0.022368422 0.04397485
0.011264321 -0.112677686 0.11478927 0.024007207 -0.123414844 0.15818848 0.0007589434 -0.03188197
0.0144929895 0.05453754 0.018917382 -0.04744847 -0.05121311 -0.10114506 -0.08046567 -0.03716179
-0.08316788 0.036553077 -0.13429797 0.018342296 -0.023310296 0.02135357 -0.10051211 -0.013896634
-0.055562068 0.1333805 -0.057225376 -0.029531958 0.0058524255 -0.030425075 -0.041165426 0.10010269
0.007872558 0.057369392 0.036924675 0.01467521 0.05869114 -0.014956799 -0.1093672 0.014136653
-0.102246776 0.015829215 0.16162436 -0.112066366 0.09679306 -0.05327069 0.02847054 0.072374426

weight f4 [256, 256]
00000000: 40a7 a0ba 86d2 cd3d af30 83bd 977b 09be
00000010: 43c3 233e 0955 5b3d 2022 13be 4225 a23c
00000020: c776 113e e88b 26be 8c97 223d 9e3a 48be
00000030: 035e 62bc 5350 ec3b 73b0 07bd e324 283a
00000040: 8d4b 743e 1d09 513e 098e d23d ba81 fa3b
00000050: 76b1 043e a342 a63e 37e3 03be 51bc ed3d
00000060: 2aea 2c3e 2f20 f2bd 6995 1a3e 1460 5d3e
00000070: e773 54bd f87b e1bd 1752 96bb 8d33 473e
00000080: 005e a63d 833f 883e d6e5 0fbe 5f5e 883d
00000090: 64f0 14be 9478 c9bd eead d8bd 94e0 aebe
000000a0: 9ca9 f13d 4d55 9cbd d2ad 413e 45e0 833c
000000b0: 163f 1cbe b5dd dabd 251b cfbc 724b 5a3d
000000c0: bf77 8f3d aefd 23bd b095 9bbc 5ec5 903d
000000d0: 0c4b f73d 5ffe db3d 0b1b 1abd 2ecc d9bd
000000e0: 3114 bbbd d9d2 5fbd c5dd d43d c713 c8bd
000000f0: a54b 72bd f34e cabe 9582 39be 3887 703d
00000100: fd15 08bb eee5 293e 16cc c23d 4f4f 93bd
00000110: 6d50 ca3c a0a8 693e c4f3 893b bc44 7ebd
00000120: 0ab0 2f3e e223 133c dc95 ab3d 1801 76bd
00000130: 8ee8 24be df4c a2bb fa61 54be 7475 013a
00000140: c3fa 563d 1458 0dbe 6f65 673d 3405 293e
00000150: 3821 8a3d 9337 393e a389 e93d fef3 a2bc
00000160: df01 28be 0940 5e3c e419 aebc f964 023e
00000170: 99cf da3c 5787 343e 3848 2a3e be8f 2b3d
00000180: 9c73 1cbe 5be2 c4bb 3d78 813c 0efc 23be
00000190: 400f 9cbd 21ab 983c c186 4c3d 5adc 99bd
000001a0: 2d48 4fbe 0c42 b53d a600 f63c a9b1 2dbe
000001b0: 4219 38bd 645b 0bbc 816c 8ebb b8b2 263e
000001c0: 687f 443d 3bad cb3d 0289 2f3e 0570 013c
000001d0: d74a b43d a3f0 93be 8d71 fabd d62f ffbc
000001e0: cafe 673c 7040 e53a 2491 ac3d fd49 753d
000001f0: 6ac6 3f3d 4c74 8a3e 94da 703e b622 a9bc
00000200: 1c54 c03d 9157 0fbe 179c 06be 4480 283d
00000210: 06d9 023c 05c2 93bd febf 56bd 0b7a e8bd
00000220: 1663 a33d c622 49be a90c 943c 1eea 303e
00000230: feca b33d 1a5f 4abe e113 1f3e 8814 96bb
00000240: b60e b5ba d650 96bc 7639 cd3e 68ca 493e
00000250: 993f 3d3d 0396 c13d dabd 863d 1408 aa3d
00000260: 0e24 33be 3956 63bd dae2 34be a30c 4cbc
00000270: a2e0 babd c8f5 5dbe 2947 2f3e 01b9 2c3c
00000280: dcab cfbc f69e 043e 57ca acbd 2615 8f3c
00000290: 457d 7e3e 39fa 9fbd d3bc c13d 3c4f 8ebc
000002a0: 0d43 a43e c582 0e3d 81df 2c3e 3394 5c3c
000002b0: c649 963d 0453 5f3e 8c95 75be 709a e13d
000002c0: e74b 35be f7d9 a03e 5098 ef3b ccb2 183f
000002d0: fd87 e33d 79ba cb3d 0eea 6cbe c136 493e
000002e0: 3597 143d 1cd5 0abe c5d7 8f3d bbe6 163e
000002f0: 1785 993d e33f 28bd 49f2 863e 7cd9 f3bc
00000300: c0ad 5bbe 3a87 c53c f9ec 4abe 3623 b3ba
00000310: 7665 85be afaa cbbc 0d5f 773b 9f7b 12bd
00000320: 41b3 26be 2cba cebd cf50 363d 38c1 4e3c
00000330: c366 923d 29cc f1bb ae29 bbbd 1a09 303e
00000340: d773 a63d 62e9 2ebd e68b 333c 6f65 c33c
00000350: 16af 243e 04f8 ba3d 3ab6 5d3d 57cd 05be
00000360: 9fa8 81bc 80e5 31bd 4213 77ba c4d1 67bd
00000370: 5e52 0bbd 904f 533e 5ecc cdbd a61f aebd
00000380: dc20 423e 61e1 23be bfd5 dcbd 756d 8d3d
00000390: 99c0 39be c479 453d 248b 84be fd7c a53d
000003a0: 32ee 553e 5cc5 713d 0e5e 44bd 3241 0f3e
000003b0: 3954 953d 2d68 90ba f5ec c6bd 1665 f1bd
000003c0: 0efb aa3d a331 bb3c f2f9 ab3d 7d33 89bd
000003d0: c778 84bd 8873 6d3c 9d20 5d3d aea5 963d
000003e0: d057 513d 6454 36be e7dc df3a 1403 7c3d
000003f0: ccce 4ebb 5eff 84bd 2645 54be f26d 57bc
-0.0012256876 0.1004992 -0.0640577 -0.13426052 0.15992455 0.053547893 -0.14368486 0.019793157
0.14205466 -0.16264307 0.039695308 -0.1955361 -0.013816359 0.007211724 -0.03312726 0.0006414188
0.23856945 0.20413633 0.10280997 0.007644859 0.12958321 0.32472715 -0.12879644 0.11608184
0.16886202 -0.11822545 0.15096058 0.21618682 -0.051868346 -0.11009973 -0.0045874226 0.19453259
0.08123398 0.26610956 -0.14052519 0.06658625 -0.14544827 -0.098374516 -0.105800495 -0.34155715
0.117999285 -0.07633457 0.18913963 0.016098151 -0.1525844 -0.106868185 -0.025281498 0.053294607
0.07005262 -0.04003685 -0.018992275 0.07068895 0.12074861 0.10741877 -0.037623446 -0.10634647
-0.091347106 -0.05464444 0.10393862 -0.09769397 -0.05915417 -0.39513358 -0.1811622 0.058722705
-0.002076506 0.16591617 0.095115826 -0.07192861 0.024696553 0.22818232 0.0042099673 -0.06207727
0.17156997 0.008980723 0.08378193 -0.060059637 -0.16104338 -0.0049530114 -0.207405 0.00049384614
0.05248524 -0.1380313 0.05649322 0.16505891 0.06744617 0.18087606 0.11403205 -0.019891735
-0.16406964 0.013565072 -0.02125258 0.1273383 0.026710318 0.17629753 0.16629112 0.04188513
-0.15278476 -0.006008429 0.015804404 -0.1601412 -0.07620096 0.018636288 0.0499332 -0.07512732
-0.20242377 0.08850488 0.030029606 -0.16962303 -0.044945963 -0.008505676 -0.004346431 0.16279113
0.047973067 0.099451505 0.17142108 0.007900243 0.08803337 -0.2889453 -0.12228689 -0.03115074
0.014159868 0.0017490517 0.08426121 0.059885014 0.04682008 0.27041852 0.23520881 -0.020646434
0.093910426 -0.13998248 -0.13145481 0.04113795 0.007986313 -0.07214741 -0.05242919 -0.11351403
0.079778835 -0.19642171 0.018072443 0.17276809 0.08778952 -0.19762841 0.15534927 -0.0045800842
-0.0013813588 -0.018349092 0.40082902 0.19706118 0.04620323 0.094524406 0.0657918 0.08302322
-0.17494223 -0.05550215 -0.17664662 -0.012454185 -0.091248766 -0.2167579 0.17116989 0.010542155
-0.025350504 0.12951264 -0.08437031 0.017466139 0.24852474 -0.07811398 0.094598435 -0.017371766
0.32082406 0.03479268 0.16882135 0.013463068 0.0733829 0.21809012 -0.23982829 0.11015785
-0.17704736 0.31416294 0.0073118582 0.5964782 0.11109922 0.09947676 -0.2313616 0.19649793
0.036277015 -0.13557857 0.07023577 0.14736454 0.07496088 -0.041076552 0.26356724 -0.02976679
-0.21452999 0.024112333 -0.1981696 -0.001366711 -0.2605397 -0.024861662 0.0037745864 -0.035762426
-0.16279317 -0.10094103 0.04451066 0.012619309 0.071485065 -0.007379074 -0.09138809 0.17190972
0.081275634 -0.04270304 0.010958647 0.023852078 0.16082415 0.091293365 0.054128863 -0.13066612
-0.015827475 -0.04343176 -0.0009425172 -0.056596532 -0.0340141 0.2063582 -0.100487456 -0.0850213
0.18957847 -0.16003944 -0.10782956 0.06905643 -0.18139876 0.048211828 -0.25887406 0.0808048
0.20891646 0.059026107 -0.04794126 0.13989714 0.07291455 -0.0011017375 -0.09713165 -0.11786859
0.08348666 0.022850817 0.08397283 -0.06699274 -0.06468349 0.014492877 0.05398618 0.0735582
0.051109135 -0.1780563 0.0017079384 0.061526373 -0.0031556366 -0.0649402 -0.20729503 -0.013148772

bias f4 [256]
00000000: 8533 6cbc 7b41 d0be 8dbc 73be be70 75bc
00000010: dcb0 fbbc f18b e13e 8841 1abe af60 013d
00000020: fc19 5e3d 066f e73c a830 75be 8a4b 8ebc
00000030: fa03 9b3b 46fe 823e 75f6 c73d 769b 433e
00000040: b9e6 643e fe9f 1fbe 333d 31be 8689 babe
00000050: 3603 6c3e c058 863e ade2 9bbe 7263 3b3d
00000060: d810 07be 84e3 59be 8531 f03c 4d9f a93e
00000070: aa3a 333e f5c9 35bd 778e a13e 0c9e fe3e
00000080: 7038 78be ddd6 8abe 4088 56bd a21e 23bd
00000090: e322 963e 5476 9bbe 5e25 d8bd e728 dbbd
000000a0: 70f9 0bbd 6c0e 133e 9f8b c33d f834 b03d
000000b0: e8f7 013c a83c e5bd 7fd9 bbbe 342b 0cbe
000000c0: 8d85 9c3d 690d 893c 64af de3d e67b 153e
000000d0: 54d0 b8bd 11a5 993e c315 8dbe a700 f43d
000000e0: a05a 1c3c 3ad8 42be 65e0 acbe 7ec8 33be
000000f0: 765a 65be b1a4 74be 5333 b73d 6c16 273e
00000100: 10cb 4cbe 8785 5c3d faad d63d 48af babd
00000110: ffdf ff3d 7070 7d3e 6c65 8dbe c24a 15be
00000120: 5257 19bb 1eea dd3e 06a6 053f 0857 4f3e
00000130: eecd 473c 594e b3be a4ce 17be a4d6 ddbb
00000140: 8f55 00be 808a 30bb 85eb ef3c 56e0 9bbd
00000150: 10b5 c7bc 4ebf 803e 6d2e 753d e19e e2be
00000160: 7a50 753c 9e8d 78be f607 debe 6229 c5be
00000170: 51b0 e3bc 31c8 2fbd aeaf abbc d6d1 f93d
00000180: 7cba 37be a1ea efbd 6ba9 bbbe f2c7 20bd
00000190: ff73 94bc 2572 32be 8e2f 8dbc 6d3b ea3d
000001a0: 7aec 063e 4ecd 443e e784 f0be 9f0a 873e
000001b0: 5027 aabe 1f55 94bd 4548 8c3d 45bc 2a3e
000001c0: 81c7 85be 2bf6 c43d a191 95bd 6fc8 5a3d
000001d0: 6d2f 413e f403 8cbe 07a3 7bbe 4d84 853e
000001e0: 5dbf 7bbe 03dc 93be 7dba 1f3e 7d49 8f3d
000001f0: 594b ae3d 958f 53bd abd3 853e 650c 6dbe
00000200: 5849 303e 183e 43bd 0568 243c bd44 51bc
00000210: c811 cd37 e80b d53c ab63 c33e e3aa b0be
00000220: 9fae 26be 8c4e ea3e b585 d5bd afba a5bc
00000230: bf81 4cbe a283 8dbc 8297 733e 2a71 73be
00000240: bb47 80bd 6591 4ebe 5b31 adbc 92f6 2a3e
00000250: 1c08 573c 8fb1 b33e 151b cc3d f179 343e
00000260: 0f51 413d 3d06 433e 8fd1 7bbd 5bba 863e
00000270: 36f9 8a3d c5b1 063a 1ebe 0fbe e61a 193e
00000280: 39c9 423e 4d8f ae3e 6f31 ce3e f467 b83e
00000290: 60f3 0e3e 3361 b13e 8ee0 3bbe 3fd0 4d3e
000002a0: 69cc de3e 9ab6 453e 0159 79bd 9a5b 5d3e
000002b0: e678 f5bd 405a ae3d cb09 ba3e 4bb0 97bd
000002c0: 06a8 723e 77fd f6bd 901a 3abe 69b1 403c
000002d0: 9911 9ebd da40 ba3e 6f28 cc3e 1b4d 46be
000002e0: 18cd e8be 9577 853e d9d4 c3bd fa1c 683e
000002f0: 66f6 363e 650d 20bd 2b62 a83e ff10 7b3c
00000300: 7304 193e ca15 ab3d 50e2 013e e985 35be
00000310: 9949 6cbe 6762 b53e b331 93bd 6c70 1a3e
00000320: 1147 e9bd e8dd dfbd bf36 a2be 7ff8 903d
00000330: 1637 57be dde8 87be a5e5 2d3d e14c 2b3e
00000340: e9aa afbd 6c70 033d f8de 7fbe 9098 89be
00000350: b889 ccbd 6b01 d2bd 210e fe3e 569a 443e
00000360: 4f3c 8ebe 073d 113e 96dc 803b 4747 9c3d
00000370: e815 18be 8c04 b3be a5cd d0bd f684 a53e
00000380: 54a2 2cbc 900e d13e 0839 2dbe c751 a13e
00000390: 9779 6bbe 74ba 40bd db81 2f3e 3a0d 843e
000003a0: b497 f4bd e4db 023c 3e97 b4bb cb71 cf3c
000003b0: 25d5 9dbd f874 cb3e dbe7 383e 8aa5 cbbc
000003c0: 9990 44be 1d2d 5dbd 7f18 6ebc 044e 513c
000003d0: d972 14be 8291 86be 46c7 b93d 9367 683c
000003e0: 0e6d 8dbe 5f90 c73d 3b8f 43be e48a bcbd
000003f0: d57d 893e 5fd2 eb3e 80a9 953e acd9 c6bd
-0.01441658 -0.40674958 -0.23802395 -0.014980493 -0.030723982 0.4405208 -0.1506406 0.031586345
0.054224 0.028251182 -0.23944342 -0.017370004 0.0047306987 0.2558462 0.09763805 0.19102272
0.22353639 -0.15588376 -0.17308502 -0.36433047 0.230481 0.26239586 -0.30446377 0.045749135
-0.13190019 -0.21278197 0.029320488 0.3312935 0.17502847 -0.044382054 0.31554005 0.49729955
-0.24240279 -0.27117053 -0.052376032 -0.039824136 0.2932349 -0.30363715 -0.10554002 -0.10701161
-0.03417343 0.1436097 0.09548115 0.08603853 0.007932641 -0.1119321 -0.36689374 -0.13688356
0.0764266 0.016730027 0.10873297 0.14598045 -0.090241104 0.30008748 -0.27555665 0.11914187
0.009543091 -0.19027796 -0.3376495 -0.1755695 -0.2239779 -0.2389095 0.08945336 0.16317147
-0.19999337 0.05383828 0.10482402 -0.091154635 0.12493896 0.24749923 -0.2761644 -0.14579299
-0.0023397994 0.4334268 0.52206457 0.20248044 0.012195094 -0.35020712 -0.14824921 -0.006769972
-0.12532638 -0.0026938021 0.02928711 -0.07611148 -0.02437833 0.25145954 0.05985873 -0.4426184
0.0149728 -0.24272773 -0.4336545 -0.38508135 -0.027794035 -0.042915527 -0.020957794 0.12198226
-0.17942232 -0.11714674 -0.36652693 -0.039253183 -0.018121717 -0.17426355 -0.01723459 0.11437116
0.13176146 0.19218943 -0.46976396 0.2637529 -0.33233118 -0.07242798 0.06849722 0.16673382
-0.26128772 0.09617265 -0.07303167 0.053413805 0.18865748 -0.27346766 -0.24573909 0.260775
-0.24584718 -0.28878793 0.15598483 0.06996439 0.08510465 -0.051650602 0.26138052 -0.2314926
0.17215478 -0.04766664 0.010034566 -0.012772736 2.4446184e-05 0.026006654 0.38161978 -0.34505376
-0.1627755 0.45763052 -0.10425893 -0.02023062 -0.19971369 -0.017274681 0.23788264 -0.23773637
-0.062636815 -0.20172651 -0.021141699 0.16695622 0.013124492 0.35096404 0.09966103 0.17624642
0.047196444 0.19045348 -0.061479148 0.26314053 0.067858145 0.0005138184 -0.14037368 0.14951667
0.19022073 0.34093705 0.4027209 0.3601681 0.13960028 0.3464447 -0.1834738 0.20098971
0.43515328 0.19307938 -0.060875896 0.21616974 -0.1198595 0.085133076 0.36335596 -0.07406672
0.23696908 -0.12060063 -0.18174195 0.011761048 -0.077182 0.36377603 0.39874598 -0.19365351
-0.45468974 0.26067796 -0.09562082 0.22667304 0.17867431 -0.039075274 0.32887396 0.015323876
0.14943103 0.08353765 0.12683988 -0.17726864 -0.2307495 0.35426638 -0.07187214 0.15081948
-0.11390508 -0.10930997 -0.31682393 0.07078647 -0.21017107 -0.26544848 0.042455334 0.16728546
-0.085775204 0.032089636 -0.249874 -0.26874208 -0.09987205 -0.10254177 0.49620155 0.191995
-0.27780387 0.14183436 0.003932546 0.076307826 -0.14852107 -0.34964406 -0.101954736 0.32328004
-0.010536749 0.40831423 -0.16916287 0.31507704 -0.22995602 -0.047052816 0.1713938 0.2579134
-0.119429976 0.007986996 -0.0055111935 0.025322815 -0.0770667 0.39737678 0.18057196 -0.024859209
-0.19195785 -0.0539981 -0.0145322075 0.012774948 -0.14496936 -0.2628289 0.090712115 0.01418485
-0.27622265 0.097443335 -0.19097607 -0.09206179 0.26853815 0.46058938 0.2923088 -0.09709486

weight f4 [17, 256]
00000000: 7199 e0bd e32f f73f 924f ce3e fb73 bbbd
00000010: 2e3f 88bf a918 2ebf 8f3b ac3c 6450 45bf
00000020: 801c 09bf 511e 47bf 04e8 463f 4c60 7fbe
00000030: bdfe 253e 7d19 a9be 6af9 1ebf aad5 08bf
00000040: ed6a 5bbf 48c0 0d3f 1e3d 3bbe c4fb 193f
00000050: 703a 91be 5a4c cb3d 213d 0e3f b7a8 e7bd
00000060: 534f 173e f2f6 013f 1c66 3d3f 8596 99bd
00000070: a6b9 d63e 89d3 0fbf 9069 483f b0d4 0bbf
00000080: fc53 b0be 649a f63d 7820 c3be fc23 723f
00000090: 47db 6ebe 8b97 49bf 0455 e9be a823 d83e
000000a0: 97b1 e7be 8289 ad3e d249 a23e 8e49 763f
000000b0: d4a8 883f 8a9e 09be 2a08 883f 7135 cbbe
000000c0: 6c0b 4b3e 4387 fb3d 72b3 debe 8ac8 433f
000000d0: b35c be3e 1d40 583f 9493 3c3e c907 b33d
000000e0: 67c5 09bd ac0e 993e 95b0 353f 26f2 e53d
000000f0: 9756 2ebe f2e4 d2bc acea f6be 53ef 0dbf
00000100: 69b9 443d d8c6 073f 7eba bebf 1bfb 023f
00000110: 1681 483e d4b1 c53e 227a d63e 455d 65bf
00000120: 83dd 3b3e 3a93 12be b9ef 45bd 267c d1bd
00000130: d590 debc 6331 c5ba 6298 8ebe 814f 08bf
00000140: c75e 2d3d 9565 a0be 1510 423f 3fdd 25bf
00000150: 7322 38bf 50c1 223f 2fc3 8fbf aa97 49bf
00000160: c6bf 41bf c6be 06bf 2f97 0dbd 57c2 1dbf
00000170: e807 e3be db61 803e d374 90bc af77 02bf
00000180: 738d 0ebf c972 1a3f 97cd 013f 46f3 5dbf
00000190: d8ff 28bf aed1 6f3f 8ef0 18bf d778 cabf
000001a0: c745 843e b055 ae3e 37d1 b03e dd2f a2bd
000001b0: e333 6ebe 372a 95be 8267 8dbf 3bbc 89be
000001c0: 8888 16bf f331 38bf 93ee fc3d aa38 8a3c
000001d0: 1468 5abf 7de7 a5be 17ca e2be cc9d 72bf
000001e0: 13bc 2fbe f33a 4e40 3e62 acbe 3c68 61bf
000001f0: 1a6a 693e 9d59 e23e 85a1 703f 7081 7abf
00000200: 3fc2 6ebe a896 873f 39ad f13e f7cd 64bf
00000210: 7cf6 aa3e 83f1 01be 73cc ccbe 519a fa3e
00000220: e37c b83e 26d8 58be 8228 f03d f747 46bf
00000230: 5826 74bf 1481 0f3d d7ff 563e e32b ff3e
00000240: 2aa8 503e a757 833d b52e b8bf 2e83 893e
00000250: b723 8c3e f6b5 b43e 5cc7 2cbf 9893 a4bf
00000260: 127f 2abd 3913 ecbd 7ef6 4f3f 91c6 fb3e
00000270: 1b0b d53e 84d1 55bd 9b65 b03e 6ccc f7be
00000280: 96e1 d7bc cb65 e1bd be8b 63bf 4d0c 13bf
00000290: d1f2 20c0 a1ca 56bd 2329 1cbd e0d2 15bf
000002a0: d8e0 27be da4d 553d eaeb 4bbf e6d1 54be
000002b0: f7ff f1be 08bc 9b3f 21fa 9a3e d79b 91be
000002c0: 23d6 313f 28b5 39be 3293 70be 04e9 d7bd
000002d0: e5ef 243e 0f24 7bbf a7aa 12be fc95 f43e
000002e0: 37a5 853d 4e68 693e 89ae 3d40 9ee8 f6be
000002f0: 9702 653c 14f7 70bd 41a4 50bf 56d2 eb3e
00000300: 6ad8 fe3e e684 e43e e291 fe3f d475 8e3e
00000310: 42a2 51bd 6f4f 01bf 85a0 313e 1bac e4bd
00000320: e25a 6140 efe6 36be 5675 a6be a496 c33f
00000330: 11a3 7cbe 685e a23e 28fa 32be 496a 1ebe
00000340: 21b7 263f b6b0 0b3f e13f 61be f21c c73d
00000350: 1155 18be 7545 30bd 77da bfbe 6bae 2abe
00000360: 93eb 3840 284f 16bf e512 153f 6d0c 1a3f
00000370: 15f9 3f3f c312 23bf 3e75 483f 84fe e9be
00000380: 8ccc d9be 04a3 7f3d 2bae 7cbe b12b 56bf
00000390: 8a63 ebbb 378d 2f3f 8264 233f aafb 4bbf
000003a0: 55ac 29bf 2d6c 173e 3ac4 cc3f ab6e 2fbf
000003b0: 65f0 a53d 88eb ec3d bd5d 4cbf bd4d a83f
000003c0: 41df 0c3f a93f d3be f4de cdbb a27a 50be
000003d0: e5d2 abbe 1438 273e 8899 a0bf 61bb 3fbf
000003e0: 5fc5 bc3f 38f7 b1be c129 f53f 84e6 6b3e
000003f0: 1dd5 6c3f c7ad aa3d 6f1c f5be 6b2d f73d
-0.109667666 1.9311489 0.40295082 -0.09152981 -1.0644281 -0.6800638 0.021024494 -0.7707579
-0.5355911 -0.77780634 0.7769778 -0.24939078 0.16210456 -0.3302726 -0.62099326 -0.53451025
-0.8571003 0.5537152 -0.18285033 0.6014979 -0.28364897 0.09926672 0.55562025 -0.11311477
0.14776354 0.50767434 0.7398393 -0.074994124 0.41938514 -0.5618215 0.78286076 -0.5462141
-0.34439075 0.120411664 -0.3811071 0.9458616 -0.23325835 -0.7874686 -0.45572674 0.42214704
-0.45252678 0.33893973 0.31696945 0.96205986 1.0676522 -0.13439384 1.0627491 -0.3968921
0.19828576 0.122816585 -0.4349628 0.76477873 0.371801 0.8447283 0.18415672 0.08741719
-0.033635523 0.29894006 0.7097257 0.11227827 -0.17025219 -0.025743935 -0.48225915 -0.55443305
0.048028383 0.53037786 -1.4900663 0.51164407 0.19580492 0.38612235 0.41890055 -0.89595443
0.18346219 -0.14313975 -0.04832432 -0.102287576 -0.02716867 -0.0015044626 -0.27850634 -0.53246313
0.042326715 -0.313275 0.7580579 -0.6479072 -0.71927565 0.6357622 -1.123144 -0.78747046
-0.7568325 -0.5263485 -0.034568008 -0.61624664 -0.4434197 0.25074658 -0.017633831 -0.5096387
-0.55684584 0.603314 0.5070433 -0.8669933 -0.66015387 0.9367932 -0.5974206 -1.5818127
0.25834486 0.3404975 0.34534618 -0.079192854 -0.2326198 -0.2913377 -1.1047213 -0.2690142
-0.5880208 -0.71951216 0.12350192 0.016872723 -0.8531506 -0.32403174 -0.44294807 -0.9477203
-0.17161588 3.222348 -0.33668703 -0.88049674 0.22794381 0.44208995 0.9399646 -0.97853756
-0.23316287 1.0592852 0.4720247 -0.8937678 0.33391178 -0.12689786 -0.39999732 0.4894586
0.3603278 -0.21176204 0.11726476 -0.7745356 -0.9537101 0.035035208 0.20996033 0.4983817
0.2037665 0.06413203 -1.4389254 0.26857895 0.27370998 0.35295075 -0.674917 -1.2857542
-0.04162509 -0.11527104 0.8123549 0.49174932 0.41610035 -0.052201763 0.3445252 -0.4839815
-0.026352685 -0.110057436 -0.88885105 -0.57440645 -2.5148203 -0.052439336 -0.03812517 -0.58524895
-0.16394365 0.0520762 -0.7965685 -0.20783195 -0.47265598 1.2166758 0.30268958 -0.2843921
0.6946737 -0.18135512 -0.2349365 -0.10542491 0.16107138 -0.98101896 -0.14322911 0.4777068
0.06525653 0.22793695 2.9637778 -0.48224348 0.013977668 -0.058829382 -0.8150063 0.4605891
0.49774486 0.44632643 1.988827 0.2782427 -0.05118013 -0.5051183 0.1734639 -0.11165639
3.521172 -0.17861532 -0.32511395 1.5280347 -0.2467158 0.3171265 -0.1747824 -0.15470232
0.6512318 0.54566514 -0.21997024 0.09722318 -0.148762 -0.04303499 -0.37471363 -0.16668098
2.8893783 -0.5871453 0.58231956 0.6017521 0.74989444 -0.63700503 0.783039 -0.45701993
-0.4253887 0.062411323 -0.24675815 -0.8366042 -0.007183497 0.6857485 0.6382524 -0.79680884
-0.6627858 0.1478736 1.5997384 -0.6852824 0.08102492 0.115683615 -0.79830533 1.3148724
0.5502816 -0.41259506 -0.0062826816 -0.2035928 -0.33559337 0.16329986 -1.2546854 -0.7489529
1.4747733 -0.34758925 1.9153367 0.23037153 0.92512685 0.08333927 -0.47873256 0.1206921

bias f4 [17]
00000000: bb2b 93be 8ba4 7c3e e6c9 cebe fe5e 8ebe
00000010: e609 ec3d 5848 7d3d 7fb0 ee3e 85cb aebd
00000020: 1361 48bf a575 5cbe 5aac 863f f450 213f
00000030: 9d8a f0bc 62e5 0f3f 2744 10bc d68b 553d
00000040: 1e80 2c3e
-0.287443 0.24672143 -0.4038841 -0.27806848 0.115253255 0.06183657 0.4661903 -0.08534912
-0.78273124 -0.21529253 1.0521348 0.6301415 -0.029362971 0.56209385 -0.008805311 0.05213531
0.16845748
