DDPG/data/exp/HumanoidStandup/2022-06-24-13-32-59_critic.pt (torch, 670743 bytes, 5 tensors)

weight f4 [256, 393]
0	0x3d19b63e	0.037527315
1	0x3c95b6ac	0.018275581
2	0x3d06826a	0.032839216
3	0xbd41a355	-0.047274906
4	0x3db54650	0.08851302
5	0xbded828c	-0.115971655
6	0xbc8dfd81	-0.017332794
7	0x3cc61d0a	0.024183769
8	0xbd4e6812	-0.050392218
9	0xbe3c1872	-0.183687
10	0x3e0e957a	0.13924208
11	0xbd289dbf	-0.041166063
12	0x3e104fcf	0.14092945
13	0xbd4cfdba	-0.05004666
14	0x3e1352dc	0.14387077
15	0xbe4386fb	-0.1909446
16	0xbcff0322	-0.031129424
17	0xbe4590c3	-0.19293503
18	0xbdd13770	-0.10215652
19	0x3c863cac	0.016386352
20	0x3def22ed	0.116765834
21	0xbe11de95	-0.14245065
22	0xbe08706c	-0.13324136
23	0x3dbf5384	0.09342101
24	0x3da7d91a	0.08195706
25	0xbc53808f	-0.012909069
26	0xbd0e4e06	-0.034742378
27	0x3c8bda3b	0.017071834
28	0xbc3985ec	-0.011323433
29	0x3cf292c6	0.029611003
30	0xbc24fffc	-0.010070797
31	0xbc89ebfd	-0.01683616
32	0xbda3c36c	-0.07996258
33	0x3da1231c	0.07868025
34	0xbda12230	-0.07867849
35	0x3d0d3665	0.034475703
36	0xbb2f85a8	-0.0026782546
37	0x3d9e3454	0.077248245
38	0xbdf7e730	-0.121046424
39	0x3ce6fb24	0.028195925
40	0xbd6f2220	-0.058382154
41	0xbd2d3b50	-0.042292893
42	0x3a29c731	0.000647652
43	0xbd00e2d7	-0.03146633
44	0x3d2c76f3	0.042105626
45	0x3c96c37a	0.018403757
46	0xbcf008a0	-0.029300988
47	0x3a95ed52	0.0011438525
48	0x3cd40c80	0.025884867
49	0x3cc811a1	0.024422469
50	0x3beff412	0.0073227966
51	0xbd37b49b	-0.044849973
52	0xbc3dd7a8	-0.011587061
53	0x3d057129	0.03257862
54	0xbcdf267a	-0.027240027
55	0x3d888898	0.06666678
56	0xbded9fc8	-0.116027415
57	0xbd86485d	-0.06556771
58	0xbe62417a	-0.2209529
59	0xbd2c65e0	-0.042089343
60	0x3c847fd4	0.016174234
61	0x3d9b9970	0.07597625
62	0xbdbd980a	-0.09257515
63	0xbcaa00a3	-0.020752257
64	0x3d2d4781	0.04230452
65	0x3c9ee731	0.01939735
66	0x3cca697f	0.024708508
67	0x3d26463b	0.04059432
68	0xbd4d820d	-0.050172854
69	0xbdffdcc5	-0.1249328
70	0x3cfe181a	0.031017352
71	0xbca9d14e	-0.020729687
72	0x3cbb4064	0.022857852
73	0xbca388a7	-0.019962622
74	0x3ce5bb52	0.028043423
75	0xbc754986	-0.014971143
76	0x3c7aefdd	0.015315977
77	0xbe227301	-0.15864183
78	0x3d370163	0.044679057
79	0x3c1c57bc	0.009542402
80	0x3d1dda1a	0.038538076
81	0x3e784492	0.24244907
82	0x3ddc978b	0.10771092
83	0x3db46418	0.08808154
84	0xbce03ea5	-0.027373621
85	0xbe94390c	-0.28949773
86	0xbe6b2720	-0.22964144
87	0x3c5a07ed	0.013307554
88	0x3c745ec8	0.014915176
89	0x3c0ca6b9	0.008584672
90	0xbd293518	-0.0413104
91	0x3dba7f44	0.09106305
92	0x3da1f2ad	0.07907615
93	0xbdd4d2f0	-0.10391796
94	0xbcb60488	-0.022218958
95	0xbe3aec9c	-0.18254322
96	0xbe2f2266	-0.17102966
97	0x3e16e89f	0.14737175
98	0x3dacb98d	0.084338285
99	0xbd479f45	-0.048735876
100	0xbd4a92e4	-0.049456492
101	0x3e33d10d	0.17560215
102	0xbd035aaa	-0.032068886
103	0xbc4e4816	-0.012590429
104	0x3d118435	0.035526473
105	0xb8df5daf	-0.000106509186
106	0xbe971dc0	-0.29514885
107	0x3d5642f6	0.052309953
108	0x3db08876	0.08619778
109	0x3dad1cf2	0.084527865
110	0xbbd0d666	-0.0063732145
111	0x3e894967	0.26813814
112	0xbdacc022	-0.08435084
113	0xbd3e47ec	-0.04645531
114	0x3d5488bd	0.051888216
115	0xbdf70962	-0.120623365
116	0xbd1c6604	-0.038183227
117	0x3d4c14fc	0.0498247
118	0xbe5374a7	-0.20649968
119	0xbe1949fd	-0.1496963
120	0x3b93b559	0.0045077023
121	0xbc959817	-0.018260999
122	0x3d660085	0.05615284
123	0xbd3ec18f	-0.04657131
124	0x3bf7c436	0.007561232
125	0xbd6f013b	-0.058350783
126	0xbe633acd	-0.221904
127	0xbd724fdf	-0.059158202
128	0xbe08f22c	-0.13373631
129	0x3c937e04	0.018004425
130	0xbdc64862	-0.09681775
131	0x3df28903	0.11842539
132	0x3d972b4d	0.07381306
133	0xbd46f06d	-0.04856913
134	0xbd8ac2ff	-0.06775474
135	0xbd388044	-0.0450442
136	0xbed67eb4	-0.41893542
137	0xbdf053ec	-0.11734757
138	0xbe2ce09c	-0.16882557
139	0x3e5196c6	0.20467672
140	0xbd931ab7	-0.0718283
141	0x3e818d5f	0.2530317
142	0x3da442eb	0.08020576
143	0xbd3642aa	-0.04449717
144	0xbb96409c	-0.0045853388
145	0xbccfb5c2	-0.025355224
146	0xbe1e8b2e	-0.1548278
147	0xbd05e44e	-0.03268843
148	0xbe0114cf	-0.12605594
149	0xbd2be893	-0.041969847
150	0xbc8a5e71	-0.016890736
151	0xbe5e044f	-0.21681331
152	0x3ce8fa1f	0.02843958
153	0xbd377cc9	-0.04479674
154	0xbd37e30c	-0.044894263
155	0xbd80a4c5	-0.06281427
156	0xbc8fc6fe	-0.017550942
157	0x3d0664b9	0.0328109
158	0x3dd2b07b	0.10287567
159	0x3c66faeb	0.014097909
160	0xbd13b5bf	-0.036062
161	0xbe59ff2a	-0.21288744
162	0x3c47fe7a	0.012206668
163	0x3ce07ef2	0.027404282
164	0xbd00d71c	-0.031455144
165	0x3e75e069	0.24011387
166	0x3a591dee	0.0008282353
167	0x3dd88d76	0.105738565
168	0x3e2435ca	0.16036144
169	0x3ca4d6b3	0.020121908
170	0x3cc5ce00	0.02414608
171	0xbd65c073	-0.056091737
172	0x3cb49979	0.022045838
173	0xbe099711	-0.13436534
174	0xbd6ebb4c	-0.05828409
175	0x3db6f172	0.08932771
176	0xbe8512ed	-0.25991002
177	0x3d7fc02b	0.062439125
178	0x3db8be19	0.09020633
179	0x3ca07c5e	0.019590553
180	0x3da5df0c	0.080991834
181	0xbe9675e4	-0.29386818
182	0x3d239663	0.03993834
183	0xbd83e83a	-0.06440778
184	0x3d2dd8d5	0.042443115
185	0xbd0de83a	-0.034645297
186	0xbc798006	-0.015228277
187	0xbd16d8b7	-0.03682777
188	0xbd3e425d	-0.046450008
189	0xbd3cb954	-0.04607518
190	0xbcc33863	-0.023830598
191	0xbd22dd87	-0.039762046
192	0xbd507f15	-0.050902445
193	0x3b85b260	0.004080102
194	0xbccf938d	-0.025338912
195	0x3d0e460d	0.034734774
196	0xbd18ebef	-0.03733438
197	0xbcd51ae5	-0.0260138
198	0x3d1d8be9	0.038463507
199	0xbd192021	-0.037384156
200	0xbcdad7d6	-0.026714247
201	0x3c9e560a	0.019328136
202	0x3cb1f4fa	0.02172326
203	0x3d2af3f5	0.04173656
204	0xbc30c8b7	-0.010790042
205	0xbcc5482c	-0.024082266
206	0xbd2ed30c	-0.04268174
207	0xbc2faa84	-0.010721806
208	0x3d658035	0.05603047
209	0x3c0bd995	0.008535762
210	0xbd4c4695	-0.049872
211	0xb9e1ef6b	-0.00043093725
212	0x3c61445a	0.013749206
213	0x3c7fa335	0.015602876
214	0xbd26ee57	-0.040754642
215	0xbc9cbd5d	-0.019133264
216	0xbd224764	-0.039618865
217	0xbcc0eca3	-0.023550337
218	0x3c016ee4	0.007899974
219	0xbc4e3502	-0.01258588
220	0xbca697bc	-0.020336024
221	0xbd13a3b5	-0.036044795
222	0xbd410379	-0.047122452
223	0x3d3396a1	0.043844823
224	0xbb029f8a	-0.0019931518
225	0x3d1e2709	0.038611446
226	0xbc0aeba8	-0.008479036
227	0x3d124911	0.035714213
228	0xbd4f5992	-0.05062253
229	0xbc8ea642	-0.017413262
230	0x3cad3d06	0.021147262
231	0x3b55b1d8	0.0032607224
232	0xbc519e34	-0.012794066
233	0xbbb0c38d	-0.005394405
234	0xbdbb8e61	-0.09158016
235	0xbb79da27	-0.0038124414
236	0x3bb8b887	0.0056372317
237	0x3d33dca7	0.043911602
238	0x3d1c2810	0.038124144
239	0xbd0b38cc	-0.033989713
240	0xbd1c1d6d	-0.038114
241	0x3d7c17fc	0.06154631
242	0xbc9da406	-0.019243252
243	0xbb0278a1	-0.0019908326
244	0x3c918867	0.017765237
245	0x3b9a40d0	0.0047074333
246	0x3b55ffbb	0.0032653648
247	0x3c5db939	0.01353293
248	0x3985c9a5	0.00025517974
249	0xbc1eac83	-0.009684685
250	0xbc32603a	-0.0108872
251	0x3aed9a30	0.0018127616
252	0xbc7d7762	-0.015470358
253	0x3d1199e0	0.035547137
254	0xbd1155df	-0.035482284
255	0x3caaabca	0.020833869

bias f4 [256]
0	0x3c3c63ee	0.0114984345
1	0x3cd4ee81	0.025992634
2	0x3d54227d	0.051790703
3	0xbce21914	-0.027599849
4	0x3d1adf05	0.037810344
5	0x3d3da9eb	0.046304625
6	0x3da04e5e	0.07827447
7	0xbbb2e754	-0.0054597054
8	0x3d96cd9f	0.07363438
9	0x3c9cbad0	0.019132048
10	0x3b4c3ea5	0.0031165269
11	0x3d71788c	0.058952853
12	0xbe299e4d	-0.16564293
13	0xbca20779	-0.019778954
14	0xbd9a1d35	-0.07525102
15	0xbd1e79b2	-0.038690276
16	0xbe4a17e1	-0.19735672
17	0xbc576275	-0.013146033
18	0xbca086fc	-0.019595616
19	0x3d0fdca9	0.035122547
20	0x3c9d81d6	0.01922695
21	0x3cbe9fce	0.02326956
22	0xbd100762	-0.03516329
23	0x3d164700	0.036688805
24	0xbaebacd0	-0.0017980579
25	0x3b96b932	0.0045997137
26	0x3ad98284	0.0016594683
27	0xbda83b75	-0.082144655
28	0xbc196d4c	-0.009364437
29	0x3db6945c	0.08915016
30	0x3d9e3866	0.07725601
31	0xbd1a04c0	-0.037602186
32	0x3e266c11	0.16252162
33	0x3c9ff264	0.01952476
34	0xbd9f691c	-0.0778372
35	0xbc6f2da2	-0.014598282
36	0xbd9ca20d	-0.07648096
37	0x3cee9b22	0.029126707
38	0x3d0b7242	0.03404451
39	0x39a0587c	0.00030583504
40	0x3de22321	0.110418566
41	0x3d808618	0.06275576
42	0xbdfda197	-0.123843364
43	0x3db71b5f	0.089407675
44	0x3cb6e660	0.022326648
45	0xbcd7d9a0	-0.026348889
46	0x3dadb8f5	0.084825434
47	0xbd59e937	-0.053200927
48	0x3cbbd844	0.022930272
49	0xbe05efbb	-0.13079731
50	0xbd1a9c92	-0.037746973
51	0x3d8ba53a	0.06818624
52	0xbdf7a209	-0.12091453
53	0x3bca3515	0.0061708787
54	0xbc9afb38	-0.018918619
55	0xbca90d37	-0.020636184
56	0x3de6b0c7	0.11264186
57	0x3d1bb105	0.038010616
58	0xbc8ba10d	-0.017044568
59	0x3d337172	0.04380936
60	0xbcc811fe	-0.024422642
61	0xbd43044b	-0.047611516
62	0x3dca179e	0.09867786
63	0xbd586e4d	-0.052839566
64	0xbd9680b3	-0.07348766
65	0xbc800734	-0.015628435
66	0x3d02e37d	0.03195523
67	0x3e199bdb	0.1500086
68	0x3d0b5e9d	0.034025777
69	0xbb919a1b	-0.0044434196
70	0x3dd9bab3	0.10631313
71	0xbc915ef3	-0.01774547
72	0x3dfeafa5	0.12435845
73	0xbd8b57b2	-0.06803836
74	0xbc6143a9	-0.013749042
75	0x3d9c3c3a	0.07628675
76	0xbc1c6663	-0.009545895
77	0x3bf91405	0.0076012635
78	0xbc83023a	-0.015992273
79	0xbce88910	-0.028385669
80	0x3d90865f	0.07056879
81	0x3de0cd78	0.1097669
82	0xbba36571	-0.004986458
83	0x3dd00c68	0.10158616
84	0xbd5ab271	-0.05339283
85	0x3cbe3c79	0.023222195
86	0xbc0f9d54	-0.008765537
87	0xbdc46250	-0.09589064
88	0x3d41bf0f	0.04730135
89	0x3d84fb53	0.06493249
90	0x3ac6c741	0.0015165583
91	0xbd015341	-0.031573538
92	0xbd76ed6d	-0.06028502
93	0xbd2cffa0	-0.04223597
94	0xbd44471c	-0.047919378
95	0x3da1343f	0.07871293
96	0xbdf22f61	-0.11825443
97	0xbca63bf0	-0.020292252
98	0xbb0e6290	-0.0021726228
99	0xbcdfb813	-0.027309453
100	0x3c814160	0.015778244
101	0xbd918c6b	-0.07106861
102	0x3d6f1a00	0.058374405
103	0x3aeb271f	0.0017940736
104	0x3ca9b176	0.020714503
105	0xbd30435b	-0.043032985
106	0xbd40a495	-0.047031958
107	0xbccc39d1	-0.024929913
108	0xbd2412bd	-0.040056933
109	0xbdaafc99	-0.083489604
110	0xbc220c02	-0.009890558
111	0xbda25409	-0.07926185
112	0xbc8d9719	-0.017283963
113	0xbdb1a430	-0.086738944
114	0xbd32cb19	-0.04365072
115	0x3b460cb1	0.0030219967
116	0xbe004cc2	-0.12529281
117	0xbd842fa8	-0.06454402
118	0xbce6c652	-0.028170738
119	0xbcea9417	-0.028635068
120	0x3d341dac	0.04397361
121	0x3d3bee6c	0.045881674
122	0xbd714aa9	-0.058909092
123	0xbce099c5	-0.027417073
124	0x3d08e646	0.03342273
125	0x3d6ab919	0.05730543
126	0xbd54187d	-0.051781166
127	0xbd8a908f	-0.067658536
128	0xbe46a66a	-0.1939942
129	0x3d218c18	0.039440244
130	0xbbc96d09	-0.006147031
131	0x3c84bc0c	0.016202949
132	0x3c50f33b	0.012753303
133	0x3d849868	0.06474382
134	0x3e0af1f2	0.13568857
135	0x3cc83511	0.024439367
136	0xbce87311	-0.02837518
137	0xbd049023	-0.032364022
138	0x3cf296c9	0.029612916
139	0x3d747006	0.059677146
140	0x3c9006df	0.017581401
141	0x3d7490fa	0.059708573
142	0x3c044ad5	0.008074482
143	0xbd22a462	-0.03970755
144	0xbd11b242	-0.03557039
145	0x3bba04fa	0.005676863
146	0xbd842f31	-0.064543135
147	0x3dc3af89	0.09554965
148	0xbb4aa3bb	-0.0030920345
149	0x3dc0870f	0.094007604
150	0x3cacf3cd	0.021112347
151	0x3c84b7b3	0.016200876
152	0x3d26eaaf	0.040751155
153	0x3c90801b	0.01763921
154	0x3b85686e	0.004071287
155	0x3daa4055	0.083130516
156	0x3e2ce173	0.16882877
157	0xbc2fcb35	-0.010729601
158	0xbd25b83b	-0.0404589
159	0x3da6600a	0.08123787
160	0xbd6ac896	-0.0573202
161	0xb977e471	-0.00023640857
162	0x3cb3732a	0.0219055
163	0x3e0cba50	0.13742948
164	0x3d38cd3f	0.045117613
165	0xbd0a6e24	-0.033796445
166	0x3e2c7808	0.16842663
167	0x3c4063f2	0.011742579
168	0xbd565ba7	-0.0523335
169	0xbd155096	-0.036453806
170	0x3c29bfbc	0.010360654
171	0x3d80d064	0.06289747
172	0xbcace4d9	-0.021105217
173	0xbb56de93	-0.0032786473
174	0x3d9d8e2b	0.07693132
175	0x3dac15bf	0.08402585
176	0xbd7f4893	-0.06232507
177	0xbd0753ab	-0.033038776
178	0x3e2f9895	0.17148049
179	0x3d48cc94	0.049023226
180	0xbd6dd382	-0.058063038
181	0x3c4e83a5	0.012604629
182	0x3c95ef13	0.018302476
183	0xbc55a9f3	-0.013041007
184	0xbcaf18ce	-0.021374132
185	0x3d2a83f8	0.04162976
186	0xbd646b30	-0.055766284
187	0x3c74e967	0.014948226
188	0xbc32a333	-0.010903168
189	0x3c9e8d41	0.019354464
190	0xbd08d5a1	-0.033406857
191	0x3b2f2e2c	0.0026730401
192	0x3d8c50c1	0.0685134
193	0x3d2cac65	0.042156596
194	0x3d134f18	0.0359641
195	0x3c6c16ad	0.014409703
196	0x3ce3f820	0.027828276
197	0xbd6a3c82	-0.05718661
198	0xbd4c02cc	-0.049807355
199	0xbcb041be	-0.021515723
200	0x3e2150f8	0.15753543
201	0xbb059c88	-0.002038749
202	0xbd58f318	-0.052966207
203	0x3d7d198e	0.06179195
204	0x3d91f1a7	0.0712617
205	0x3d34ec49	0.04417065
206	0xbd40de46	-0.047086976
207	0xbd04d6d5	-0.032431442
208	0xbb227e9b	-0.00247947
209	0x3d8b3c68	0.06798631
210	0xbd56f165	-0.052476306
211	0xbc8cb933	-0.017178154
212	0xbdaf8efb	-0.08572193
213	0xbc531cdc	-0.012885299
214	0xbd93a9ab	-0.07210096
215	0xbd59ceb5	-0.053175647
216	0x3e5fc3ef	0.21852086
217	0x3d82f89a	0.06395073
218	0xbd72eac7	-0.059305932
219	0xbbb10abf	-0.0054028924
220	0x3d868dff	0.06570052
221	0x3d62e36b	0.055392664
222	0x3caa9b73	0.020826077
223	0xbce515ab	-0.027964434
224	0x3d430563	0.04761256
225	0xbc846f53	-0.016166365
226	0x3c8418c7	0.016125096
227	0xbb3214c2	-0.0027173017
228	0xbd2ca4b1	-0.04214925
229	0x3d0f643b	0.035007697
230	0x3d619569	0.05507413
231	0xbe4f2e1b	-0.20232432
232	0xbc16e10e	-0.009208931
233	0x3b95196a	0.0045501487
234	0x3d96cdea	0.07363494
235	0xbcb218de	-0.021740373
236	0xbcfa253c	-0.030535333
237	0x3d62615d	0.055268634
238	0xbca5aa28	-0.020222738
239	0xbc98d4c8	-0.01865615
240	0x3aa8b132	0.0012870191
241	0xbc1065ba	-0.008813316
242	0xbe3c689c	-0.1839928
243	0xbd086327	-0.033297684
244	0x3ce241bf	0.02761924
245	0x3d616af7	0.05503365
246	0x3dccf475	0.10007564
247	0xbd112543	-0.035435926
248	0xbc802f35	-0.01564751
249	0xbbce1f8e	-0.0062903827
250	0xbc14e8d5	-0.009088715
251	0xbd275c32	-0.04085941
252	0x3e01abdf	0.1266322
253	0xbc1aa89e	-0.0094396155
254	0xbd810758	-0.06300229
255	0xbe1b921d	-0.15192457

weight f4 [256, 256]
0	0x3e790edb	0.24322073
1	0x3dadd739	0.08488316
2	0x3e87d694	0.26530898
3	0xbe782a40	-0.24234867
4	0xbe81c274	-0.25343668
5	0x3d96a612	0.07355894
6	0x3e8b7890	0.2724042
7	0xbe54fb2c	-0.2079894
8	0xbe848dc2	-0.25889403
9	0x3de2ca95	0.11073796
10	0x3e37790f	0.17917274
11	0xbec0b14d	-0.3763527
12	0x3e9f9e1d	0.31175318
13	0xbe9ee17c	-0.31031406
14	0xbeb5e222	-0.35524088
15	0xbca4f975	-0.020138482
16	0xbd93e840	-0.072220325
17	0xbea11dfa	-0.31468183
18	0xbdaf9b22	-0.08574511
19	0xbeb34629	-0.35014465
20	0xbea12892	-0.31476265
21	0x3dc3b1b3	0.09555378
22	0xbe0092a0	-0.12555933
23	0xbe7326c3	-0.23745255
24	0xbeaee34e	-0.34157795
25	0x3e97ecd8	0.29672885
26	0x3e93487a	0.28766233
27	0xbeb50ecf	-0.3536286
28	0x3ebf1696	0.3732192
29	0x3e8f0661	0.27934554
30	0x3dc4426c	0.095829815
31	0xbe89f8c8	-0.26947618
32	0x3dee9b33	0.11650696
33	0xbe0283a2	-0.12745526
34	0x3e181b31	0.14854123
35	0xbec0da01	-0.37666324
36	0x3e761872	0.24032763
37	0xbeb062bf	-0.34450337
38	0x3eaf07bf	0.34185597
39	0x3dbe2245	0.0928388
40	0x3ea02bc6	0.31283396
41	0x3e8838be	0.2660579
42	0xbebd53cd	-0.36977997
43	0xbdaf06e4	-0.08546236
44	0x3e6bef13	0.23040418
45	0x3e9f7d58	0.31150317
46	0xbeaff3b1	-0.3436561
47	0xbee739c7	-0.45161268
48	0xbead2bc0	-0.3382244
49	0xbec57d47	-0.38572142
50	0x3e6b1cf5	0.22960265
51	0x3ecb2418	0.39675975
52	0x3e81ae82	0.2532845
53	0x3e1f9b29	0.15586533
54	0x3d9e6ba3	0.07735374
55	0xbe9722f7	-0.29518864
56	0x3d2a3ada	0.04156003
57	0xbe94b786	-0.29046267
58	0xbd844fdc	-0.064605445
59	0x3d862cd4	0.06551519
60	0x3e5fe6be	0.21865365
61	0xbde93122	-0.113863245
62	0xbe18a114	-0.14905196
63	0x3cb1660f	0.02165511
64	0x3e92b62b	0.28654608
65	0x3df7086b	0.120621525
66	0x3ea72326	0.32644004
67	0x3e4a01ee	0.19727299
68	0x3e2a004e	0.16601679
69	0xbe26bb28	-0.16282332
70	0xbe55259f	-0.20815133
71	0xbe641c70	-0.22276473
72	0x3b8c4129	0.0042802286
73	0xbdbd8be6	-0.09255199
74	0x3ea066f7	0.31328556
75	0x3e758cf4	0.2397955
76	0xbdebc199	-0.11511535
77	0xbe1a98e3	-0.15097384
78	0x3ddfb4db	0.10923167
79	0x3e5682df	0.20948361
80	0x3e92a69b	0.28642735
81	0x3dbc8393	0.09204783
82	0x3de8e372	0.11371507
83	0xbe85edad	-0.26157895
84	0xbe1a63d4	-0.15077144
85	0xbdba2936	-0.090898916
86	0xbeba66b5	-0.36406484
87	0x3ec35de8	0.38157582
88	0xbe882fd4	-0.2659899
89	0xbe981f41	-0.29711345
90	0x3debbe96	0.11510961
91	0xbe860786	-0.26177615
92	0x3e086aac	0.13321942
93	0xbe57cc35	-0.21073993
94	0xbe2f01e0	-0.17090559
95	0xbdc09b2e	-0.09404598
96	0x3b5c5a39	0.0033623113
97	0xbe27b404	-0.16377264
98	0xbe5d5564	-0.21614605
99	0x3d97de59	0.07415456
100	0xbe487d66	-0.19579086
101	0xbe1df5a1	-0.15425731
102	0x3e3fa93a	0.18716899
103	0x3de13198	0.109957874
104	0x3e531568	0.20613635
105	0xbe783013	-0.24237089
106	0xbee395bc	-0.44450176
107	0x3e40e4d8	0.18837297
108	0x3e8aea0a	0.27131683
109	0x3de6a9af	0.11262833
110	0xbe33c6cd	-0.17556305
111	0xbeac8d08	-0.33701348
112	0x3daf37f6	0.085555956
113	0xbe80edac	-0.2518133
114	0xbcae3d4a	-0.02126946
115	0x3d6b4e90	0.05744797
116	0x3d159d72	0.036527105
117	0x3d360e82	0.04444743
118	0xbe913715	-0.28362337
119	0x3e9fb40b	0.3119205
120	0x3e774e07	0.24150859
121	0xbd0fc294	-0.035097674
122	0x3ea79a52	0.32734925
123	0xbdff7a18	-0.124744594
124	0xbeab1979	-0.33417872
125	0x3eb78149	0.35840824
126	0x3e317f31	0.17333676
127	0xbe0da18d	-0.13831158
128	0xbd405a3c	-0.046961054
129	0xbe5c7dbe	-0.21532342
130	0x3e96c4a9	0.29446915
131	0x3e775905	0.24155052
132	0x3b9229a9	0.0044605327
133	0xbe8810bf	-0.26575276
134	0xbd9cae75	-0.076504625
135	0xbe2b3765	-0.1672035
136	0x3e2f00fa	0.17090216
137	0xbd87e441	-0.06635333
138	0xbe2f62b0	-0.1712749
139	0x3e6bd310	0.23029733
140	0xbdf57974	-0.11986056
141	0x3e14d7c7	0.14535438
142	0xbe239b27	-0.15977155
143	0xbd3ee918	-0.046609014
144	0xbe643b73	-0.22288303
145	0x3e72d6d6	0.23714766
146	0xbe894ef3	-0.26818046
147	0xbe8df27a	-0.27724057
148	0x3f10bb3f	0.56535715
149	0x3e120ee2	0.1426349
150	0x3e99bb67	0.3002579
151	0xbe851ed3	-0.2600008
152	0xbd8ed2aa	-0.06973775
153	0xbe92f3b3	-0.28701553
154	0x3e1d7f63	0.15380625
155	0x3e56be37	0.20970999
156	0xbea409e1	-0.32038787
157	0x3e81776f	0.25286433
158	0x3de74e5a	0.11294241
159	0xbe0296ee	-0.12752888
160	0xbe91a55e	-0.28446478
161	0x3e9d6884	0.30743802
162	0x3e4f3d19	0.2023815
163	0x3c82d48d	0.015970493
164	0x3da46189	0.08026416
165	0xbe876778	-0.26446128
166	0xbec8408a	-0.3911174
167	0xbd235069	-0.039871607
168	0xbe6ff16a	-0.23431936
169	0x3e5c0a9b	0.2148842
170	0xbe2762ae	-0.16346237
171	0xbd7d7ad6	-0.061884724
172	0xbe3fab2e	-0.18717644
173	0xbd08a85b	-0.03336368
174	0xbe4a6697	-0.19765697
175	0x3e01a794	0.12661582
176	0xbe950c84	-0.2911111
177	0x3ede741a	0.43447953
178	0x3dc8e7d2	0.09809841
179	0xbdbd5d2a	-0.09246285
180	0x3ecaf472	0.39639622
181	0x3e8dd156	0.27698773
182	0xbe8bc942	-0.27301985
183	0xbe9ba970	-0.30402708
184	0x3e971768	0.29510045
185	0xbe6ffbd7	-0.23435913
186	0x3e9b4f99	0.30334166
187	0xbea1edcf	-0.31626746
188	0x3dc2c9ae	0.095111236
189	0x3eab74c4	0.33487523
190	0xbd8a1b57	-0.06743496
191	0xbed12c9d	-0.4085435
192	0xbe121828	-0.14267027
193	0xbe12da72	-0.14341143
194	0x3cb91068	0.02259083
195	0xbe488615	-0.19582398
196	0xbe47bbad	-0.19505186
197	0xbe255e31	-0.16149212
198	0xbeaad534	-0.33365786
199	0xbf0449b3	-0.51674956
200	0x3e0329c3	0.128089
201	0xbeb87abc	-0.3603114
202	0x3e53b613	0.20674925
203	0xbdc7c649	-0.09754617
204	0xbea89733	-0.32927856
205	0xbec57a34	-0.38569796
206	0xbe139ee4	-0.1441608
207	0xbee0c8d4	-0.4390322
208	0xbe720659	-0.23635234
209	0xbe88a293	-0.26686534
210	0xbe0088f0	-0.12552238
211	0x3b68375d	0.003543339
212	0x3e427b88	0.18992436
213	0x3e9c058b	0.3047298
214	0x3e4f3676	0.20235619
215	0xbd029cac	-0.031887695
216	0xbde481b0	-0.111575484
217	0xbe09070e	-0.13381597
218	0x3cbe51f8	0.023232445
219	0x3dfe6289	0.12421138
220	0xbce09c42	-0.02741826
221	0xbe08bf7b	-0.13354294
222	0xbce76ec8	-0.028251067
223	0x3e7e5dbb	0.24840443
224	0x3e31cbc4	0.17362887
225	0x3db045a8	0.08607036
226	0xbead4cdf	-0.3384771
227	0xbe2e9c82	-0.1705189
228	0xbe19040b	-0.14942949
229	0x3e9e3a2f	0.30903766
230	0xbe29df25	-0.16589029
231	0xbe24bf4e	-0.16088602
232	0x3e592114	0.21204025
233	0x3e31fffa	0.17382804
234	0x3e9105a4	0.28324616
235	0xbe822aa5	-0.2542316
236	0x3e31960a	0.17342392
237	0xbe2f4f05	-0.17119987
238	0x3e9f471e	0.31108946
239	0x3e3375b7	0.17525373
240	0x3e88cc10	0.26718187
241	0xbec6d66f	-0.38835475
242	0x3e1896be	0.14901254
243	0xbedbdc62	-0.42941576
244	0x3e683a81	0.22678567
245	0x3e065572	0.13118532
246	0xbc572c92	-0.013133185
247	0xbe20eaa7	-0.15714513
248	0xbe454c54	-0.19267398
249	0xbed19db4	-0.4094063
250	0x3e28367c	0.16427034
251	0x3d91d07b	0.071198426
252	0x3df0c365	0.117560185
253	0xbee5b0d3	-0.4486147
254	0x3e7bc62f	0.2458732
255	0xbe85dc53	-0.26144657

bias f4 [256]
0	0xbcdea68f	-0.02717903
1	0xbc745725	-0.014913355
2	0xbe5010c6	-0.20318899
3	0x3d1856a1	0.03719199
4	0x3d38a7eb	0.045082014
5	0xbc912eed	-0.017722571
6	0xbc58abe4	-0.013224576
7	0x3b56cd89	0.0032776317
8	0x3c6dc9a2	0.014513405
9	0xbcced035	-0.025245765
10	0xbd10c433	-0.03534336
11	0x3d886a08	0.06660849
12	0xbd74502b	-0.059646767
13	0xbd2bb522	-0.04192079
14	0x3d3c3f81	0.045959
15	0xbcb370a5	-0.021904299
16	0xba2d7252	-0.00066164613
17	0x3da8db64	0.082449704
18	0x3e77608d	0.24157925
19	0xbe0d3f67	-0.13793717
20	0xbe6c57a0	-0.23080301
21	0x3c620278	0.013794534
22	0x3c40388c	0.011732232
23	0x3bcf1f6d	0.006320885
24	0x3cd471bc	0.025933139
25	0x3e976634	0.29570162
26	0xbd3e4424	-0.046451703
27	0x3be2d800	0.006922722
28	0x3e865bb4	0.2624184
29	0x3e50e9e1	0.20401718
30	0x3d455f6e	0.048186712
31	0xbd7b286a	-0.06131784
32	0xbdb3c393	-0.08777537
33	0xbc10fc14	-0.008849163
34	0xbd5adf36	-0.053435527
35	0x3d562c98	0.05228862
36	0xbe29d8d1	-0.16586615
37	0x3cc525bf	0.02406585
38	0xbd705183	-0.058671486
39	0xbd38cbc1	-0.04511619
40	0xbe669c13	-0.22520475
41	0xbcd57308	-0.026055828
42	0x3c7af3eb	0.015316944
43	0xbdb79c30	-0.08965337
44	0xbe8194f3	-0.25308952
45	0xbe2857eb	-0.16439788
46	0xbb9de4df	-0.0048185433
47	0xbe57a9f0	-0.2106092
48	0xbcaab9b0	-0.020840496
49	0xbe6e874c	-0.23293799
50	0xbe5267a2	-0.20547345
51	0x3e5c442a	0.21510378
52	0x3c9b76bd	0.018977517
53	0xbb3b35fa	-0.0028566108
54	0x3bf03171	0.0073301126
55	0xbe24371e	-0.1603665
56	0xbe64ce23	-0.2234426
57	0x3da0e6a0	0.07856488
58	0x3d6d8380	0.057986736
59	0x3e8051b5	0.25062338
60	0xbe1fb367	-0.1559578
61	0xbe50576c	-0.20345849
62	0x3d256d38	0.040387362
63	0x3e76571d	0.24056669
64	0x3e5aea91	0.21378542
65	0x3c750395	0.014954467
66	0xbc97a412	-0.018510852
67	0xbcc4bf95	-0.024017135
68	0x3e7f1b19	0.2491268
69	0xbe7906d9	-0.24319018
70	0xbc8b86f8	-0.017032132
71	0xbe3c3026	-0.18377742
72	0xbbeac5fa	-0.007164714
73	0xbe482278	-0.19544399
74	0x3d77bee0	0.060484767
75	0xbd19fe14	-0.037595823
76	0xbe50fc0c	-0.20408648
77	0x3e456f6a	0.19280782
78	0xbd534cb2	-0.051586814
79	0xbd95239e	-0.07282184
80	0x3c36126e	0.011112792
81	0x3cee4340	0.029084802
82	0xbc344dc8	-0.011004873
83	0x3e87f45e	0.26553625
84	0x3da6a112	0.081361905
85	0xbe4a9c35	-0.19786151
86	0x3c7a3796	0.015272042
87	0x3e4ee78c	0.20205516
88	0x3ddb6374	0.107123286
89	0x3cdad423	0.026712483
90	0x3c8ed214	0.017434157
91	0x3e6bf44f	0.23042415
92	0x3e4a6ba1	0.1976762
93	0xbd33ff91	-0.0439449
94	0x3c583dc4	0.01319832
95	0xbe1a8224	-0.15088707
96	0xbe66f046	-0.22552595
97	0xbd1b3831	-0.037895385
98	0xbe640b94	-0.22270042
99	0x3dfc6b84	0.123251945
100	0xbe4c684e	-0.19961664
101	0xbe217393	-0.15766744
102	0xbe41a5a2	-0.1891084
103	0x3e8b461e	0.27201933
104	0xbe25f03f	-0.16204928
105	0xbe27725b	-0.16352217
106	0x3dc1c773	0.0946187
107	0xbb6056f8	-0.0034231525
108	0x3e532ba5	0.20622118
109	0x3e52b157	0.20575462
110	0xbcf31965	-0.029675195
111	0x3a15c6a9	0.00057135016
112	0x3e934551	0.28763822
113	0xbda654fa	-0.08121677
114	0xbca208f1	-0.019779654
115	0xbd93dee6	-0.07220249
116	0x3e6aa869	0.22915806
117	0x3c6e2e73	0.014537442
118	0x3e20c116	0.15698656
119	0xbd263c47	-0.04058483
120	0xbd865596	-0.06559293
121	0x3d192d18	0.03739652
122	0x3b915a16	0.004435788
123	0xbca08ac1	-0.019597413
124	0x3d0bb45c	0.03410755
125	0x3daf3708	0.08555418
126	0xbd9a711a	-0.07541104
127	0xbc8458a7	-0.016155554
128	0x3bb0f5ab	0.0054003797
129	0x3e2658e0	0.1624484
130	0x3d99fa52	0.07518448
131	0xbd805780	-0.06266689
132	0x3e298c26	0.16557369
133	0x3ce1f2ad	0.027581537
134	0xbce2e267	-0.027695848
135	0x3cfe0dca	0.031012435
136	0xbdf63d1f	-0.12023377
137	0x3c3821be	0.0112385135
138	0xbccf1d66	-0.025282573
139	0x3caf5af4	0.021405675
140	0x3e1cb512	0.15303448
141	0x3ba6ce25	0.0050904923
142	0x3ada0f85	0.0016636705
143	0xbc817a1d	-0.015805298
144	0x3d696da2	0.05698932
145	0xbe34e89a	-0.17666855
146	0xbd37edeb	-0.04490463
147	0xbc89fb63	-0.016843503
148	0xbd0394e5	-0.03212442
149	0x3e6fa8a5	0.23404177
150	0xbd43ffa1	-0.04785121
151	0x3e0351ea	0.12824216
152	0x3be62a27	0.007024068
153	0x3d72cfa4	0.059280053
154	0x3bb6b652	0.0055759335
155	0x3ccbb1d2	0.024865065
156	0x3d2ef724	0.04271616
157	0xbea8ce8c	-0.32970083
158	0xbe7dd2d7	-0.2478746
159	0x3d4167cb	0.047218125
160	0x3d22cbf9	0.039745305
161	0xbe3f68b8	-0.18692291
162	0xbdd51c1b	-0.10405751
163	0xbe0020c0	-0.12512493
164	0x3de37341	0.11105967
165	0x3d6bc44d	0.057560254
166	0x3e3b1c6b	0.1827256
167	0xbe3a4b93	-0.18192892
168	0xbd21b322	-0.039477475
169	0xbe6a1877	-0.22860895
170	0x3c548ba2	0.012972744
171	0xbc8df258	-0.017327473
172	0x3c628d65	0.013827656
173	0x3d855d5c	0.065119475
174	0xbe6aad54	-0.22917682
175	0xbe3a4db4	-0.18193704
176	0xbd95f1ff	-0.07321548
177	0xbd64a801	-0.055824284
178	0x3d61b27a	0.05510185
179	0xbd85168d	-0.06498442
180	0xbd7cf3fd	-0.061756123
181	0xbd201475	-0.03908201
182	0xbe2b5e13	-0.16735105
183	0x3d8ef03d	0.069794156
184	0x3cbcc62a	0.02304371
185	0xbe88d865	-0.26727596
186	0xbcd7bc4f	-0.02633491
187	0x3e5b0ed7	0.2139238
188	0xbd178b84	-0.036998287
189	0xbcffffb1	-0.031249853
190	0xbd91a2e3	-0.07111146
191	0xbd6ae8aa	-0.057350792
192	0x3da16562	0.07880665
193	0x3cde769b	0.027156165
194	0x3e24e31a	0.16102257
195	0x3856787b	5.1133782e-05
196	0xbe1b80c0	-0.15185833
197	0x3e430c38	0.1904763
198	0xbd4d6d5c	-0.05015312
199	0xbd48e9ed	-0.049051214
200	0x3de3d486	0.1112452
201	0xbe5725c1	-0.21010496
202	0xbd65e542	-0.05612684
203	0x3b595f72	0.0033168462
204	0x3c14799a	0.009062195
205	0x3d9cbefd	0.076536156
206	0x3e7a748b	0.2445852
207	0xbe307168	-0.17230761
208	0xbe759cbb	-0.23985569
209	0xbcced6af	-0.025248853
210	0x3e59be03	0.2126389
211	0xbe848aa9	-0.2588704
212	0x3d2b20a9	0.041779194
213	0x3cb79bce	0.02241316
214	0xbd23bec1	-0.03997684
215	0x3d237e21	0.039915208
216	0xbe2eaf8d	-0.17059155
217	0x3e730250	0.23731351
218	0xbc641795	-0.013921638
219	0x3e15a3a6	0.14613208
220	0x3dec1c53	0.1152884
221	0xbd67be85	-0.056578178
222	0xbcfeef6a	-0.03112002
223	0x3e815b96	0.25265187
224	0xbc5cf278	-0.013485543
225	0xbe5d70fa	-0.21625128
226	0xbdad08d8	-0.084489524
227	0x3dcde076	0.10052578
228	0x3c948983	0.018131977
229	0xbc4015f7	-0.011723987
230	0x3e404696	0.18776926
231	0x3e41ac1b	0.1891331
232	0xbd3ebd39	-0.046567176
233	0xbe80b246	-0.25136012
234	0x3e2bae51	0.16765715
235	0xbe38bad5	-0.18040021
236	0xbe1aeadb	-0.15128653
237	0x3df8df32	0.12151946
238	0x3e35b43f	0.1774454
239	0x3e38752d	0.18013449
240	0xbdd469ab	-0.10371717
241	0xbd17a623	-0.037023675
242	0xbce17343	-0.027520781
243	0x3d56bd02	0.052426346
244	0x3e1ecd0b	0.15507905
245	0x3c4860b8	0.012230091
246	0xbd323914	-0.043511465
247	0xbe484ed8	-0.19561327
248	0xbad66fb3	-0.0016360193
249	0xbd332b8d	-0.043742705
250	0x3e0c682e	0.13711616
251	0x3e03fc3a	0.12889186
252	0xbe4be07b	-0.19909851
253	0xbd7c9a5a	-0.06167064
254	0xbc024402	-0.007950785
255	0xbe5cd948	-0.21567261

weight f4 [1, 256]
0	0xbe967321	-0.2938471
1	0xbe9f0ef5	-0.310661
2	0x3fc546d4	1.541224
3	0xbe994347	-0.2993414
4	0x3e8b515c	0.2721051
5	0xbe9b2bfa	-0.3030699
6	0xbe91505d	-0.28381625
7	0xbe6f518c	-0.23370951
8	0xbe6995e8	-0.22811091
9	0xbe9d2a9f	-0.3069658
10	0x3e5601b4	0.20899087
11	0xbe88d48b	-0.26724657
12	0x3e7aaad5	0.2447923
13	0x3e924446	0.28567713
14	0x3e8b031c	0.2715081
15	0x3e837b05	0.25679794
16	0xbe923956	-0.2855937
17	0xbf9fb7df	-1.2477988
18	0xbf8ba19a	-1.0908692
19	0x3f91a945	1.1379782
20	0x3fc2d451	1.5221044
21	0x3e85a375	0.2610127
22	0xbe79ff76	-0.24413857
23	0x3e580003	0.21093754
24	0x3e87c26c	0.2651552
25	0xbfab0c85	-1.3363196
26	0xbe88320b	-0.2660068
27	0xbea8b3c1	-0.3294964
28	0xbfc3cffd	-1.5297848
29	0xbfe29793	-1.7702507
30	0xbe82cec6	-0.2554838
31	0xbe6093cc	-0.2193138
32	0x3e9a07b5	0.30084005
33	0xbe98f157	-0.29871628
34	0x3eaa3088	0.3324015
35	0xbe78dd71	-0.24303223
36	0x3f9d6225	1.2295576
37	0xbe9ce466	-0.30643004
38	0x3e3eb10e	0.18622229
39	0x3e896219	0.26832655
40	0x3ed3c20c	0.41358984
41	0x3ea2a508	0.31766534
42	0xbe7375e4	-0.2377544
43	0x3e43e9f7	0.1913222
44	0x3ff4ccfe	1.9125059
45	0x3f9859e9	1.1902438
46	0x3e86998c	0.26289022
47	0x3f883ce8	1.0643587
48	0xbe83414a	-0.2563575
49	0x3f96842c	1.1759086
50	0x3f5738d6	0.840711
51	0xbfb3cdf7	-1.404723
52	0xbe86c485	-0.26321808
53	0x3e92043d	0.2851886
54	0x3e826cb4	0.2547356
55	0x3f696d44	0.9118235
56	0x3f53f339	0.82793003
57	0xbe98bb8f	-0.29830596
58	0xbe9a7678	-0.3016851
59	0xbfbf2eac	-1.4936118
60	0x3f9f3030	1.2436581
61	0x3f53f5d8	0.82797
62	0xbe6ed581	-0.23323633
63	0xbffc04d5	-1.9688975
64	0xc027722c	-2.6163435
65	0x3e4e2b08	0.20133603
66	0x3e9cbe89	0.30614117
67	0x3e913fc7	0.2836897
68	0xbfc5214b	-1.5400785
69	0x3feab754	1.8337197
70	0xbe81f47d	-0.25381842
71	0x3fcc07be	1.5939863
72	0xbe8e602c	-0.27807748
73	0x3f8f25a4	1.1183362
74	0xbe9cf8ba	-0.30658513
75	0x3e935106	0.28772753
76	0x3f7ae296	0.9800199
77	0xbfae8e58	-1.363719
78	0x3e85dc02	0.26144415
79	0x3eb53834	0.35394442
80	0xbe928522	-0.28617197
81	0x3e8d7f54	0.27636206
82	0xbe7941e3	-0.2434154
83	0xbf8c62d0	-1.0967655
84	0xbe773df7	-0.24144731
85	0x3fdda789	1.7316753
86	0xbe8b3cb1	-0.2719474
87	0xbf7eb5d5	-0.99496204
88	0xbf8979cb	-1.0740293
89	0x3e94e17e	0.29078287
90	0xbe8ab354	-0.27089942
91	0xbfc9b5a9	-1.5758563
92	0xbfc5e66f	-1.5460948
93	0x3e8486e7	0.25884172
94	0xbe896dc4	-0.26841557
95	0x40279d07	2.6189592
96	0x3febca6b	1.8421148
97	0x3ec6bfdd	0.38818255
98	0x3fdb37ae	1.7126367
99	0xbf8274e9	-1.0191928
100	0x3fbe3398	1.4859495
101	0x3fdfd301	1.7486268
102	0x3ff86b28	1.9407701
103	0xbfb06824	-1.3781781
104	0x3fce8099	1.6132995
105	0x3f92f594	1.1481194
106	0xbeb65c39	-0.35617235
107	0x3e6bc662	0.23024896
108	0xbfd3ae87	-1.6537637
109	0xc00a27c9	-2.1586783
110	0xbe98f29a	-0.2987259
111	0xbea2966a	-0.31755382
112	0xbfe688ab	-1.8010458
113	0x3e8c933d	0.27456084
114	0xbe6dbb78	-0.23216045
115	0x3e90914e	0.2823586
116	0xbfc4140d	-1.5318619
117	0xbe924d10	-0.2857442
118	0xbfb2d2c3	-1.3970569
119	0x3e835f04	0.2565843
120	0x3e8f1ae1	0.27950194
121	0xbe9faa8f	-0.31184813
122	0xbeacfdb3	-0.33787307
123	0x3e849e84	0.25902188
124	0xbe8b16c4	-0.27165806
125	0xbe908bf1	-0.28231767
126	0xbe88fe07	-0.26756307
127	0x3e9ae6f8	0.3025434
128	0x3e9d0a16	0.30671757
129	0xbfeb2326	-1.8370101
130	0x3e78c129	0.24292435
131	0x3e973dba	0.2953928
132	0xbfa37988	-1.2771463
133	0xbe64a5ce	-0.22328874
134	0xbe93c63a	-0.28862172
135	0xbe6856b6	-0.22689328
136	0x3f01e241	0.5073586
137	0xbe983766	-0.29729766
138	0xbe8daebf	-0.27672383
139	0xbe63c824	-0.22244316
140	0xbf5e7116	-0.86891305
141	0x3e75b829	0.23996033
142	0xbe85f005	-0.26159683
143	0x3ea5d809	0.32391384
144	0xbe9111ee	-0.28333992
145	0x3f97d13d	1.186073
146	0x3e5324ed	0.20619555
147	0xbeb16220	-0.34645176
148	0xbe85ab4f	-0.2610726
149	0xbf4d5a25	-0.80215675
150	0xbe696461	-0.22792198
151	0xbf3ab65f	-0.72934526
152	0x3e90e7d2	0.28301865
153	0xbe820675	-0.2539555
154	0xbea860f9	-0.32886484
155	0xbe8beba5	-0.2732822
156	0xbe4729c4	-0.19449526
157	0x3ff20c47	1.8909997
158	0x3faeedb5	1.3666292
159	0xbe66b4ba	-0.22529879
160	0xbe80ad24	-0.25132096
161	0x3fb07522	1.3785746
162	0x3e9930b0	0.29919958
163	0x3f8d24fa	1.1026909
164	0xbf694575	-0.9112161
165	0xbe84025a	-0.25783044
166	0xbf694cbb	-0.91132706
167	0x3fd1b67d	1.6383816
168	0x3ea5b4da	0.3236454
169	0x3f8d9a48	1.1062708
170	0xbe705c24	-0.23472649
171	0x3e8da8a5	0.27667728
172	0xbe9f440a	-0.31106597
173	0xbe6ca3d1	-0.23109366
174	0x3fd443ab	1.6583151
175	0x3fb08980	1.3791962
176	0x3e87cbb5	0.26522604
177	0xbe82b636	-0.2552964
178	0xbeaa4fdb	-0.3326405
179	0x3e79f755	0.24410756
180	0x3e87154f	0.26383445
181	0x3ea16377	0.31521198
182	0x3fa69ea0	1.3017159
183	0xbe933674	-0.28752482
184	0xbe8f6455	-0.28006235
185	0x3fde80c0	1.7383041
186	0x3e8a5825	0.27020374
187	0xbfbc90a0	-1.4731636
188	0xbe7111e7	-0.23541985
189	0xbe7403c3	-0.2382956
190	0x3e8ec674	0.27885783
191	0xbe852352	-0.2600351
192	0xbe954a89	-0.29158428
193	0x3e85bdb5	0.26121297
194	0xbfec3746	-1.8454368
195	0x3e82687a	0.25470334
196	0x3f2eb2a9	0.68241364
197	0xbfb8779b	-1.4411501
198	0x3e9325cb	0.2873977
199	0x3ea56788	0.3230555
200	0xbfac8999	-1.3479491
201	0x4001d97a	2.0288987
202	0x3e9508cb	0.2910827
203	0xbe8d4ad4	-0.27596152
204	0xbe5f4667	-0.218042
205	0xbf66d755	-0.9017232
206	0xbf5c26ed	-0.85996896
207	0x3faa7e70	1.3319836
208	0x3fd2e41c	1.6475863
209	0x3e82b255	0.25526682
210	0xbff299c0	-1.8953171
211	0x3f9d4f87	1.2289895
212	0x3e58e3af	0.21180604
213	0x3e64a6f8	0.22329319
214	0xbe846bc5	-0.25863472
215	0x3e66e05d	0.22546525
216	0x3f96676c	1.1750312
217	0xbfc41315	-1.5318323
218	0xbe983f86	-0.29735965
219	0xbf9e20c5	-1.235375
220	0xbe8b86a5	-0.27251163
221	0x3e8472d8	0.2586887
222	0x3e9ad478	0.30240226
223	0xbfafc1e8	-1.373105
224	0xbe8d7746	-0.2763006
225	0x3f88660c	1.0656142
226	0x3e9c446e	0.30520958
227	0xbe9b0440	-0.3027668
228	0xbe92ee96	-0.28697652
229	0xbe9ab3b0	-0.30215216
230	0xbf81ab9c	-1.0130496
231	0xbffeec91	-1.9915944
232	0x3e6247f1	0.22097756
233	0x403c2ace	2.9401126
234	0xbfc2b701	-1.5212098
235	0x3fd56c4e	1.6673677
236	0x3fef1d2f	1.8680781
237	0xbf000cee	-0.5001973
238	0xbfca79e7	-1.5818452
239	0xbfa7cef4	-1.3110032
240	0x3e9751d7	0.29554626
241	0xbe84713d	-0.25867644
242	0xbe8fa6a6	-0.2805683
243	0x3e941826	0.28924674
244	0xbfd9228b	-1.6963667
245	0xbe8cd8b8	-0.27509093
246	0xbe86dfdc	-0.26342666
247	0x3f86e044	1.053719
248	0xbe7e8ed4	-0.24859172
249	0xbe58d07f	-0.21173285
250	0xbf88470b	-1.064668
251	0xbfcd88e6	-1.6057403
252	0x3fc6baab	1.5525717
253	0x3e98d1cf	0.2984757
254	0xbe7ee108	-0.2489053
255	0x4000ed14	2.01447
