DDPG/data/exp/Swimmer-v3/2022-06-30-08-48-22_critic.pt (torch, 22807 bytes, 5 tensors)

weight f4 [64, 10]
-0.14481804 -0.4083861 -0.23060906 -0.18049641 0.032682627 0.09694234 -0.1436057 0.040397927
-0.15436232 0.053859614 0.13205081 -0.11276402 1.1116073 0.18658634 0.4667583 0.021663995
-0.3886977 0.17449716 -0.1326971 0.1718855 -0.2718926 -0.3600301 0.15467782 -0.13359953
0.16182046 0.18119743 0.44457117 -0.025217917 -0.09363056 0.09420299 -0.14056139 -0.16059202
-0.4527506 0.050210375 0.005185236 -0.22361846 -0.4418375 0.038025483 -0.07984564 0.015510018
0.21467835 0.38040367 0.22088876 0.10222744 0.086987786 0.26310813 -0.11534331 0.15993108
-0.12590452 0.05604386 -0.2599583 0.03455411 -0.03814726 0.27448338 0.011972526 -0.18494165
-0.22100918 -0.30118847 0.84146506 -0.30573067 -0.3043602 0.28907856 -0.26332778 -0.0034157522
-0.043709952 -0.124789 0.03923147 -0.023051076 -0.074675016 0.017995905 -0.010356002 0.073300555
0.0048075384 0.027517581 0.13559665 -0.115293026 -0.22943926 -0.04168922 0.1985016 -0.17073607
0.18917063 0.16162217 0.6803247 -0.07608343 0.016275825 0.10730964 0.12001643 -0.11953243
-0.016892763 0.0025633862 -0.40591657 -0.96861684 0.0043102857 -0.0364421 -0.14965394 -0.18941452
-0.009758803 -0.03791073 -0.09616167 -0.09451544 0.097206295 0.29388082 0.2834506 0.1379777
0.2743114 0.053591866 0.09823398 -0.13326742 0.18701231 0.08794979 -0.1742406 -0.004627699
-0.7549701 0.039626226 -0.06476233 0.058186278 0.35645577 -0.31591815 -0.075223826 -0.093782924
-1.039801 0.8623489 0.6952692 0.20787404 -0.069610894 -0.14876834 -0.3312142 -0.033550028
-0.07995113 -0.24629717 0.50689816 -0.14370875 -0.13077652 0.2533348 0.12110927 -0.10698136
-0.17945376 -0.07233693 -0.0906129 -0.023330828 0.43097925 -0.065671034 0.054401733 -0.22507924
0.0842288 0.27399436 -0.023404855 -0.043537218 -0.1763864 0.014358846 0.32128868 0.3457009
-0.66514844 -0.12532887 0.12296774 0.13658136 -0.19946697 -0.067672625 -0.21584712 0.034916304
-0.5713873 -0.6049615 0.10044185 -0.07529291 -0.14164713 0.050881553 0.06190762 0.23635644
0.10365824 -0.17082238 0.4567954 -0.07006219 0.6922777 0.08170788 0.04413581 -0.057913657
-0.13279535 0.14921227 0.18021293 0.21843964 0.4896531 0.23887502 0.16094464 0.14952318
0.021073293 -0.01838707 0.021727897 -0.23840822 0.10086355 -0.4314355 0.10999638 0.11822469
-0.32545048 0.18917364 0.043868907 0.12389538 0.37254837 0.05556494 0.065422714 0.11836234
-0.11130895 0.33072105 0.30215988 -0.020969637 -0.24132052 0.17895845 0.40076 0.26455304
0.10239444 -0.030693164 -0.2884632 -0.5351761 0.022300314 0.12996958 -0.21067023 -0.07499947
-0.17591088 0.096558794 0.056091048 -0.065354235 -0.32977507 0.316975 0.2957973 -0.0058845216
-0.08869484 -0.29949623 -0.052838117 0.1431461 -0.09444032 0.075549446 0.47738138 -0.23880099
0.20778134 -0.004239671 0.08941714 0.110852 -0.020069707 0.11646191 -0.082692444 0.003457518
-0.5351046 0.16774252 0.47264725 -0.18016477 0.41503912 0.005627009 0.13942957 -0.11549414
0.11602448 0.058507405 0.10613207 -0.05472271 0.114813045 -0.066254325 -0.42546517 -0.0061741476
00000000: 2e4b 14be fc17 d1be c824 6cbe 0dd4 38be
00000010: 38de 053d b589 c63d 5f0d 13be 4c78 253d
00000020: 2811 1ebe e69b 5c3d 5438 073e d3f0 e6bd
00000030: 2649 8e3f 7d10 3f3e f2fa ee3e b178 b13c
00000040: 6303 c7be 62af 323e c0e1 07be c102 303e
00000050: 8235 8bbe de55 b8be dd63 1e3e 51ce 08be
00000060: 43b4 253e d28b 393e d59e e33e ce95 cebc
00000070: 61c1 bfbd 7fed c03d 53ef 0fbe 3c72 24be
00000080: edce e7be 65a9 4d3d eae8 a93b 3dfc 64be
00000090: 8638 e2be 9cc0 1b3d 1c86 a3bd bb1d 7e3c
000000a0: a4d4 5b3e 45c4 c23e aa30 623e 9f5c d13d
000000b0: a726 b23d 1cb6 863e 1d39 ecbd f9c4 233e
000000c0: 1ded 00be 3f8e 653d 4119 85be 9c88 0d3d
000000d0: 4d40 1cbd 1689 8c3e 6a28 443c 5861 3dbe
000000e0: 3b50 62be 6035 9abe 416a 573f bb88 9cbe
000000f0: 1ad5 9bbe 1b02 943e e6d2 86be d0da 5fbb
00000100: 3509 33bd 6091 ffbd 2eb1 203d 9cd5 bcbc
00000110: 37ef 98bd 266c 933c 38ac 29bc 9a1e 963d
00000120: 8e88 9d3b 8d6c e13c d9d9 0a3e c01e ecbd
00000130: 20f2 6abe 51c2 2abd 0144 4b3e 70d5 2ebe
00000140: f2b5 413e 4880 253e c229 2e3f a1d1 9bbd
00000150: e154 853c 28c5 db3d 2dcb f53d 6bcd f4bd
00000160: b162 8abc 7cfe 273b 4cd4 cfbe 46f7 77bf
00000170: 4c3d 8d3b 5044 15bd e23e 19be e1f5 41be
00000180: 63e3 1fbc 4848 1bbd 69f0 c4bd 5091 c1bd
00000190: 1814 c73d 8c77 963e 7020 913e 074a 0d3e
000001a0: 8b72 8c3e 2583 5b3d e62e c93d 4177 08be
000001b0: 2880 3f3e 051f b43d 216c 32be f4a3 97bb
000001c0: b845 41bf 1c4f 223d 1da2 84bd bc54 6e3d
000001d0: 5f81 b63e 06c0 a1be f30e 9abd 4311 c0bd
000001e0: 3318 85bf e6c2 5c3f 2afd 313f efdc 543e
000001f0: 2890 8ebd ba56 18be e894 a9be c16b 09bd
00000200: 6bbd a3bd 5335 7cbe 14c4 013f 6328 13be
00000210: 48ea 05be 19b5 813e 2308 f83d 0b19 dbbd
00000220: bac2 37be 6225 94bd 4293 b9bd 4b20 bfbc
00000230: 50a9 dc3e 897e 86bd 5ad4 5e3d 2c7b 66be
00000240: 2680 ac3d fd48 8c3e 8abb bfbc 1554 32bd
00000250: a39e 34be 5d41 6b3c f37f a43e b5ff b03e
00000260: 2b47 2abf 3656 00be 83d6 fb3d fcdb 0b3e
00000270: 1241 4cbe f297 8abd 0707 5dbe 6604 0f3d
00000280: 7046 12bf c2de 1abf 75b4 cd3d 2b33 9abd
00000290: f20b 11be 2d69 503d d892 7d3d 6c07 723e
000002a0: c54a d43d 10ec 2ebe 16e1 e93e c47c 8fbd
000002b0: 1d39 313f 7656 a73d c0c7 343d df36 6dbd
000002c0: 81fb 07be 1acb 183e bd89 383e a4ae 5f3e
000002d0: d0b3 fa3e a79b 743e acce 243e 9b1c 193e
000002e0: e6a1 ac3c 7ba0 96bc b4fe b13c 4921 74be
000002f0: 8d91 ce3d 1de5 dcbe c845 e13d c91f f23d
00000300: 72a1 a6be bcb6 413e e2af 333d dcbc fd3d
00000310: a9be be3e 1098 633d 58fc 853d f467 f23d
00000320: f2f5 e3bd 4554 a93e b3b4 9a3e 84c8 abbc
00000330: ba1c 77be e240 373e 6a30 cd3e 7f73 873e
00000340: 2db4 d13d 3b70 fbbc 73b1 93be 4d01 09bf
00000350: 26af b63c bf16 053e f0b9 57be 5299 99bd
00000360: fb21 34be 9ec0 c53d babf 653d 71d8 85bd
00000370: 47d8 a8be 8c4a a23e be72 973e f2d2 c0bb
00000380: a4a5 b5bd 9257 99be c86c 58bd e494 123e
00000390: ed69 c1bd abb9 9a3d 556b f43e 3f88 74be
000003a0: a2c4 543e f0ec 8abb 5520 b73d 6006 e33d
000003b0: 3a69 a4bc 9583 ee3d a85a a9bd 8797 623b
000003c0: 9dfc 08bf b2c4 2b3e d2fe f13e 1d7d 38be
000003d0: 0280 d43e c662 b83b a0c6 0e3e 3188 ecbd
000003e0: 3e9e ed3d 76a5 6f3d c55b d93d ec24 60bd
000003f0: 1a23 eb3d 59b0 87bd 92d6 d9be 8150 cabb

bias f4 [64]
-0.10353376 0.21453147 -0.68052286 -0.5010377 0.6381111 0.06323636 -0.67336035 -0.5775389
-0.39133888 -0.21316172 0.2595096 0.31596848 -0.3118415 -0.3710952 0.6012784 -0.25607476
0.032099932 -0.2766735 -0.34346536 0.10713443 0.043979354 -0.29703587 -0.6798332 0.838655
0.31094557 0.40588006 -0.21395522 -0.33165315 -0.3858186 0.14947835 -0.00027248435 0.005080504
-0.35447377 0.87914497 -0.3985627 -0.0422188 -0.14177756 0.13496761 0.27017584 0.39759034
-0.3287431 0.5198554 -0.5159147 -0.5499588 0.5703505 -0.3714684 0.083895095 0.101869814
0.46654925 0.4869443 -0.056322604 0.93229985 -0.79475224 0.06604188 0.29791793 0.48131105
0.5050051 0.5113346 -0.37526345 -0.31799972 -0.5970722 0.5428032 0.70866394 -0.4093207
00000000: 8209 d4bd 23ae 5b3e bf36 2ebf 0244 00bf
00000010: 405b 233f 1182 813d 5861 2cbf 97d9 13bf
00000020: 925d c8be 1147 5abe 71de 843e 9fc6 a13e
00000030: b0a9 9fbe 3100 bebe 62ed 193f 3b1c 83be
00000040: 387b 033d 26a8 8dbe b1da afbe 4c69 db3d
00000050: b223 343d 1615 98be 8c09 2ebf 18b2 563f
00000060: 4234 9f3e 83cf cf3e 1417 5bbe 71ce a9be
00000070: 048a c5be da10 193e 3bdc 8eb9 5b7a a63b
00000080: 967d b5be a50f 613f 6910 ccbe 9fed 2cbd
00000090: 232e 11be f334 0a3e 7d54 8a3e f690 cb3e
000000a0: 0451 a8be 3e15 053f fc12 04bf 1aca 0cbf
000000b0: 7e02 123f 1b31 bebe 31d1 ab3d 1fa1 d03d
000000c0: 8bdf ee3e c350 f93e 88b2 66bd 34ab 6e3f
000000d0: e274 4bbf f740 873d b388 983e 676e f63e
000000e0: 0448 013f d3e6 023f 8822 c0be dcd0 a2be
000000f0: b9d9 18bf 27f5 0a3f 006b 353f 7c92 d1be

weight f4 [64, 64]
-0.29136908 0.053090367 -0.32569712 -0.4653516 0.21308579 -0.12445043 -0.0074629365 -0.15525854
-0.11435034 0.30060127 0.030635688 -0.08087854 -0.04004385 -0.06885605 0.2497551 0.08715979
0.18809466 -0.18466972 -0.18742263 0.38068014 -0.108523324 -0.32765976 -0.28304937 0.059491716
0.27553642 0.015316128 -0.35968307 0.07681416 -0.154186 -0.111753404 0.47112852 0.016184658
0.033368964 0.34745246 -0.14083402 -0.44049135 -0.25965092 -0.43011746 0.127182 -0.0047932896
-0.12319427 0.13129026 0.028265879 0.036793478 0.004020957 -0.52135915 0.042559035 0.0036632712
-0.10170607 0.2975696 -0.20450056 0.069889106 -0.31247264 -0.23231736 0.23254 0.048721734
0.41779247 0.16122228 -0.19875911 0.28970993 -0.3764132 -0.0010036685 0.031213427 0.100629404
-0.22182477 0.38553843 -0.33540776 -0.1622262 0.016173866 0.16025938 -0.13309285 0.08220518
0.13113911 -1.0546981 0.10236693 0.034008212 -0.06896106 -0.07772218 0.010695048 -0.12532087
-0.23897891 0.35670277 0.19834849 0.0007534385 0.44827145 -0.49551806 0.096994966 0.088963814
-0.13741481 0.17551383 -0.4302514 -0.14980099 0.09473305 0.095906235 0.5524971 0.57741296
-0.115648806 0.08471852 0.13208087 0.09337008 0.030212875 -0.047165576 -0.07610378 0.07418772
0.08961285 -0.1822542 -0.026990067 -0.22856554 -0.16912554 -0.54850394 -0.15947105 0.030271152
-0.27895945 0.009283199 -0.13584927 0.2519758 -0.11630993 0.031439252 -0.103216074 -0.22913997
-0.08518324 0.12690613 0.035630893 -0.5596542 -0.52597064 0.029616993 -0.23248537 0.06997395
0.40816587 -0.21969488 -0.15461507 0.3203308 0.1436498 -0.3284979 0.24769348 -0.015720807
-0.26395148 -0.53681463 -0.62292415 -0.07315072 -0.21787642 0.19900139 -0.017703513 0.15366377
-0.3111662 0.4210444 0.2927721 -0.0513825 0.13905275 0.037698023 0.1496662 -0.14802805
-0.12586161 0.03071275 0.34487945 0.13271117 -0.18557471 -0.0824759 -0.08303767 0.42028973
-0.086852364 -0.12420408 0.14959031 0.17844507 0.28251028 0.1598393 -0.1189645 0.17840262
0.20743836 -0.141408 -0.08190779 -0.017163135 -0.07507281 0.30454487 0.23734424 0.022352947
0.25220296 -0.35063294 -0.017659808 0.06637817 0.19278233 0.35972634 -0.11535251 -0.13998947
0.11059728 -0.043334696 -0.28419703 -0.22820055 0.15725006 -0.056898136 0.051825043 -0.05621182
-0.19250998 0.052473146 -0.41541055 -0.114928745 0.07328269 0.0249328 -0.1231482 0.037500188
0.12879515 -0.36865684 0.1479096 0.097278096 -0.048918236 0.0060157385 -0.10778581 0.11289061
-0.12384218 -0.056277707 -0.10726042 0.36872613 0.13855688 -0.5127209 -0.13637738 0.03943366
-0.08222054 -0.13700274 -0.47412953 -0.14953269 0.13400708 0.090988316 0.3635573 0.043527376
-0.0003411143 0.17041217 -0.14218116 0.024552071 -0.09608703 -0.37038136 -0.016660364 0.05714718
-0.007709124 0.017024698 0.09015885 -0.2364275 -0.08533773 -0.43948877 -0.2855535 -0.01731685
0.26258093 0.19385879 0.038949918 0.4658861 -0.006948777 -0.25083372 -0.1819768 0.08809708
0.23735721 0.043254737 0.22901513 -0.35646483 -0.53963387 -0.20215638 0.12629193 -0.078486115
00000000: 542e 95be 4975 593d c6c1 a6be 9142 eebe
00000010: 2933 5a3e dedf febd a68b f4bb 18fc 1ebe
00000020: 8330 eabd 69e8 993e b2f7 fa3c a6a3 a5bd
00000030: 0505 24bd 6704 8dbd cdbf 7f3e d580 b23d
00000040: e39b 403e 0f1a 3dbe b8eb 3fbe 82e8 c23e
00000050: 7a41 debd 05c3 a7be d9eb 90be 96ad 733d
00000060: 1c13 8d3e 7ff0 7a3c 6128 b8be be50 9d3d
00000070: efe2 1dbe f8de e4bd c237 f13e b095 843c
00000080: e5ad 083d 4ae5 b13e cb36 10be 1588 e1be
00000090: f7f0 84be 5b38 dcbe 003c 023e 0711 9dbb
000000a0: 474d fcbd f470 063e d88d e73c c2b4 163d
000000b0: 3bc2 833b cb77 05bf 6252 2e3d 7e13 703b
000000c0: 464b d0bd 0b5b 983e 9868 51be 0522 8f3d
000000d0: 6afc 9fbe 9ae4 6dbe f71e 6e3e 7190 473d
000000e0: e5e8 d53e 7417 253e 8287 4bbe dc54 943e
000000f0: 3bb9 c0be 878d 83ba 4db3 ff3c ca16 ce3d
00000100: 0826 63be 4b65 c53e 91ba abbe a01e 26be
00000110: 0e7f 843c 091b 243e 7e49 08be 305b a83d
00000120: 5549 063e 5900 87bf c1a5 d13d 324c 0b3d
00000130: 753b 8dbd ce2c 9fbd 483a 2f3c 1d54 00be
00000140: e3b6 74be bfa1 b63e de1b 4b3e 6782 453a
00000150: d683 e53e 8bb4 fdbe 4ca5 c63d a932 b63d
00000160: 78b6 0cbe e6b9 333e e949 dcbe 6e65 19be
00000170: 6703 c23d 7d6a c43d 7370 0d3f 56d1 133f
00000180: 48d9 ecbd e780 ad3d 3540 073e d038 bf3d
00000190: fe80 f73c b130 41bd 4cdc 9bbd bbef 973d
000001a0: f186 b73d d8a0 3abe 461a ddbc 160d 6abe
000001b0: 3f2f 2dbe c16a 0cbf 614c 23be 35fb f73c
000001c0: c6d3 8ebe 8f18 183c 121c 0bbe f902 813e
000001d0: e733 eebd 72c6 003d f362 d3bd aba3 6abe
000001e0: 8d74 aebd aef3 013e b3f1 113d 7f45 0fbf
000001f0: 03a6 06bf 569f f23c a510 6ebe 814e 8f3d
00000200: 1efb d03e b2f7 60be 6a53 1ebe 6602 a43e
00000210: ef18 133e e030 a8be 5ca3 7d3e ecc8 80bc
00000220: a624 87be af6c 09bf f577 1fbf 0bd0 95bd
00000230: ff1a 5fbe 05c7 4b3e f506 91bc 095a 1d3e
00000240: 2d51 9fbe 2293 d73e 3ae6 953e 7576 52bd
00000250: d863 0e3e 3e69 1a3d 1942 193e aa94 17be
00000260: dee1 00be 4e99 fb3c 0a94 b03e 70e5 073e
00000270: 4c07 3ebe 20e9 a8bd a70f aabd 3730 d73e
00000280: a7df b1bd b55e febd 342e 193e 4eba 363e
00000290: 30a5 903e eaac 233e a9a3 f3bd 2daf 363e
000002a0: b96a 543e 42cd 10be 45bf a7bd b499 8cbc
000002b0: c6bf 99bd 4eed 9b3e 5e0a 733e 871d b73c
000002c0: bf20 813e 2986 b3be 4dab 90bc 47f1 873d
000002d0: bb68 453e 0d2e b83e f03d ecbd 6659 0fbe
000002e0: d480 e23d b97f 31bd 4682 91be 68ad 69be
000002f0: 2906 213e 050e 69bd 7f46 543d 5e3e 66bd
00000300: 5621 45be 15ee 563d b1b0 d4be c35f ebbd
00000310: 3c15 963d df3f cc3c 2035 fcbd cc99 193d
00000320: e0e2 033e 97c0 bcbe 9d75 173e bd39 c73d
00000330: 7d5e 48bd ac1f c53b cfbe dcbd 3133 e73d
00000340: f8a0 fdbd 7483 66bd 5aab dbbd acc9 bc3e
00000350: dbe1 0d3e ad41 03bf 83a6 0bbe 3185 213d
00000360: 3e63 a8bd 724a 0cbe 1bc1 f2be 191f 19be
00000370: 2739 093e 1558 ba3d 2f24 ba3e c349 323d
00000380: 96d7 b2b9 8780 2e3e f097 11be 6d21 c93c
00000390: 47c9 c4bd a0a2 bdbe 517b 88bc 2913 6a3d
000003a0: d29c fcbb 6177 8b3c 34a5 b83d 0d1a 72be
000003b0: 8cc5 aebd ac04 e1be 1134 92be 11dc 8dbc
000003c0: 0271 863e eb82 463e f389 1f3d 9f88 ee3e
000003d0: 91b2 e3bb 476d 80be 2058 3abe 3e6c b43d
000003e0: c50d 733e e12b 313d f182 6a3e 8f82 b6be
000003f0: 7225 0abf 1502 4fbe ac52 013e 54bd a0bd

bias f4 [64]
0.29934308 0.004936162 -0.20529512 0.2247781 -0.13987282 0.043237444 0.0006444059 -0.05984084
-0.19097956 -0.07980525 -0.35741162 0.27037057 0.13892797 0.23735607 0.1841644 -0.15072727
0.07109022 0.030677216 -0.056366336 -0.26619783 0.22370079 0.39366803 -0.10503213 -0.30434692
-0.16102591 0.06966006 0.14961968 -0.07229116 0.032352548 0.10050204 0.18162158 -0.45523682
0.22097719 0.2494203 -0.13106921 0.1240434 -0.28537688 -0.02178724 0.1232512 0.8388196
0.27873415 -0.14187793 0.06526836 -0.2541281 -0.25819927 -0.14527959 -0.08462995 0.20502782
0.18540826 0.0025606344 0.32815093 0.26012307 -0.24431284 0.2137054 -0.28768635 0.076012745
0.14349928 -0.26060924 -0.08883842 0.14711651 0.26986814 0.118328094 -0.32692012 -0.23592958
00000000: 7f43 993e 87bf a13b e238 52be 3b2c 663e
00000010: d23a 0fbe bf19 313d 59ed 283a ab1b 75bd
00000020: 2590 43be ef70 a3bd a8fe b6be 036e 8a3e
00000030: 2243 0e3e 780d 733e 9895 3c3e 4058 1abe
00000040: c097 913d c94e fb3c 63e0 66bd 154b 88be
00000050: d211 653e db8e c93e 161b d7bd 5cd3 9bbe
00000060: fae3 24be efa9 8e3d e735 193e 630d 94bd
00000070: 1b84 043d 03d4 cd3d 02fb 393e cd14 e9be
00000080: d847 623e 0968 7f3e 0237 06be 770a fe3d
00000090: eb1c 92be 277b b2bc 206b fc3d e2bc 563f
000000a0: 3eb6 8e3e 7348 11be 6bab 853d 141d 82be
000000b0: b232 84be 2cc4 14be 7852 adbd d0f2 513e
000000c0: aadb 3d3e 51d0 273b 6603 a83e da2e 853e
000000d0: 252d 7abe 97d5 5a3e a04b 93be 92ac 9b3d
000000e0: 7af1 123e 936e 85be ebf0 b5bd b6a5 163e
000000f0: 282c 8a3e 0056 f23d 1362 a7be 8697 71be

weight f4 [1, 64]
0.28480914 -0.49494085 -0.2548562 -0.8551875 0.77152497 0.20241664 0.695665 0.72036475
-0.2576654 0.78163517 -0.45282826 1.5813639 0.35055152 -1.0308714 0.14983557 0.7410679
-0.21590544 -0.9680164 0.72806346 -0.35277367 0.8924239 0.7426634 -0.5672379 -0.33079493
0.72015685 0.26809868 0.71738666 -0.69259393 0.66381437 0.54754114 0.27319336 -0.503138
0.89334095 0.79387754 -0.28875685 0.16313405 -0.29047745 -0.80499995 0.7917858 0.57803833
0.1953909 -0.307828 0.6879554 -0.1712873 -0.19075383 -0.32792515 0.52504206 0.30873153
0.41243848 0.35710424 0.35999078 0.29114756 -0.43253517 0.20628643 -0.13511018 0.35422763
0.7621965 -0.27555013 -0.43377015 0.1758274 -0.16320105 0.27819365 -0.33796632 -0.24433902
00000000: 81d2 913e e368 fdbe 837c 82be 91ed 5abf
00000010: a982 453f 4f46 4f3e 1a17 323f d369 383f
00000020: b8ec 83be 3e19 483f 1bd9 e7be 226a ca3f
00000030: 7d7b b33e 98f3 83bf 7f6e 193e a0b6 3d3f
00000040: 5116 5dbe eccf 77bf 5e62 3a3f c09e b4be
00000050: e575 643f 301f 3e3f 8136 11bf f45d a9be
00000060: 335c 383f 3b44 893e a7a6 373f d64d 31bf
00000070: bdef 293f a82b 0c3f 00e0 8b3e a7cd 00bf
00000080: feb1 643f 8f3b 4b3f f0d7 93be 9d0c 273e
00000090: 76b9 94be 7a14 4ebf 79b2 4a3f 52fa 133f
000000a0: 8d14 483e a29b 9dbe d81d 303f f065 2fbe
000000b0: f954 43be cee5 a7be 2869 063f 0f12 9e3e
000000c0: 232b d33e 5ed6 b63e b650 b83e 4b11 953e
000000d0: 4075 ddbe c03c 533e 535a 0abe 535d b53e
000000e0: 4f1f 433f e814 8dbe 1f17 debe 190c 343e
000000f0: 2d1e 27be 666f 8e3e ec09 adbe 0234 7abe
