DDPG/data/exp/Swimmer-v3/2022-06-22-09-01-24_actor.pt (torch, 22743 bytes, 6 tensors)

weight f4 [64, 8]
000000 a9 f0 74 3e 39 bc 71 3e 63 3a d7 be 07 1d 00 40
       0.2391993 0.23606957 -0.42036733 2.0017717
000010 d2 dd 3a bf 12 66 81 3f ba 3b 4a bd b4 73 14 bf
       -0.7299472 1.0109274 -0.049373366 -0.5798905
000020 3c f5 af 3d 13 65 04 3f 96 7e 95 3d b4 9a 18 3e
       0.085916966 0.51716727 0.07299535 0.14902765
000030 a7 7a 22 bf 0f 13 77 3f eb ac 9d 3e 6f 2e 00 be
       -0.634684 0.96513456 0.30795988 -0.12517713
000040 80 3b 2c 3f 4e 97 2a be 11 fd de be a1 59 e5 3e
       0.6727829 -0.1665928 -0.4355245 0.44794944
000050 f4 06 1a bf ad bf d9 be 86 58 39 bc 33 f3 d3 3e
       -0.6016686 -0.4252905 -0.01131261 0.41396484
000060 e0 6e 47 3e de cb 1a 3f f8 19 3d 3e 10 6e b4 3e
       0.19475889 0.60467327 0.18466938 0.3524022
000070 29 20 17 3f c9 87 58 bd ab db a8 be 4b 1e 60 be
       0.5903345 -0.05286387 -0.32980093 -0.21886556
000080 ee b7 bd be 38 bf ac be 74 28 ef be 8c 31 34 3f
       -0.3705439 -0.33739638 -0.4671055 0.703881
000090 d1 8a 6a 3e dc 66 14 be 35 2c b9 3c 66 76 89 3e
       0.22904517 -0.14492363 0.022604087 0.26848143
0000a0 ec 93 88 be ff 9a 96 3e 37 76 fd 3c 82 b9 0b 3e
       -0.26675355 0.29415128 0.030940158 0.13644984
0000b0 90 43 f2 be 5e 36 21 be 57 92 4a bf 08 35 62 3e
       -0.4731717 -0.15743396 -0.79129547 0.22090542
0000c0 7f cf 3a bf ff 8d 03 bf b8 c8 33 bf e0 6f d0 3d
       -0.72972864 -0.51388544 -0.7022815 0.101775885
0000d0 b5 d8 0c 3f 96 4c 32 bc d5 08 4f 3e b8 cb 1d be
       0.5501817 -0.010882517 0.20218213 -0.15409744
0000e0 d0 d7 9e 3d bb 58 26 3f ef 19 2d 3f f9 d2 c2 3e
       0.07756007 0.6497914 0.67617697 0.38051584
0000f0 bd bf aa bf a9 95 38 be 76 e5 e7 bd 3e 75 d0 3d
       -1.3339764 -0.18025841 -0.11323063 0.10178612
000100 3c cb 9c bf 93 e8 f2 3e 44 5f 4c 3f 8c de 66 bf
       -1.2249522 0.47443065 0.79832864 -0.9018333
000110 64 e8 7a bf 8e ab 5b 3f 4c 7b a0 bf 73 ec 06 bf
       -0.9801085 0.85808647 -1.2537627 -0.5270454
000120 e7 8d 8b bd 84 a7 49 bf d1 a1 02 be 22 cd ea bd
       -0.06814175 -0.78771234 -0.1275704 -0.11464907
000130 96 39 fc be 19 4f d0 3f 02 26 81 bf 78 67 bd be
       -0.49262685 1.6274139 -1.0089724 -0.36993003
000140 15 31 ca be 27 19 fd be 1e 90 8e 3d e2 de c0 be
       -0.39490572 -0.49433252 0.06961082 -0.37670046
000150 59 42 8a bf b6 1b 02 3e 4b fe 19 bf 22 72 ee bc
       -1.0801498 0.12705883 -0.60153645 -0.029107157
000160 7a 8a df 3e 7d d4 5d 3e 20 3a 32 3f 32 4e 2f 3f
       0.43660337 0.21663089 0.6961994 0.6847869
000170 d8 ad 61 be 58 7a 2d 3f 3c 2d 4a 3e 9d c0 04 3f
       -0.22038972 0.67764807 0.19743818 0.51856405
000180 6f 56 4d be aa a5 bb be 4e 0d bd 3e 1f ac e9 bf
       -0.20052503 -0.3664983 0.36924213 -1.8255652
000190 99 60 2d bf 1f c2 cc 3e c4 cc 7a bf 9d a9 0b 3f
       -0.6772552 0.39991853 -0.979687 0.54555684
0001a0 0c ae 23 3f 6d e3 16 3f 85 04 22 3f c6 4f 60 3f
       0.6393745 0.58940774 0.63288146 0.87621725
0001b0 cb 43 2d bf a9 b8 ea be a4 f4 3c 3f 6f 1c 45 3f
       -0.6768157 -0.4584401 0.7381079 0.7699651
0001c0 b8 f7 8e 3e 8b 11 01 bf fc 40 02 bf 62 a2 2f 3f
       0.2792337 -0.50417393 -0.5088041 0.6860715
0001d0 67 7b 25 bf 6f 78 7f bf 98 2a 66 3f 31 09 e2 bd
       -0.6464142 -0.9979314 0.8990874 -0.11036909
0001e0 17 40 f2 be 4d 52 88 be c1 30 06 bf d1 97 7b 3f
       -0.47314522 -0.2662529 -0.5241814 0.9827853
0001f0 69 77 ff 3d 76 9c 09 3f ca 02 87 3e a8 a9 a4 bc
       0.124739476 0.53754365 0.26369315 -0.02010043
000200 ef f1 50 3d 81 3f 5e 3d 08 e9 2f bf d8 ee 0f be
       0.051011976 0.05425978 -0.6871495 -0.14055955
000210 25 5d 25 3f 78 54 91 3f 4f 85 6b bf 4d 0e f6 3e
       0.6459525 1.1353903 -0.9200029 0.48057786
000220 3a a8 48 3f e9 1b d5 be a9 08 70 bf b2 31 77 3e
       0.78381693 -0.41622856 -0.93763214 0.24140051
000230 2a 10 d3 3e b6 a7 fd be 38 c3 40 3f 6a 69 f3 3e
       0.4122327 -0.49542016 0.7529788 0.47541362
000240 02 6b e5 be 80 50 66 3f 88 4c ae be 7d c0 ac be
       -0.44808203 0.89966583 -0.34042764 -0.33740607
000250 20 c3 5c 3f 31 22 be be 18 5d 5c 3f 5d 92 eb bd
       0.8623524 -0.3713546 0.8607955 -0.11502526
000260 44 99 b6 3d d9 25 d0 be d6 f5 23 3f 34 99 44 be
       0.08915952 -0.40653875 0.6404699 -0.19199067
000270 88 cc 03 3e 22 d6 1f be ff b0 40 bf 94 75 c8 be
       0.12870991 -0.15609029 -0.75270075 -0.39152205
000280 28 fe 9b be 72 16 80 bf 26 96 18 3f 7b 5a 10 c0
       -0.30467343 -1.000685 0.5960411 -2.2555225
000290 9a 22 0b 3f f3 26 63 3e 2a a8 7f bf b3 e8 70 3e
       0.5434967 0.22182827 -0.99865973 0.23526268
0002a0 0a a9 9c 3e 3e 0c ab bc 77 59 62 3e cc df 98 be
       0.30597717 -0.020879861 0.2210444 -0.29858243
0002b0 08 12 88 3f c2 38 4c be d3 6a 6e 3d e9 fd f6 3e
       1.0630503 -0.19943526 0.058207344 0.48240593
0002c0 90 ae 08 bf a2 3c 77 be 91 c0 45 3f 7b 16 79 bd
       -0.5339136 -0.24144223 0.7724696 -0.060812455
0002d0 21 11 ac 3e 9d a8 57 3e 4e 83 64 3e 49 90 06 bf
       0.33606818 0.21060415 0.22315714 -0.5256391
0002e0 86 91 05 bf fd 9a 57 3f c1 21 f7 3d 6a 18 d8 bd
       -0.52175176 0.8422087 0.12066985 -0.105515316
0002f0 05 13 30 3e 26 b5 e9 bd 72 cd 2a 3e 8e 42 cd 3e
       0.17194755 -0.114115044 0.16679934 0.4008984
000300 49 1c e2 be 76 30 79 bf 31 71 ad be dc d8 84 3c
       -0.44162205 -0.9733957 -0.3387542 0.016216688
000310 cd 47 8f bf 27 4d 71 3e 18 64 6c bf 68 71 03 bf
       -1.1193787 0.23564588 -0.9234023 -0.5134492
000320 ac 7a 1a 3e 53 a7 71 be 85 d6 56 bd 50 e8 23 bf
       0.15085858 -0.23598985 -0.052450676 -0.64026356
000330 15 26 55 bf 5d cf ee 3e 69 cf a4 bf 98 95 7e 3e
       -0.83261234 0.4664258 -1.2875797 0.24861753
000340 83 13 08 3f 9f 2f 0b 3f 0b b1 40 bf 11 a6 42 bd
       0.5315477 0.5436954 -0.75270146 -0.047521655
000350 0c 55 53 be 5e 62 08 3f 30 35 d0 3e eb 0b 46 be
       -0.20637912 0.53275096 0.4066558 -0.19340484
000360 b6 40 0e 3f 82 09 d7 3e 9d 93 15 3f 47 df 99 3e
       0.5556749 0.4199944 0.58428365 0.3005316
000370 36 4a f3 bf db 48 8c 3f 6c 63 56 bd e9 ca 39 bd
       -1.9007022 1.0959734 -0.05234091 -0.045359526
000380 94 12 84 3e 31 c2 d4 bf 1c 72 da be af 12 04 bf
       0.25795424 -1.6621763 -0.42665184 -0.5159101
000390 e4 33 40 3c e1 cd fd 3e 06 2f 50 bf 80 18 d1 be
       0.011731122 0.49571136 -0.8132175 -0.40839005
0003a0 ab 6b b6 be 1d 22 0b bf 30 08 00 3f cb 37 84 be
       -0.3562902 -0.5434893 0.50012493 -0.25823817
0003b0 d0 ca f5 bd 9c ae 0e be 79 db da be 25 67 c4 3e
       -0.12001574 -0.13933796 -0.4274557 0.38359943
0003c0 23 42 56 3d 00 34 d0 be 94 1e 44 bf 05 0e 06 3e
       0.052309167 -0.40664673 -0.7660916 0.13091286
0003d0 2b 63 08 bf 76 d9 82 3c 06 ea c5 be 0c e0 ff be
       -0.5327632 0.015972834 -0.38655108 -0.49975622
0003e0 cd 4f 16 3e fe ea 89 bf d8 39 13 bf 1a 42 83 3e
       0.14678879 -1.0774839 -0.5751014 0.2563637
0003f0 06 90 d5 be bc 20 1a 3f 5e 5b 5d bf 5e da c5 bd
       -0.41711444 0.602062 -0.8646754 -0.09660791

bias f4 [64]
000000 67 74 09 3e c6 a4 9b 3c 96 96 5c be 1e 3c 0e 3f
       0.1342331 0.018999469 -0.21541819 0.5556048
000010 f8 52 cc be 66 37 6b 3f ff 60 1b bf c0 f4 34 3f
       -0.3990705 0.91881406 -0.6069488 0.7068596
000020 60 fa eb 3d 75 f3 af be 2a 8c 62 3d 07 ba d2 bd
       0.115223646 -0.3436543 0.055309452 -0.10289388
000030 58 3f f5 3e 8e be 8a 3e c6 25 41 bf 9e 5f 2b 3f
       0.4789989 0.27098507 -0.7544826 0.66942775
000040 57 55 1b bf d7 7a d4 bd 02 f0 bf bf db a7 56 bf
       -0.60677093 -0.10374992 -1.499512 -0.8384988
000050 f7 8b 67 be 3d a7 1e bf b8 9d 87 be 6e 41 a9 3c
       -0.22611986 -0.61973935 -0.26487517 0.020661082
000060 39 00 89 3e 8f ec 2c bf 8e 23 56 3f f1 cb 8d be
       0.26757982 -0.6754846 0.83648 -0.27694657
000070 57 97 a1 3e e2 ba 49 3f b5 74 15 bf 20 4c 70 3f
       0.31560776 0.78800786 -0.58381206 0.9386616
000080 d1 5a 83 3e 28 bb a9 3e 30 66 d9 bf 9c 0c 33 3f
       0.25655225 0.331506 -1.698431 0.69941115
000090 fd cc 31 bf 88 58 2a 3f 70 1c 47 3f 1d 76 3d 3f
       -0.6945341 0.6654134 0.7777777 0.7400835
0000a0 5f 3a 43 3f 58 38 e1 be 48 2b 39 bf 4b 8d 19 3f
       0.7626094 -0.439883 -0.72331667 0.5998122
0000b0 11 4e 37 3f eb 02 81 3f d3 a7 2c 3f f4 15 04 40
       0.71603495 1.0079015 0.6744358 2.06384
0000c0 b2 69 76 3f f3 d2 a0 3e 93 09 85 3f 43 77 68 3f
       0.9625503 0.3141094 1.0393547 0.9080698
0000d0 8e c6 88 3f 27 9e b2 be 43 51 8f 3e 87 47 f8 3e
       1.0685594 -0.34886286 0.27991685 0.4849207
0000e0 62 cd bf 3e f6 b9 4f be ca d3 37 3d f1 d8 ac 3f
       0.37461382 -0.20285782 0.044879712 1.3503705
0000f0 a4 d7 30 3d 5e a3 f9 bd d0 fb f2 3e 8a 60 91 3c
       0.0431744 -0.12189363 0.47457743 0.017746229

weight f4 [64, 64]
000000 d8 ef 94 be 64 6a 54 3f b7 0e 1e bf 00 2f 00 3f
       -0.29089236 0.8297484 -0.61741203 0.50071716
000010 1c 62 8e bf a1 0b 15 be bc 8e 97 bf 21 8c 21 3f
       -1.1123691 -0.14555217 -1.1840434 0.63104445
000020 fa 0f 22 3d e2 e8 9a be 45 6e 98 bf 64 38 7f 3e
       0.039566018 -0.302558 -1.1908652 0.24923855
000030 32 a2 60 bf 70 75 24 3f 6f d9 b6 be c7 a8 28 be
       -0.8774749 0.64241695 -0.35712764 -0.16470633
000040 d1 3b dc be d0 7b 08 be 89 2e 67 be bd 6c 53 bd
       -0.43014386 -0.1332848 -0.22576346 -0.051617373
000050 cf a9 10 bf a1 e4 ac be 0e bb 59 bf b4 12 a6 3e
       -0.5650911 -0.3376818 -0.8505105 0.32436144
000060 59 08 d9 bf 1b 65 a2 be cd df 01 3f 69 d5 2c be
       -1.6955673 -0.31717762 0.5073212 -0.16878285
000070 2b 02 00 bd 66 fb 1a c0 01 71 2f be 89 b1 ff be
       -0.031252068 -2.4215941 -0.17132951 -0.49940136
000080 45 87 1c bf d5 58 8a be 64 af c7 be a4 88 77 bd
       -0.61143905 -0.27020898 -0.39001 -0.060433045
000090 4a 23 32 3e d8 fd 90 3e 30 53 85 bf 94 93 31 3e
       0.17396274 0.28318667 -1.0416012 0.17341453
0000a0 0c 24 c1 3e d0 7f f8 bd fa 00 87 3e d6 9b 89 be
       0.37722814 -0.12133753 0.26367933 -0.26876706
0000b0 34 be 3a 3e 3b 08 9b 3f 9a f7 35 bf 4a 69 e6 bd
       0.18236619 1.2111887 -0.71080935 -0.11250551
0000c0 55 e9 3d 3f 79 51 b0 3f 00 e3 2a 3f 3f 47 a0 3f
       0.7418416 1.3774863 0.66752625 1.2521743
0000d0 f9 5e 11 bf 47 99 14 3f c7 d7 2b 3f 74 47 9b be
       -0.5678554 0.5804638 0.67126125 -0.30327952
0000e0 e7 63 38 bf a0 5f b1 3f 48 0c ba 3e 36 5a 91 3d
       -0.7202744 1.3857307 0.36337495 0.070972845
0000f0 e8 46 2b be dc 08 28 bf da 34 d7 bf f8 94 a9 be
       -0.16726267 -0.6563852 -1.6813004 -0.33121467
000100 d1 d4 55 3f 2e a2 2d 3e 64 c5 df be b8 a9 29 be
       0.8352786 0.16956398 -0.43705285 -0.16568649
000110 f3 f2 f5 3e 6e f0 a5 be 38 96 07 3f 36 22 b0 be
       0.48036918 -0.32409996 0.5296359 -0.344011
000120 a0 31 ee 3e b1 ae 4a 3e c8 87 86 3e 72 51 b9 bb
       0.46522236 0.19793202 0.26275468 -0.005655461
000130 8d 5a a6 3f cf 1b d9 be 79 66 60 bf 31 81 46 3f
       1.2996384 -0.4240403 -0.8765636 0.7754088
000140 a2 d0 9a 3e 0d e8 38 bf 75 44 09 bd 71 49 68 bd
       0.302373 -0.7222908 -0.03351255 -0.056710664
000150 a9 26 14 3e bf 17 38 3e 34 19 3c 3f a1 03 8b 3e
       0.14467873 0.17977808 0.73475957 0.27151206
000160 3a e2 bd 3e c9 93 42 be a8 6e 06 3e 85 ba 04 3e
       0.3708666 -0.19001688 0.1312815 0.12961777
000170 d9 36 0d 3f ba a2 cc 3e 68 ab d2 be cb 5b 60 3f
       0.55161816 0.399679 -0.41146398 0.87640065
000180 99 52 9c be d9 7e 86 3e 58 6a 1d bd 8c 98 2d bf
       -0.30531767 0.26268652 -0.038431495 -0.67810893
000190 a1 e7 6f bf 38 6f 53 3f ee 3f e1 3f 15 54 31 3f
       -0.9371281 0.8259158 1.7597635 0.69268924
0001a0 09 35 1a 3f e3 ea c0 39 98 5d 25 bf f7 23 22 3f
       0.60237175 0.00036796098 -0.6459594 0.6333613
0001b0 91 a5 b7 3e 8c 11 01 3f 82 a1 25 3f 1b b6 1a 3d
       0.35868505 0.504174 0.64699566 0.037771326
0001c0 8e 7f 5e 3e c5 6b 52 3d 4e 3a 10 3e e1 d6 51 3e
       0.21728346 0.05137231 0.14084741 0.20492126
0001d0 55 e3 ef 3e 15 30 15 3f 61 f3 74 be 96 44 9e be
       0.46853128 0.5827649 -0.23920967 -0.30911702
0001e0 8c 60 de 3f 58 fa 18 bf 6f e7 ec bd cf 2b 76 3e
       1.7373214 -0.59756994 -0.1156758 0.24040149
0001f0 a1 f8 c5 3e 13 3b cf 3e cd ff c0 3f 4f e1 01 3f
       0.3866625 0.40474758 1.5078064 0.5073442
000200 60 a2 f3 3d 47 33 ff 3e 3d a8 f5 3e 70 70 7a 3d
       0.11896205 0.4984381 0.47979918 0.061142385
000210 c8 28 5a be 1e 0f 13 bf 0c ea 8f be 15 cf d5 be
       -0.2130462 -0.5744494 -0.2810825 -0.41759554
000220 e0 72 78 3e 8f 3d 26 3f 80 bf 70 bf 8f 80 86 3e
       0.24262571 0.6493768 -0.94042206 0.26269957
000230 a9 58 2b bf 6f 76 0f 3d d3 5c 5b be 9b 17 62 be
       -0.6693216 0.035025056 -0.21422128 -0.22079317
000240 f1 57 cc 3e 48 6d fd bc 34 8d 5b 3e 90 e2 9e 3f
       0.39910844 -0.030935898 0.21440583 1.2412891
000250 aa d2 ff be e1 c1 cb 3e 65 46 92 bf 05 f3 95 bd
       -0.4996541 0.39796355 -1.1427733 -0.07321743
000260 64 25 3a bf 13 94 80 3f 42 f6 07 bf 83 1f 2c be
       -0.72713304 1.0045189 -0.53110135 -0.16808896
000270 31 a0 3b be e4 0f 61 bf 77 a2 55 3f 9f 77 3d bf
       -0.18322827 -0.8791487 0.83451027 -0.7401065
000280 cf 48 ca bd 4d b1 37 be 22 f4 41 3f 04 32 08 3f
       -0.098771684 -0.17938729 0.7576314 0.5320132
000290 26 ae 4e 3d 0c 61 78 be 09 b4 d8 be 63 95 c6 be
       0.05045905 -0.2425577 -0.42324856 -0.38785848
0002a0 21 b9 e0 3d 92 fb 6b 3e 90 68 8b 3f 35 d3 e2 3d
       0.109728105 0.23045185 1.0891285 0.11075441
0002b0 4d 24 ec be 4b a0 5c 3f 08 f4 24 bf 60 e2 85 bd
       -0.46121445 0.8618209 -0.6443486 -0.06537318
0002c0 5d 1b da 3e 37 8d 02 bf b7 77 f5 3e 83 e2 49 bf
       0.42599002 -0.50996727 0.47942898 -0.78861254
0002d0 9c a9 8d bf ed f8 b1 3d 68 8f 08 3e ba ea 28 bf
       -1.1067386 0.08690057 0.13335955 -0.65983164
0002e0 a2 b6 6c bf 75 8c 07 bf c1 38 57 be 04 0d 54 3d
       -0.92466176 -0.52948695 -0.21017744 0.051770225
0002f0 63 a3 a3 be ed 62 a7 bd ec 7f 0b bb 81 80 3e 3d
       -0.31960592 -0.081731655 -0.0021285964 0.04650927
000300 e4 3b 6c 3e 6d d9 cc be 9c cc 5b bf 4c 51 6c 3f
       0.23069721 -0.40009633 -0.85859084 0.9231155
000310 ba 76 94 3e 33 4a 46 3f d8 81 96 be 30 47 1c 3e
       0.2899683 0.7745697 -0.29395938 0.15261531
000320 b9 27 9c be 4d cb a4 bd 37 9b 52 bf 84 db bf be
       -0.30499056 -0.08046589 -0.8226809 -0.37472165
000330 53 d2 df 3d 2e 61 07 3d 77 16 36 3f cc 04 2a 3f
       0.10928788 0.033051662 0.7112803 0.6641357
000340 a3 06 ee 3e 20 74 44 3e a9 1c 44 3e 73 7f 83 be
       0.46489438 0.19184923 0.19151558 -0.25683174
000350 36 e3 ad 3e 3a e7 56 bf f7 73 ac 3e 9d cd e3 3d
       0.3396241 -0.83946574 0.33682224 0.11123202
000360 5a 18 b7 3e 6b f7 88 bf 24 0e 05 3f 90 df 9c bd
       0.35760766 -1.0700506 0.519747 -0.07659829
000370 83 58 b4 3e 91 15 4f be 31 a1 0f bf 53 ac 55 3f
       0.3522378 -0.2022307 -0.56105334 0.8346607
000380 9a 51 dd 3e f3 64 a5 3e 90 46 89 bc 2c c7 d3 be
       0.4322632 0.3230358 -0.01675728 -0.41362894
000390 87 f6 15 3e 25 fc 85 3f e2 aa 16 be 89 fc 21 3f
       0.14644824 1.0467573 -0.14713624 0.63275963
0003a0 5f c5 11 3e fa 74 7a be f6 f0 cb be bc 70 ea 3e
       0.14235447 -0.24458686 -0.39832276 0.45789135
0003b0 dc 47 b8 bd ca d7 5f bf be fc 75 3f ab 29 70 bd
       -0.08998081 -0.8743864 0.9608878 -0.058633488
0003c0 3c ec 94 3e b3 da cb bd b7 8d 24 3e 1b 30 04 3e
       0.29086483 -0.09953823 0.16069685 0.12908976
0003d0 10 36 dd 3e 1f ec 6b 3d e3 83 9b 3e 92 43 2f 3f
       0.4320531 0.05759823 0.3037406 0.6846248
0003e0 90 41 24 3e b4 58 26 bf 4f 8f b7 3e b6 4f 55 be
       0.16040635 -0.649791 0.35851523 -0.20831189
0003f0 1e 1d 27 3e 8c 8a 07 3e fc d4 35 3f 5b cf 98 bd
       0.16319701 0.13236445 0.71028113 -0.07461425

bias f4 [64]
000000 01 db 40 be c4 63 f5 3d 5c e8 6d be b1 2a 35 3e
       -0.18833543 0.119819194 -0.2323317 0.17692067
000010 67 cc 11 bf 41 20 b7 3e 2a 45 0a bf 85 5c 96 be
       -0.5695252 0.35766795 -0.54011786 -0.29367462
000020 2e 72 1f be 4e 0b 9b 3e 6e bd 68 3f 6e 57 e9 3e
       -0.155709 0.30282062 0.90914047 0.45574516
000030 c9 66 95 3e d6 8b 21 be 69 45 cb be ee 71 07 bf
       0.2917998 -0.15776 -0.39701393 -0.5290822
000040 07 5c c3 be 8f db 87 bd da 1a a4 3e 0e f4 c1 3d
       -0.3815615 -0.06633674 0.32051736 0.09470378
000050 3d f8 47 bf e8 17 80 be 9d ab 83 be ac 5f 29 be
       -0.78113157 -0.2501824 -0.25716868 -0.16540402
000060 71 87 6f be cb 88 cc be f9 a5 26 bf 3e cf c5 3e
       -0.2339151 -0.39948115 -0.65097004 0.38634676
000070 41 be 4c 3d e9 0a 48 bd 50 a6 92 3e ab 3f 41 be
       0.049986128 -0.04883853 0.2864251 -0.18871944
000080 87 a5 8c bf 1b ee 16 bf 79 ee 60 3e 08 8d 23 be
       -1.0988015 -0.5895707 0.2196597 -0.15971768
000090 8a 4e f3 3e 20 e5 0e 3e 57 2b 0d 3d 3b 37 97 bd
       0.47520858 0.13954592 0.03446516 -0.07383581
0000a0 f1 d2 61 3d 82 19 08 bf 6f f8 8f 3d 7a 5e 72 be
       0.05513281 -0.5316392 0.07029807 -0.23668852
0000b0 78 1a bd be ff aa c3 3e b4 3d bc 3e cc 9f 07 be
       -0.36934257 0.38216397 0.36765826 -0.13244551
0000c0 90 a3 3d be 15 3d a3 3e 7e 6e a1 3e 56 c2 a5 3e
       -0.18519425 0.3188254 0.3152961 0.3237483
0000d0 fb eb a4 3d 17 33 14 3f c0 54 f3 bc f1 42 c3 3b
       0.08052822 0.57890457 -0.029703498 0.005958908
0000e0 0f 7a b9 3e 2e 33 05 bf d6 ec 9f be 91 17 06 bd
       0.36225936 -0.5203122 -0.3123538 -0.03273732
0000f0 49 6c d1 bd 19 3d 62 bd 11 a6 e8 bd 41 6f 4e be
       -0.10225732 -0.05523405 -0.113598 -0.20159627

weight f4 [2, 64]
000000 97 a8 65 bf f6 bd 1b 3f 38 29 a6 3f 15 b7 6f 3f
       -0.8971037 0.6083673 1.2981329 0.93638736
000010 89 13 93 bd 1a 4c a5 3e 9c db 57 bf 89 00 b8 3e
       -0.071814604 0.32284623 -0.8431947 0.35937908
000020 f9 51 34 40 44 92 98 bf 9a a6 88 3e 16 df 08 bf
       2.8175032 -1.1919637 0.26689607 -0.534654
000030 8b 1b 47 3e 47 c0 e6 bf dc de a2 bd b0 de 98 bf
       0.194441 -1.8027428 -0.07952663 -1.1942959
000040 b5 00 bb 3c 76 cd 8c 3e 37 65 9c 3f 3f 2a f9 bf
       0.022827486 0.27500504 1.2218388 -1.9466017
000050 fe b2 0e 40 48 21 e5 3e 7f 7f 5e 3f 9c e2 95 3f
       2.2296748 0.44751954 0.86913294 1.1709781
000060 c7 27 cc bf b4 99 03 40 9a 4d a8 bf 64 c2 5e 3f
       -1.5949639 2.0562563 -1.3148682 0.87015367
000070 6a 9e b6 3e ab 19 b9 3f db d2 b0 3f 1c d1 66 3f
       0.35667735 1.4460958 1.3814348 0.90162826
000080 16 11 94 be 1f eb 96 be 08 45 5b 3f 82 ca c2 bf
       -0.28919286 -0.29476258 0.8565221 -1.521805
000090 88 b5 f5 3e a8 77 d8 3f 75 82 d5 3e 88 01 ea 3d
       0.4799006 1.6911516 0.41701093 0.11426073
0000a0 ef eb b4 3f 09 21 a3 bf c2 ff 96 3f f9 f7 fd 3d
       1.4134501 -1.2744457 1.1796801 0.12400813
0000b0 e7 46 aa 3f 9e 5e b6 be e8 2b 4d 3f 6e 46 02 bf
       1.3302888 -0.35619062 0.8014512 -0.5088872
0000c0 98 16 a7 3e 77 b7 22 be e8 a1 1e 3f 76 03 9f 3f
       0.32634425 -0.15890299 0.619658 1.2422931
0000d0 47 68 96 3f ab e7 07 bf f0 13 29 3f 12 33 09 3f
       1.1750573 -0.5308787 0.6604605 0.5359355
0000e0 e0 a2 f0 bc d6 07 91 bf 52 08 a9 3f 1e 09 85 3f
       -0.02937454 -1.1330516 1.3205664 1.0393407
0000f0 5e 9f 95 3f 42 47 0d bf 26 eb a8 be 10 dd 19 3d
       1.168926 -0.55186856 -0.32991904 0.037564337
000100 fb b9 b9 3f 95 43 91 bf bb b8 48 3e 58 64 61 3e
       1.4509882 -1.1348749 0.19601719 0.22010934
000110 87 f6 c4 3f a4 76 8a bf 11 a4 79 bf 6d f1 88 bf
       1.5387734 -1.0817456 -0.9751597 -1.0698677
000120 88 0d db be 98 63 50 bf 1b 26 8c bf 4a 19 66 bf
       -0.4278376 -0.8140197 -1.0949129 -0.8988234
000130 6a 95 90 3f f6 41 94 3e 9f 17 9b bf 05 41 d5 be
       1.1295598 0.28956574 -1.2116584 -0.41651168
000140 b9 5b 4a c0 45 cb e2 3f 93 ed 57 3f dd fc b0 3e
       -3.1618483 1.7718283 0.84346884 0.3456792
000150 22 95 23 bf 03 3f 5e 3f 33 48 22 bf d5 e2 be 3e
       -0.63899434 0.868149 -0.6339142 0.37282434
000160 bb ba bf be 0b e8 b0 3e 22 47 c6 3e a1 d8 1b 3f
       -0.37447152 0.34552035 0.38726145 0.60877424
000170 d0 f7 de bf 72 24 17 bf a7 bd 3a bf 53 e9 06 bf
       -1.7419376 -0.59039986 -0.72945637 -0.52699775
000180 4a 8c ee 3f e6 f1 a4 3f 62 b7 0d bf 51 ea 6c 3f
       1.8636563 1.2886322 -0.55357945 0.9254504
000190 74 bd b2 bf 16 bb 81 be de 6d 05 bf 2d e3 7d be
       -1.3964067 -0.25338048 -0.5212077 -0.24793692
0001a0 05 13 01 3f fd 83 9b 3f e9 e0 d3 be ec de 3f bf
       0.50419647 1.2149655 -0.4138253 -0.74949527
0001b0 31 2a e2 be 50 4f 98 bf c5 93 20 3f bb 3a 09 bf
       -0.44172814 -1.1899204 0.6272548 -0.5360524
0001c0 1e 32 bb 3f 09 fd 86 bf 54 74 a4 bf 56 fd 92 3f
       1.462467 -1.054597 -1.2848 1.1483562
0001d0 93 73 10 bf 27 54 69 bf 06 95 1a bf 46 19 46 bf
       -0.5642635 -0.9114403 -0.6038364 -0.77382314
0001e0 1f 73 44 bf c3 21 93 bf e6 9f 93 3d e2 dd c4 3d
       -0.7673816 -1.1494678 0.072082326 0.09612633
0001f0 d5 86 1d bf 98 0d 00 bf 65 e2 28 3f 15 46 aa 3f
       -0.6153386 -0.5002074 0.6597045 1.3302637

bias f4 [2]
000000 3a 58 14 3f 0b df 82 3d
       0.57947123 0.06390198
