DDPG/data/exp/Swimmer-v3/2022-06-22-09-01-24_critic.pt (torch, 22615 bytes, 5 tensors)

weight f4 [64, 10]
0	0x3b948d73	0.0045334636
1	0x3de5d486	0.11222176
2	0x3daafd01	0.08349038
3	0x3db2d801	0.08732606
4	0xbe6933a9	-0.22773613
5	0xbe0bdfc2	-0.13659576
6	0xbdcd85ec	-0.10035309
7	0x3e4638c8	0.19357598
8	0x3ce247da	0.027622152
9	0x3e4e03c1	0.2011862
10	0x3e8de1f3	0.27711448
11	0x3b77277a	0.003771274
12	0xbe863f0e	-0.26219982
13	0xbae5da2d	-0.0017536335
14	0x3e601510	0.21883035
15	0x3eb821b4	0.35963213
16	0x3e28a9fd	0.16471095
17	0xbe0eb7c2	-0.13937286
18	0x3cf932f2	0.0304198
19	0xbde7c3b1	-0.11316622
20	0xbc73268d	-0.014840734
21	0x3e1fe812	0.15615872
22	0x3d203ed4	0.039122418
23	0x3e35d523	0.17757086
24	0xbdcfc40e	-0.10144816
25	0xbedc918f	-0.43079802
26	0x3c1d14c1	0.009587468
27	0x3d5ba44d	0.053623486
28	0x3e6b8577	0.23000132
29	0xbc9f6753	-0.019458449
30	0xbea02df0	-0.31285048
31	0xbe1d3ac4	-0.15354449
32	0xbe4c5298	-0.19953382
33	0x3e9d1373	0.306789
34	0xbf06419f	-0.5244388
35	0xbe1c52f9	-0.15266027
36	0x3e4a7b64	0.19773632
37	0xbdbc259a	-0.091868594
38	0xbc9a194c	-0.01881089
39	0xbb85d79c	-0.0040845405
40	0x3f31ea14	0.694978
41	0xbdd36da2	-0.10323645
42	0x3d16f827	0.03685775
43	0xbc1191ea	-0.008884886
44	0xbd2f63b7	-0.042819705
45	0xbc4575e5	-0.012052034
46	0xbea6c2bd	-0.3257045
47	0xbdb73ace	-0.08946763
48	0x3e887fae	0.26659912
49	0xbdd2d033	-0.10293617
50	0x3ec767f9	0.38946512
51	0x3f482237	0.7817721
52	0xbe5b007c	-0.21386904
53	0x3d4ac594	0.04950483
54	0xbc17ec87	-0.009272701
55	0x3e9e1ae7	0.308799
56	0x3e8cb696	0.27483052
57	0xbd7fbaae	-0.06243389
58	0xbcaaacde	-0.020834383
59	0x3d646d3a	0.05576823
60	0xbdec428e	-0.11536132
61	0xbc0a2765	-0.008432244
62	0xbd47d332	-0.048785396
63	0xbc4741f2	-0.012161719
64	0xbdf4af9f	-0.119475596
65	0xbd805ae9	-0.0626734
66	0x3e469587	0.19392978
67	0x3e40529c	0.18781513
68	0x3e73f1e8	0.23822749
69	0x3ce26321	0.027635159
70	0xbdb1edd6	-0.08687942
71	0x3e870f10	0.2637868
72	0x3ebd4b12	0.36971337
73	0xbe5b760a	-0.21431747
74	0x3d92273e	0.07136391
75	0x3d31c6d7	0.04340252
76	0x3df45e52	0.11932053
77	0x3e0e7fca	0.13915935
78	0x3d8a2c8f	0.0674678
79	0x3d84f984	0.06492904
80	0x3e88550f	0.26627395
81	0x3f2d0e25	0.6759971
82	0x3e0322aa	0.12806192
83	0x3de1b8b0	0.110215545
84	0xbeb6cd48	-0.35703492
85	0xbdb91863	-0.090378545
86	0xbe7aa218	-0.24475896
87	0x3dea4eff	0.114408486
88	0xbdab1e33	-0.083553694
89	0xbd13d26a	-0.03608934
90	0x3f0a67ee	0.54064834
91	0x3e33a73c	0.17544264
92	0xbcc61338	-0.024179086
93	0x3dc161a3	0.09442451
94	0x3dbc6918	0.091997325
95	0x3d026778	0.031836957
96	0xbe33fbdf	-0.1757655
97	0xbdbf3caf	-0.09337746
98	0xbddb3b85	-0.10704712
99	0xbc37643d	-0.011193332
100	0xbe434ef1	-0.19073083
101	0xbe045ed3	-0.12926798
102	0x3cca4fb8	0.024696216
103	0x3e598af3	0.21244411
104	0xbec8b85c	-0.39203155
105	0x3cdb7ce4	0.02679295
106	0x3da53902	0.08067514
107	0xbe2781bf	-0.16358088
108	0x3be1d08b	0.0068913153
109	0xbd9ac3cc	-0.075568765
110	0xbea16392	-0.3152128
111	0xbe358c1e	-0.17729232
112	0xbdc68635	-0.09693567
113	0x3ddcdb84	0.10784057
114	0xbe57ac3f	-0.210618
115	0x3cd4f090	0.025993615
116	0xbd4fefac	-0.05076568
117	0x3c93a6f1	0.01802394
118	0xbe103d0b	-0.14085786
119	0x3d70bd14	0.05877407
120	0xbf008c51	-0.50214106
121	0xbcc8a2f6	-0.024491768
122	0x3dcdc95d	0.100481726
123	0x3c8100a1	0.01574737
124	0xbd19d535	-0.037556846
125	0xbd33485d	-0.043770183
126	0xbcb5354f	-0.022120146
127	0xbd5ae97e	-0.05344533
128	0x3e4d6540	0.20058155
129	0xbdc57f00	-0.09643364
130	0x3e87a80e	0.26495403
131	0xbf0af214	-0.5427563
132	0xbeaf76e7	-0.34270403
133	0x3df53dff	0.119747154
134	0xbdcbbd4c	-0.09948215
135	0x3ce65e35	0.028121093
136	0xbed7eb6e	-0.42171806
137	0xbe5631eb	-0.2091748
138	0xbd93ead5	-0.07222525
139	0xbd9175b2	-0.07102527
140	0x3ee642e6	0.44972914
141	0xbe083e7f	-0.1330509
142	0x3c873285	0.016503582
143	0xbd205136	-0.03913995
144	0xbd723ea3	-0.059141766
145	0x3dd4650d	0.103708364
146	0x3d1ab631	0.037771408
147	0xbd4f8de7	-0.050672438
148	0x3d806c7f	0.06270694
149	0x3d9c633a	0.076361135
150	0x3eeba9b7	0.4602792
151	0x3f0a9e08	0.54147387
152	0xbd802386	-0.062567756
153	0x3e11dfcf	0.14245532
154	0x3dd2b008	0.102874815
155	0x3e63700d	0.22210713
156	0x3e2928c0	0.16519451
157	0xbdae7e3e	-0.085201725
158	0xbe192d53	-0.14958696
159	0xbe33a8bb	-0.17544834
160	0x3e5cd218	0.2156452
161	0x3e0039d0	0.12522054
162	0xbd006378	-0.03134486
163	0x3cffd4d5	0.031229416
164	0xbe9d32f7	-0.30702946
165	0xbd7ce0c9	-0.06173781
166	0x3e1eb340	0.15498066
167	0x3e5879c4	0.211402
168	0x3e04d123	0.12970404
169	0x3d69a64e	0.057043366
170	0x3e5ab949	0.21359743
171	0x3f1c59ba	0.6107441
172	0xbe48e950	-0.19620252
173	0xbe9bf51c	-0.3046044
174	0x38158ff9	3.5658453e-05
175	0x3e905c95	0.28195634
176	0x3ec5a7fa	0.38604718
177	0x3cfbc07b	0.03073143
178	0x3e1281d8	0.14307344
179	0xbdb45412	-0.08805098
180	0xbe54c55e	-0.20778415
181	0xbf1ba3fb	-0.6079709
182	0xbd8265e7	-0.063670926
183	0x3d55109b	0.05201779
184	0xbd6c1d98	-0.05764541
185	0x381b8ca2	3.7085854e-05
186	0xbdff4921	-0.1246512
187	0xbd870a54	-0.06593767
188	0xbe0910ea	-0.13385358
189	0xbd8adb61	-0.067801245
190	0xbe1aebd8	-0.1512903
191	0xbeb5f763	-0.35540304
192	0x3a8aa12c	0.0010576597
193	0x3dd9b76f	0.1063069
194	0x3e0dbe6c	0.13842171
195	0xbe351b96	-0.17686304
196	0xbec4091a	-0.38288194
197	0xbe1a96a3	-0.15096526
198	0x3c56ecd1	0.013117985
199	0x3d876910	0.06611836
200	0xbe0b714e	-0.13617441
201	0x3f09556f	0.53645986
202	0x3e8ee775	0.27910963
203	0x3de65007	0.11245733
204	0x3e84abfc	0.25912464
205	0xbe63c20d	-0.22241993
206	0x3e48cea0	0.19610071
207	0x3e30c6f8	0.172634
208	0xbda4f6dc	-0.08054897
209	0x3e36cd02	0.17851642
210	0x3d889286	0.06668572
211	0x3e1c3f28	0.15258467
212	0x3ec9c965	0.39411464
213	0xbdad95d1	-0.08475841
214	0x3e266ecb	0.16253202
215	0x3e43ccff	0.19121169
216	0x3e70d5c9	0.23519053
217	0xbd22575c	-0.039634094
218	0x3bcaddb4	0.00619098
219	0xbd6e4927	-0.058175232
220	0xbe0d4d1a	-0.13798943
221	0x3e169831	0.14706494
222	0xbe81596b	-0.25263533
223	0xbdd8006a	-0.10546954
224	0x3ecdc981	0.40192798
225	0xbc7e2592	-0.015511887
226	0xbe7270f8	-0.23675907
227	0xbecc4169	-0.39893654
228	0xbc1f4b31	-0.009722517
229	0xbe051ab7	-0.12998472
230	0xbe6ed14e	-0.23322031
231	0xbe4b27ae	-0.19839355
232	0xbeacc864	-0.33746636
233	0x3e19a5b8	0.15004623
234	0xbd76777c	-0.060172543
235	0xbc362a4a	-0.011118481
236	0x3e88c1bb	0.26710305
237	0xbe84e1f7	-0.25953647
238	0x3e213e7d	0.15746494
239	0xbe54bfb0	-0.20776248
240	0x3de40cab	0.11135229
241	0xbdc2274b	-0.09480151
242	0x3dbad19e	0.091220126
243	0xbe090374	-0.13380224
244	0x3e325473	0.17415027
245	0x3e25ed03	0.16203694
246	0xbe0b6342	-0.13612083
247	0xbd4b1a50	-0.04958564
248	0xbdf34ee5	-0.11880282
249	0xbdf86d38	-0.12130207
250	0x3e8888c7	0.26666853
251	0xbe1f4dec	-0.15557069
252	0x3e8e874b	0.27837595
253	0x3d3cd54a	0.046101846
254	0x3eb5c0fb	0.35498795
255	0xbe036cf8	-0.12834537

bias f4 [64]
0	0xbd87dcad	-0.066338874
1	0xbef0267f	-0.4690437
2	0x3e68a519	0.2271923
3	0x3a4c7e18	0.0007800772
4	0x3f83f4d2	1.0309088
5	0xbf410ef6	-0.75413454
6	0xbe6ef31d	-0.23334928
7	0x3eb712d8	0.35756564
8	0x3f0579e8	0.5213914
9	0xbead201d	-0.33813563
10	0x3f12766c	0.5721195
11	0x3f8f2f15	1.1186243
12	0x3e855dd8	0.2604816
13	0x3f23e664	0.64023423
14	0xbf18e6cd	-0.59727174
15	0x3d800bd9	0.0625226
16	0x3f1dd977	0.6165995
17	0xbde51318	-0.111852825
18	0x3d22615c	0.03964363
19	0x3ed3f341	0.41396526
20	0x3e3bc865	0.18338163
21	0xbea6faa4	-0.326131
22	0x3dd08ec9	0.10183484
23	0x3f2c5fc8	0.6733365
24	0x3e546836	0.20742878
25	0xbf000522	-0.5000783
26	0xbf1eae38	-0.61984587
27	0x3e57cb42	0.2107363
28	0x3ef3a346	0.47585505
29	0x3ea5d4d0	0.32388926
30	0x3e0d11f6	0.13776383
31	0x3ed4df10	0.41576433
32	0x3f04135f	0.5159206
33	0x3f0d39f8	0.5516658
34	0x3f143997	0.57900375
35	0xbe7b494c	-0.2453968
36	0x3e0763ce	0.13221666
37	0x3ed4c152	0.41553742
38	0xbec6f9f6	-0.3886258
39	0x3eb953ea	0.36196834
40	0xbef3251e	-0.47489256
41	0x3ec2ce0a	0.3804782
42	0xbed4f69b	-0.41594395
43	0xbf579367	-0.84209293
44	0xbf722e55	-0.9460195
45	0x3eee0fc8	0.46496415
46	0xbd6dd0b3	-0.05806036
47	0xbeee0f42	-0.46496016
48	0x3df4d3dd	0.11954472
49	0xbf8a36ba	-1.0797951
50	0x3f165cd0	0.5873537
51	0xbf99aaf0	-1.2005291
52	0x3e46ec71	0.19426133
53	0x3f4514c1	0.7698479
54	0x3f1b9b64	0.6078398
55	0x3ec18f09	0.3780444
56	0xbef60285	-0.48048797
57	0xbebfdd21	-0.37473395
58	0xbe23cc4d	-0.15995903
59	0xbe10688c	-0.14102381
60	0xbee1e427	-0.4411938
61	0xbd02c4cd	-0.031925965
62	0x3eef33d1	0.4671922
63	0xbef31213	-0.47474727

weight f4 [64, 64]
0	0xbe6d6167	-0.23181687
1	0xbe82a41c	-0.2551583
2	0x3ddc3f79	0.10754294
3	0xbe5f582e	-0.21810982
4	0x3e2c073b	0.16799633
5	0xbe371c7b	-0.17881958
6	0xbc03f033	-0.008052873
7	0x3d591c7a	0.053005673
8	0x3cad316b	0.021141728
9	0xbeab78b7	-0.33490536
10	0x3ef3f9f5	0.4765164
11	0x3f2c8cbe	0.67402256
12	0x3e77b679	0.24190702
13	0x3e5c9bdb	0.21543829
14	0xbf209397	-0.62725204
15	0xbdd29116	-0.10281579
16	0x3e11c3de	0.14234874
17	0xbddca336	-0.107733175
18	0x3e868b93	0.26278362
19	0x3efe6e63	0.49693593
20	0xbadf6193	-0.0017042629
21	0xbe016993	-0.1263793
22	0x3d62126a	0.055193342
23	0x3eda98fe	0.4269485
24	0x3e6e0c78	0.23246944
25	0xbd984402	-0.074348465
26	0xbe87751e	-0.2645654
27	0x3e5ddefd	0.21667095
28	0x3f4bde1a	0.79635775
29	0x3e5f4670	0.21804214
30	0xbe7cecde	-0.24699733
31	0x3ea1c219	0.31593397
32	0x3ecef7f0	0.40423536
33	0x3d4dca71	0.05024189
34	0x3eabd2a1	0.33559135
35	0xbed90622	-0.4238749
36	0x3d0a2499	0.03372631
37	0x3e6c0cd0	0.23051763
38	0xbda31bd0	-0.07964289
39	0x3eae9393	0.34096965
40	0xbf43c59e	-0.76473415
41	0x3eb4b6cf	0.35295722
42	0xbebe4c32	-0.37167507
43	0xbd870938	-0.06593555
44	0xbba09b0f	-0.004901297
45	0xbd704dc8	-0.058667928
46	0xbe5196b8	-0.20467651
47	0xbeddf0e9	-0.43347862
48	0xbe41dcde	-0.1893191
49	0xbf1aa93a	-0.6041447
50	0xbcffbbe9	-0.031217532
51	0x3d483502	0.048878677
52	0xbe84b816	-0.25921696
53	0x3f2bf165	0.67165214
54	0xba6a322e	-0.0008933869
55	0x3c04d48d	0.008107317
56	0xbed9640e	-0.42459148
57	0xbea20226	-0.31642264
58	0xbe40869b	-0.18801348
59	0xbba81af3	-0.0051301657
60	0xbe577bb1	-0.21043278
61	0xbe16c966	-0.14725265
62	0xbd492507	-0.049107578
63	0xbe4053ed	-0.18782015
64	0xbd9ffecb	-0.0781227
65	0x3d5a4ccd	0.0532959
66	0xbe26272f	-0.16225885
67	0x3ec219d2	0.37910324
68	0x3d1df8fe	0.038567536
69	0x3e689f0d	0.22716923
70	0xbc9fa546	-0.019487988
71	0xbe4c0be3	-0.1992641
72	0xbd3bcae9	-0.045847807
73	0xbe67e7d8	-0.22647035
74	0xbe461978	-0.19345653
75	0xbec3ef61	-0.3826857
76	0x3e750c4c	0.23930472
77	0x3d40e371	0.047091905
78	0xbcd87b32	-0.026425932
79	0xbe1c8d37	-0.15288244
80	0xbe324885	-0.17410477
81	0xbd4923e2	-0.049106486
82	0xbd8b4c0a	-0.06801613
83	0x3e8bfdd3	0.2734209
84	0xbdb00dc0	-0.085963726
85	0xbdbc50b4	-0.091950804
86	0xbe28938e	-0.16462538
87	0xbb583c00	-0.0032994747
88	0x3d31cc07	0.043407466
89	0x3de855c9	0.11344487
90	0x3e50004d	0.20312615
91	0x3e6478a8	0.22311652
92	0xbf50cdbf	-0.81563944
93	0x3d2f3652	0.042776413
94	0x3cfc08d8	0.030765936
95	0x3d106f22	0.035262235
96	0xbc70bf7f	-0.014694094
97	0xbcd51a61	-0.026013555
98	0x3e87e0fc	0.26538837
99	0xbd80b9d4	-0.06285444
100	0xbe32c1b0	-0.17456698
101	0xbd64caae	-0.055857353
102	0xbe2fa75c	-0.17153686
103	0xbe47e0d2	-0.19519356
104	0x3e2c3411	0.16816737
105	0x3df75c52	0.120781556
106	0x3d8e2700	0.069410324
107	0x3de5174f	0.111860864
108	0x3da9bb80	0.08287716
109	0xbdde31fe	-0.10849379
110	0x3d2a0acc	0.041514203
111	0xbdbc3171	-0.09189118
112	0x3e0f4e7b	0.13994782
113	0x3eeb36d3	0.45940265
114	0xbe024285	-0.12720688
115	0xbd6b6a37	-0.05747434
116	0xbeb416c0	-0.35173607
117	0xbdc60839	-0.09669537
118	0x3db39d97	0.08770292
119	0x3e012d01	0.12614824
120	0xbee4222d	-0.44557324
121	0x3d227ecc	0.039671704
122	0xbe0ba9f8	-0.13639057
123	0xbe17e242	-0.14832404
124	0x3dcd3153	0.100191735
125	0xbe5ec6d3	-0.21755533
126	0xbe20fa50	-0.15720487
127	0x3d1a9d0a	0.03774742
128	0xbdd8317b	-0.10556313
129	0x3e0dcff3	0.13848858
130	0x3e7d436f	0.24732755
131	0xbe23aaca	-0.1598312
132	0xbcf9a408	-0.030473724
133	0xbf034542	-0.51277554
134	0x3e1fe9f1	0.15616585
135	0xbe2e5805	-0.17025764
136	0xbe1a0ab6	-0.15043148
137	0x3e528ad3	0.2056077
138	0x3c85f5fc	0.016352646
139	0x3f00bbb6	0.50286424
140	0xbcacbcbe	-0.021086093
141	0xbd349b7f	-0.044093605
142	0x3d736148	0.059418947
143	0x3db1efee	0.08688341
144	0xbe1fbaf2	-0.15598658
145	0xbe3479af	-0.17624544
146	0x3eadd04d	0.33947983
147	0x3e58fac3	0.21189408
148	0xbdae2871	-0.08503807
149	0x3e4ec059	0.20190562
150	0x3dd55758	0.1041705
151	0x3e0dd21d	0.13849683
152	0xbdf977a0	-0.1218102
153	0xbe614a3c	-0.22000974
154	0x3eae0a73	0.33992347
155	0x3e837a72	0.25679356
156	0xbe8f7fd6	-0.2802722
157	0x3ec7c19b	0.39014897
158	0x3cfe2d5f	0.031027494
159	0xbd082012	-0.03323371
160	0xbdfeaa95	-0.1243488
161	0x3e07ff79	0.13281049
162	0xbe283f9a	-0.16430512
163	0x3e97ffa5	0.2968723
164	0xbe89ab07	-0.26888296
165	0xbe8d05fc	-0.27543628
166	0x3e9c78d0	0.30560923
167	0x3e9bb285	0.30409637
168	0xbd6dbee7	-0.058043387
169	0xbe310b82	-0.17289546
170	0xbd51ddfe	-0.0512371
171	0xbd1bf85a	-0.038078643
172	0x3dbf1193	0.09329524
173	0x3e61d222	0.22052816
174	0x3d685cd7	0.056729164
175	0x3cdebb1f	0.027188836
176	0xbe5e7732	-0.21725157
177	0xbf2b4447	-0.6690106
178	0xbd1748f1	-0.036934797
179	0xbd5cc382	-0.05389739
180	0xbda9ae1a	-0.0828516
181	0x3e6e3502	0.23262408
182	0xbe310e86	-0.17290697
183	0x3d6fe6c9	0.058569703
184	0x3de3aaec	0.11116585
185	0xbd685df6	-0.056730233
186	0xbd0418f2	-0.032250352
187	0x3e6fbff1	0.23413064
188	0x3dc03e2d	0.09386859
189	0x3e19929c	0.14997333
190	0x3d72d93a	0.059289195
191	0xbeb8a449	-0.3606284
192	0x3ddad6eb	0.106855236
193	0xbe067901	-0.13132097
194	0xbd5fbdef	-0.054624494
195	0x3c318c3b	0.010836656
196	0x3ec4a9dd	0.38410845
197	0xbe03de1a	-0.12877694
198	0xbc95b04b	-0.01827254
199	0x3d87edf8	0.06637186
200	0xbd2b0f52	-0.041762657
201	0xbe265eed	-0.16247149
202	0x3e15fd9f	0.1464753
203	0x3e84f54d	0.259684
204	0xbe7a0859	-0.24417247
205	0x3ec09e8a	0.37620956
206	0xbe87676d	-0.26446095
207	0xbd760f04	-0.060072914
208	0xbcf34bc1	-0.029699208
209	0xbe7b3a07	-0.24533854
210	0xbed59cc1	-0.41721156
211	0xbf04564a	-0.51694167
212	0x3e130374	0.14356786
213	0xbe97d296	-0.29652852
214	0xbdcd5303	-0.10025599
215	0x3d0be092	0.034149714
216	0xbe9b9991	-0.303906
217	0xbe1725f7	-0.14760576
218	0x3e4d0a92	0.20023564
219	0x3cafd874	0.021465518
220	0x3ce7b548	0.028284684
221	0x3e8c9d8f	0.27463958
222	0xbea17554	-0.31534827
223	0x3d0df85a	0.034660675
224	0xbcd4e2fe	-0.025987145
225	0x3e0b0c52	0.13578919
226	0x3edab4eb	0.42716154
227	0xbdcfadcc	-0.10140571
228	0xbe8e9b80	-0.27853012
229	0xbe100a59	-0.14066447
230	0x3d63c0ca	0.05560378
231	0x3e838e78	0.25694633
232	0xbf093b3a	-0.53606
233	0xbe159e93	-0.14611273
234	0xbd6ca85e	-0.057777755
235	0xbe8b0643	-0.27153215
236	0x3cce823e	0.025208589
237	0x3ee6004e	0.44922107
238	0x3caf553d	0.02140295
239	0xbe863fb6	-0.26220483
240	0x3cdc1ba6	0.026868653
241	0xbecc72e9	-0.3993142
242	0xbe07d030	-0.13263011
243	0xbe1e54a1	-0.15461971
244	0x3f202ddd	0.6256998
245	0x3dfa716e	0.12228666
246	0x3e5135d6	0.20430693
247	0xbe329e48	-0.17443192
248	0xbe837d78	-0.25681663
249	0x3ebcce75	0.36876264
250	0x3d5a6a0e	0.053323798
251	0x3db17476	0.08664791
252	0x3e2bdfac	0.16784543
253	0xbeb70993	-0.35749492
254	0xbd08301f	-0.033249017
255	0xbe107757	-0.14108025

bias f4 [64]
0	0x3ea5567b	0.32292542
1	0xbe55be09	-0.20873274
2	0x3dd17012	0.10226454
3	0x3e9058b3	0.28192672
4	0x3db0ed7f	0.08639049
5	0x3e1d01b0	0.15332675
6	0xbc95ab14	-0.018270053
7	0xbdadd2d7	-0.0848748
8	0xbe64cd91	-0.22344042
9	0x3e38ce68	0.18047488
10	0xbe350af9	-0.17679967
11	0x3d78faf5	0.060786206
12	0xbe973353	-0.29531345
13	0x3eca1d3a	0.39475423
14	0x3e8d798a	0.2763179
15	0x3dd0170d	0.101606466
16	0xbe88a7f9	-0.26690653
17	0x3e191128	0.14947951
18	0x3e987e1a	0.29783708
19	0x3d3a07fe	0.04541778
20	0x3db42d50	0.08797705
21	0x3d88b17d	0.06674478
22	0x3e8bc025	0.27295032
23	0x3da4cf7c	0.08047387
24	0x3d6ad421	0.05733121
25	0x3da1454b	0.07874545
26	0x3eadd090	0.33948183
27	0x3e0d4a30	0.13797832
28	0x3e36f5fc	0.17867273
29	0xbe987284	-0.29774868
30	0x3e84127b	0.2579535
31	0x3e07b49b	0.1325249
32	0x3c590af5	0.013247241
33	0xbd8070c3	-0.062715076
34	0xbd10c5b6	-0.0353448
35	0xbe8fceb5	-0.28087392
36	0xbeb2905d	-0.34875765
37	0x3de82dc2	0.113368526
38	0x3e047a09	0.12937178
39	0x3e1f48ef	0.15555166
40	0x3e39e417	0.18153416
41	0xbd1e45e3	-0.038640868
42	0xbda2e54b	-0.079538904
43	0xbe82eff4	-0.25573695
44	0x3e4f826a	0.20264593
45	0x3d8947ff	0.06703185
46	0xbce8d9b8	-0.028424129
47	0xbe34126b	-0.17585151
48	0x3e257124	0.16156441
49	0x3d9ffbc1	0.0781169
50	0xbe074474	-0.13209707
51	0x3cbf7ddc	0.023375444
52	0x3d654b8f	0.05598026
53	0x3e7c5afb	0.24644081
54	0x3f0fa5fb	0.5611264
55	0xbd8dd966	-0.06926231
56	0x3ed1093c	0.40827358
57	0xbd8f93cc	-0.07010612
58	0x3e069d21	0.13145877
59	0x3d722267	0.05911484
60	0x3d6efe5b	0.05834804
61	0x3e69a000	0.22814941
62	0x3d9598fe	0.073045716
63	0x3e7ada57	0.24497353

weight f4 [1, 64]
0	0x3eeab83b	0.45843682
1	0x3f9d8164	1.2305112
2	0xbf272193	-0.65285605
3	0x3eec9e7a	0.46214658
4	0x3f1c328d	0.61014634
5	0x3ea5a1b8	0.32349944
6	0xbf362315	-0.7114728
7	0xbeafd49d	-0.343419
8	0xbec80b1c	-0.39070976
9	0x3f086b49	0.53288704
10	0xbec09d82	-0.3762017
11	0xbf4c17da	-0.79723895
12	0xbf051b95	-0.5199521
13	0x3ef19b10	0.47188616
14	0x3f0aab25	0.54167396
15	0x3ebc9711	0.36834005
16	0xbedfe40d	-0.43728676
17	0x3eed9e54	0.46409857
18	0x3f0f0bb9	0.5587726
19	0x3f055530	0.5208311
20	0xbf11feb0	-0.5702925
21	0xbefc29a6	-0.49250525
22	0x3ee4c4b2	0.44681317
23	0x3f068402	0.5254518
24	0x3eb2889a	0.34869844
25	0x3eb25927	0.34833643
26	0x3f24b617	0.6434035
27	0x3e9088d4	0.28229392
28	0x3ee1fffd	0.44140616
29	0x3f88d988	1.0691385
30	0x3eeb620f	0.4597325
31	0xbf997fcf	-1.1992129
32	0x3f817422	1.0113566
33	0xbebefe9a	-0.3730362
34	0x3f4d2330	0.80131817
35	0xbed677cd	-0.41888276
36	0x3f784d41	0.9699288
37	0x3f02be7f	0.51071924
38	0x3eb89c97	0.3605697
39	0x3ee0b456	0.43887585
40	0x3f529a37	0.82266563
41	0xbef535da	-0.47892648
42	0xbed6677a	-0.4187582
43	0xbea2c726	-0.31792563
44	0xbf494070	-0.7861395
45	0xbf082c15	-0.53192264
46	0xbf199df0	-0.6000662
47	0xbefbbe36	-0.49168557
48	0x3e99d541	0.30045512
49	0xbf568dbd	-0.83810025
50	0xbf6cb087	-0.9245686
51	0x3f4155bb	0.7552144
52	0xbed947ed	-0.42437688
53	0x3f08b75e	0.53404796
54	0x3f46bbcc	0.77630305
55	0x3ee09e0d	0.43870583
56	0x3f11755a	0.5681969
57	0xbeefdba9	-0.46847275
58	0xbf022ce6	-0.5084976
59	0x3e88697c	0.26642978
60	0x3ecdf387	0.4022486
61	0x3f0759e3	0.5287153
62	0x3f0a30b9	0.53980595
63	0x3f08de93	0.5346462
