DDPG/data/exp/Swimmer-v3/2022-06-30-08-48-22_actor.pt (torch, 22615 bytes, 6 tensors)

weight f4 [64, 8]
000000 43 78 15 3e 3b f7 4e 3c 95 ba 33 bf b1 2b 9f 3e
       0.14596657 0.0126321865 -0.70206577 0.3108802
000010 f1 f5 f8 be aa 9f 12 3f c9 2f 21 bf fa a8 a4 3e
       -0.48625138 0.5727488 -0.6296354 0.3216017
000020 97 22 f0 3e 68 ba 3e 3f 12 1b 8a 3e c5 bd 49 3e
       0.4690139 0.74503183 0.26973778 0.19701298
000030 d5 ae be 3d f6 b2 e5 be 3b b2 95 be b2 ce 8a be
       0.0931069 -0.448631 -0.29237542 -0.2711082
000040 ff e8 b7 bd 99 2a ff be c6 04 e1 3e 2c 6e a3 3e
       -0.08979987 -0.49837187 0.43948954 0.31919992
000050 06 2e 87 bf 2d 2d 1d 3f 08 1b e0 3d 09 bf 11 3f
       -1.056092 0.6139706 0.10942656 0.5693212
000060 d4 e6 c4 3e dc ed 15 3e 27 30 0f 3f 01 e5 82 3f
       0.38457358 0.14641517 0.5593285 1.0226136
000070 55 81 1e 3e 43 a1 43 3f 15 a4 75 be d8 22 22 3e
       0.15479024 0.7641794 -0.23988374 0.15833604
000080 c4 e1 b6 3e 3e ad e8 be 2a 98 30 bf bb b8 b5 be
       0.3571912 -0.45444673 -0.68982184 -0.354925
000090 52 3c 7e 3e 67 d8 02 bc 67 e8 71 be 22 92 50 3f
       0.24827698 -0.007986165 -0.2362381 0.8147298
0000a0 b5 e0 97 3e f7 63 ff 3e 5d 8e b4 be da d9 47 be
       0.29663625 0.49880955 -0.35264865 -0.19516698
0000b0 3f 33 28 be 05 81 24 bf b7 73 60 be 61 2a 8c be
       -0.16425799 -0.6425937 -0.21919142 -0.27376083
0000c0 1b 65 81 bd 8f 21 c4 3d af 21 fc be b0 ec 74 3f
       -0.063181125 0.09576713 -0.4924445 0.95673656
0000d0 ba c4 a3 3f 3c 6a f2 bd 09 1d db be f6 76 0a 3c
       1.2794411 -0.11836669 -0.4279559 0.008451214
0000e0 4f 3f fb 3e f0 4a 3d 3f 2a 56 5a 3e ad 98 04 bb
       0.49071738 0.7394247 0.21321931 -0.0020232603
0000f0 63 13 d9 be ac 20 3d bf dd d7 f0 3d 41 78 87 be
       -0.42397603 -0.7387798 0.11759923 -0.26458934
000100 81 b8 3d 3d 52 0c fc be d5 9b e8 3d 88 7e b9 3e
       0.046318535 -0.4922815 0.113578476 0.36229348
000110 ee 34 67 bf 4a e8 30 3f 2b 23 0d be 31 db 29 bf
       -0.9031514 0.69104445 -0.13782947 -0.66350085
000120 31 31 ce 3e 31 91 db 3d c6 4d 42 3c b6 dd 3b be
       0.40271905 0.107210524 0.011859363 -0.18346295
000130 40 50 d9 be 45 40 4e 3f b5 ca 4c 3f 63 a6 e0 3e
       -0.42444038 0.8056682 0.79996806 0.43876943
000140 3d df 0d 3e a6 69 5b 3f 5f 8f 9b be 0d c0 aa bd
       0.1385469 0.8570808 -0.3038282 -0.08337412
000150 3d ed 29 3d 22 fd 8e 3c cd d9 52 3f c7 bd 15 bf
       0.041486014 0.017454688 0.8236359 -0.584927
000160 af eb db bd fd 87 f6 3d 5c 24 57 bf 79 1e d7 3e
       -0.107383125 0.120376565 -0.84039855 0.42015436
000170 7b ae 92 3f f7 a1 2b bf fb 14 ad 3f 97 1f ab 3d
       1.1459497 -0.67044014 1.3522028 0.08355635
000180 aa c0 c2 be 05 d7 0d 3d 7e 68 91 3f 6d 89 89 3d
       -0.38037616 0.034628887 1.1360013 0.06715665
000190 c9 d9 8f bf 62 24 0e 3e 94 5b 27 be e0 37 b9 3f
       -1.1238338 0.13881066 -0.16343528 1.4470177
0001a0 b9 a9 37 bf b7 d9 48 3f 7d c4 ba bf e5 ab 8b bd
       -0.7174335 0.78457206 -1.4591213 -0.06819896
0001b0 81 4c 24 bf ab 6b a1 be 9d ec 5c be 53 93 98 3e
       -0.64179236 -0.31527457 -0.21574636 0.297999
0001c0 66 c8 d9 3e b4 41 47 3f ba 74 c8 3e 11 f2 0b 3f
       0.42535704 0.7783463 0.39151555 0.5466624
0001d0 13 06 92 3f d3 23 46 bf 5f 4f 85 3f d3 d7 2c be
       1.1408104 -0.77398413 1.0414847 -0.16879205
0001e0 20 56 c9 bd 43 0c 5b be df 8a 37 3e ff a5 1b bf
       -0.0983088 -0.21391396 0.17924069 -0.60800165
0001f0 90 1b a5 bc 8b 21 1e bf 3c 15 85 3e ae 5d 6e bb
       -0.020154744 -0.6176993 0.25992763 -0.0036371755
000200 e2 74 22 3f 51 a1 c4 be 9c c3 ed 3e d4 98 83 3d
       0.634596 -0.38404325 0.464383 0.06425634
000210 f0 c0 98 3f 45 84 1f bf 34 a9 38 3d 66 20 3f bf
       1.193388 -0.623112 0.04508324 -0.7465881
000220 c0 2c 05 3f 30 f0 a5 3e 2a 89 ae 3f 7c 54 2e 3d
       0.5202141 0.3240981 1.3635609 0.04256104
000230 cb ae 0f bf dc 31 97 bd 57 ba dc bc 17 54 0d be
       -0.5612609 -0.07382557 -0.026944323 -0.13801609
000240 55 af fe 3e 78 02 07 3f 97 79 ad 3e 36 f2 96 3d
       0.49743143 0.5273814 0.33881828 0.07370417
000250 97 1f 37 bf da 7f a3 be 63 3c 0c 3f 3e 3b 61 3f
       -0.7153258 -0.3193348 0.5477964 0.8798102
000260 f1 f3 1c be 70 80 4d be 0c c2 bf 3e b3 fb 57 3b
       -0.15327431 -0.20068526 0.37452734 0.003295642
000270 7b e8 7e 3f 97 5d 7e be 9e 8a 00 3f 4f 78 6b bd
       0.9957349 -0.24840389 0.50211513 -0.057487782
000280 fd 70 c4 be 24 4d 44 3c 72 d7 22 bf e5 9e f8 bb
       -0.38367453 0.011981282 -0.63609993 -0.007587301
000290 28 26 83 3f d3 39 07 bc 2d 78 e4 bc 2d 2b d4 3e
       1.0246019 -0.008253532 -0.027889336 0.4143919
0002a0 fd 15 a2 be a3 cb 0f bf 3a 7d 93 3e 78 7a dd 3e
       -0.316574 -0.561701 0.28806478 0.432575
0002b0 b5 94 17 bf a4 8e 5d 3b b0 6f 33 bd 83 fd 07 3e
       -0.59211284 0.0033806944 -0.043807685 0.13280301
0002c0 92 3e e5 3e fd 29 85 3f ff 6d f9 3e 86 9a e0 be
       0.447743 1.0403439 0.48716733 -0.43867892
0002d0 6b 1f b9 be 0d 4d f3 3e 3a 30 bf be 82 f4 d9 bd
       -0.36156783 0.47519723 -0.3734148 -0.10642339
0002e0 c8 f4 06 bf 4e e1 96 3e a0 ae f7 3e a4 85 49 3f
       -0.52717257 0.2946877 0.48375416 0.78719544
0002f0 35 9b 9b be 41 0c 9d bf 7a c1 9f 3e 0c 76 12 3e
       -0.3039185 -1.2269365 0.31202298 0.14302844
000300 88 78 81 3e 04 86 d0 3c a9 50 e2 3e 74 c1 c1 3f
       0.2528727 0.025454529 0.44202164 1.5137162
000310 6e 89 a8 bd c8 20 1a bf 25 c6 ad bd 29 75 11 3f
       -0.08229338 -0.6020627 -0.08485059 0.568194
000320 7e 9b c1 bc ff 39 b8 bd 46 c4 6c be 5d ec e7 bf
       -0.023633715 -0.08995437 -0.23121747 -1.8119007
000330 36 52 cc 3f aa 02 1f c0 e6 3f d6 3f d2 07 9d be
       1.5962589 -2.4845376 1.673825 -0.3067003
000340 e0 e4 f9 3e b5 6d cf bf f7 8e c1 3e 8c 17 6a 3e
       0.4880743 -1.6205355 0.37804386 0.22860545
000350 2d f9 ce 3f c6 a7 ad bd d9 af 33 3e 2c 11 01 bf
       1.6169792 -0.08479266 0.1754755 -0.5041683
000360 7e 26 6b 3e 81 ce a6 bc e7 fa 54 3e 6d 42 15 3f
       0.22963902 -0.02036214 0.20798837 0.5830448
000370 c1 11 89 be 89 00 4d 3f 93 77 24 3e a6 fd b8 be
       -0.26771358 0.8007894 0.16061239 -0.36131018
000380 f8 f0 1d 3f 51 3c e9 3d 4d 17 9c 3e 61 1d b8 be
       0.61695814 0.113884576 0.30486527 -0.35959914
000390 1b 1e c1 3f f6 b5 11 bf 32 4b 0d be 70 53 18 3f
       1.5087312 -0.56918275 -0.13798216 0.59502316
0003a0 21 40 3c be 4a 28 a1 3f 42 15 ba 3f 11 0a 0b be
       -0.18383838 1.259042 1.4537737 -0.13578059
0003b0 36 ac 00 40 3e 5c 55 bf 27 1c 19 3f d8 e5 a1 3f
       2.010511 -0.83343875 0.5980858 1.2648268
0003c0 17 da aa be 40 7f 86 be 80 6d 82 bf 0b fc 49 3d
       -0.33369514 -0.2626896 -1.0189667 0.049312633
0003d0 8a c5 7a 3f 69 fc 87 be 41 67 03 3c ad c5 23 3f
       0.9795767 -0.2655976 0.008020223 0.63973504
0003e0 e7 cf c7 bd a5 71 a2 3b 07 0a 48 bf 34 fa 5b 3f
       -0.09756451 0.004957395 -0.781403 0.85928655
0003f0 7f 34 ab 3d 5e c1 1d 3f 07 78 29 3f 8a 69 ec bd
       0.08359622 0.6162318 0.6619877 -0.115435675

bias f4 [64]
000000 55 be 92 3f b9 0c db 3d c8 96 14 3f b1 68 31 bf
       1.1464335 0.10695786 0.58042574 -0.6930037
000010 88 25 07 bf 5b 01 26 bf 10 dc 50 bf a3 8b a7 be
       -0.52791643 -0.6484582 -0.8158579 -0.32723722
000020 fa b1 93 3f 24 5a 57 3e e6 ad 97 be 8c 47 0a bd
       1.1538689 0.2103048 -0.2962486 -0.03375964
000030 8c 54 b6 bc 75 25 18 3f 41 6d e9 bd f4 11 28 bf
       -0.022257112 0.59432155 -0.11397792 -0.65652394
000040 fd 91 31 bf a4 d3 07 be ef 25 ff 3d d3 4b a6 3f
       -0.69363385 -0.13264328 0.12458407 1.299189
000050 50 f9 de bd 90 42 60 3e b3 35 cc 3d 3a 14 2a bf
       -0.10887396 0.21900392 0.0997118 -0.66437113
000060 45 5f 32 3f d1 27 85 3e 25 6f 3c be 01 f8 48 bf
       0.6967662 0.2600694 -0.18401773 -0.78503424
000070 44 92 3f be ae 22 1c bf c9 5a 19 3e 05 2a 4f bf
       -0.1870814 -0.60990417 0.14976038 -0.8092349
000080 0a 7d 53 3f 79 90 35 bf ca 77 00 3f cd 7e 2e 3f
       0.8261267 -0.7092357 0.50182784 0.6816223
000090 92 97 1d 3f 14 e4 d5 3e 43 79 b1 be ae 09 fe 3e
       0.615594 0.41775572 -0.34662828 0.4961676
0000a0 fd c3 c2 bd 17 bf 08 3d d8 62 65 3f e9 87 24 bf
       -0.09510038 0.033385362 0.8960395 -0.6426988
0000b0 7e 49 49 bc 5e db d4 3e 15 e6 b5 3e 04 f1 bb be
       -0.012285588 0.41573614 0.355271 -0.36707318
0000c0 59 31 b5 be 68 56 de be b7 fc 8e 3e 79 2a 40 3f
       -0.35389212 -0.43425298 0.2792718 0.7506481
0000d0 9a af 55 bf 31 a8 1a bf 9b 62 7a 3e fe e0 2f bf
       -0.8347107 -0.6041289 0.24451678 -0.68702686
0000e0 2b 9e c3 be e2 13 95 3f fb ff 27 bf b6 eb 40 bf
       -0.3820661 1.1646693 -0.6562497 -0.75359666
0000f0 4a 7a 0a bf 7e 04 6f 3e a7 d8 22 be e7 b9 33 be
       -0.5409285 0.23341557 -0.15902959 -0.17551385

weight f4 [64, 64]
000000 d4 1e 82 be 13 f4 73 3f 31 ea 02 be af c2 0b 3f
       -0.25414145 0.952943 -0.1278465 0.5459394
000010 cc 9f 12 3f 29 9a 9d 3e 53 65 15 3f 19 3f 00 3f
       0.5727508 0.30781677 0.58357733 0.5009628
000020 43 68 3f be fb 1e 74 3e 12 57 c7 3e 14 9e f5 bd
       -0.18692116 0.23839943 0.38933617 -0.11993042
000030 7d d1 a3 be 80 f4 53 3c a2 8f 30 3f 11 b6 34 3f
       -0.31995764 0.012936711 0.68969166 0.7059031
000040 74 12 e4 3e b2 0f c9 bd 2b 0c 21 3f c0 05 13 bf
       0.4454533 -0.09817447 0.6290919 -0.5743065
000050 dc 7e 11 3d ed 02 21 bf 71 b9 94 be 5b 29 7a 3e
       0.035521373 -0.6289509 -0.2904773 0.24429838
000060 16 a4 70 be 61 a9 6f be 18 b4 33 bd f2 df 32 3e
       -0.23500094 -0.23404457 -0.043872923 0.17468241
000070 38 6d a7 bd 7d 1b 82 3e 97 47 2b 3d a7 7c 44 3e
       -0.08175129 0.25411597 0.04181632 0.19188176
000080 56 f4 12 be ac 8e 89 3e 72 b6 aa bd b9 0d a0 3e
       -0.1435102 0.26866663 -0.0833558 0.3126047
000090 55 3c 87 3d 2f 33 83 3d 3b ae 0c be a0 6d 82 3c
       0.06603304 0.06406247 -0.13738339 0.015921414
0000a0 b8 0f 89 3e 43 fc c0 bd 7a a8 33 bf 4e a5 a8 3e
       0.26769805 -0.09423115 -0.7017895 0.32938617
0000b0 26 f1 95 be b8 ee a9 bf 24 7e e9 bd 12 ce 4a bc
       -0.29285544 -1.3275976 -0.114010125 -0.012378233
0000c0 27 fa 54 3e e1 49 ac be fd e3 11 bf bf 8b 3a 3e
       0.2079855 -0.33650115 -0.5698851 0.18217371
0000d0 ca 9a ea 3e f3 8d 71 be f2 00 ae be 88 33 cc 3e
       0.4582122 -0.23589306 -0.33985096 0.39883065
0000e0 32 c9 97 3d b1 2b a2 bf 1d 8c 09 3e 86 c3 cf 3e
       0.07411422 -1.2669584 0.13432355 0.4057886
0000f0 d3 34 3f be 2d 3b 23 3e bb 07 e5 bd 86 74 c4 3d
       -0.18672495 0.15940543 -0.11183115 0.095925376
000100 85 0a c9 3d ac 8f 07 40 b4 1a 62 bf 2a c3 e6 3e
       0.098164596 2.118144 -0.88321996 0.45070773
000110 e4 95 e2 be 98 36 ca 3f fe 1e fc bd f3 42 c3 3f
       -0.44254982 1.5797911 -0.12310599 1.5254806
000120 7f f3 61 be a1 a4 da bc 19 7b 82 3f f5 7f 14 bf
       -0.22065543 -0.02668983 1.0193816 -0.58007747
000130 7c 7a 28 3f b6 a5 f5 3e e1 ce 95 3f a8 b9 ad bc
       0.65811896 0.4797799 1.170376 -0.021206692
000140 46 f7 93 be 67 fd f3 3e 6b 91 c2 3e 81 1d 93 3e
       -0.28899592 0.47654268 0.3800157 0.28733447
000150 76 fe bc 3e 09 10 9c bf 1c dc e2 3f 92 17 f3 3e
       0.36912888 -1.2192394 1.7723422 0.4747892
000160 d4 9e 48 3e 6d 20 2f 3f 43 03 3c be cf 44 b6 3e
       0.19591838 0.6840885 -0.18360619 0.35599372
000170 b6 93 8b be 90 13 33 3e e9 28 ee be 74 c9 39 be
       -0.27261132 0.17487931 -0.46515587 -0.18143255
000180 3a 22 1b 3f 6d 0c c5 be 58 9e 9a 3e ef d0 62 be
       0.605991 -0.38486043 0.30198932 -0.22150014
000190 b9 f8 d5 be 3c 0a 57 3e 00 56 8a be 44 15 7f 3d
       -0.41791323 0.20999998 -0.27018738 0.06227614
0001a0 9e b5 3a bf 42 e1 25 3f 27 55 61 bf 67 d1 4b 3f
       -0.72933376 0.6479684 -0.8802056 0.796164
0001b0 7a 0f f0 be b0 a0 47 bf ee 2d 13 be 72 44 8a bf
       -0.46886808 -0.77979565 -0.1437299 -1.0802138
0001c0 60 a8 e4 3f ea c7 25 be ed 5b 0e bf 50 e0 8c 3f
       1.7863884 -0.16189542 -0.5560902 1.1005955
0001d0 24 30 d7 be e7 2e 5e 3f 13 59 bb 3d be 5e 3a 3e
       -0.42028916 0.8679032 0.09147849 0.18200204
0001e0 6b 1f 9e 3e 48 65 df 3e 1a 9e 2d bf 47 0f a7 bd
       0.30883345 0.4363196 -0.6781937 -0.08157211
0001f0 67 12 77 be c2 68 b5 3e b3 9f 3e 3f f3 74 4a bf
       -0.24128114 0.35431486 0.7446243 -0.790847
000200 a4 e6 46 3f 1d 94 33 3e fc 88 39 3f bd e6 f8 3e
       0.7769568 0.1753697 0.72474647 0.4861354
000210 1d ee b4 bd 86 32 30 3e 2f 7e c9 3e 0e 01 be 3e
       -0.08834479 0.17206773 0.39354083 0.3711018
000220 10 90 d9 3d f7 11 a8 bd 33 f4 23 3d cc 8d 1c bf
       0.10623181 -0.082065515 0.04002781 -0.61153865
000230 72 2c 1e bf a2 8d 76 be bb c8 bd 3e d1 60 15 be
       -0.6178657 -0.24077466 0.37067208 -0.14587714
000240 aa 97 d5 3e 74 25 b3 3f 14 50 57 3f 1b 86 33 bf
       0.41717273 1.3995805 0.84106565 -0.70126504
000250 19 87 8c be 91 b7 af be ee 16 d0 3d a3 ac b0 3d
       -0.2744682 -0.34319738 0.101606235 0.08626678
000260 c0 61 19 bf 37 1d ea be d6 a1 d5 3e a7 7f 13 bf
       -0.5991478 -0.45725414 0.41725034 -0.57616657
000270 7f 61 21 3f 82 04 d2 be 17 87 80 be 46 db 04 be
       0.6303939 -0.41019064 -0.25103065 -0.12974271
000280 f7 ef 04 bf e6 02 a8 bf 9a 71 6a be d8 85 67 3e
       -0.5192866 -1.3125885 -0.22894898 0.22609651
000290 60 90 42 3e 7c 72 ad 3e 96 8f 7a 3e 7d f5 25 3f
       0.19000387 0.33876407 0.24468836 0.6482771
0002a0 60 87 44 3e a3 51 8d bd 8c 3e 5d 3e b8 b6 87 be
       0.19192266 -0.069003366 0.21605891 -0.2650659
0002b0 10 1a b4 3e 64 87 f8 bd 14 90 c5 3f bf f2 ed 3e
       0.35176134 -0.12135199 1.5434594 0.46474263
0002c0 f2 19 9c 3d a4 1d 01 3f cb 96 d0 3d 6d e1 aa 3e
       0.07622136 0.50435853 0.101850115 0.3337511
0002d0 78 2e 81 bf ec 9e 1e be 81 71 6c be 1c 9f 7f 3f
       -1.0092306 -0.15490311 -0.23090173 0.99852157
0002e0 2e 01 78 3f fc 4e 40 be 72 ea 1c bf c9 37 15 3f
       0.968768 -0.1878013 -0.61295235 0.58288246
0002f0 d6 dc 89 3e 57 7c 31 3f 13 30 87 3e df 97 3a 3f
       0.26926297 0.6933035 0.26403865 0.72887987
000300 14 97 6f 3f 10 62 b4 3e 43 54 e9 3e 9c 60 ba be
       0.935899 0.35231066 0.455721 -0.36401832
000310 28 8b c4 bf 7a c4 a1 3e 3a b6 a1 be 69 1a c0 3e
       -1.5354967 0.31595212 -0.3158434 0.3752015
000320 93 f2 ce 3e 44 8c 99 3e 84 90 5c be 36 1f e6 3e
       0.40419444 0.29989827 -0.21539503 0.44945687
000330 7a d3 6e 3e 9f 57 ee 3e 8d bf 1a bf 85 fc 5f be
       0.2332286 0.46551225 -0.60448533 -0.21873672
000340 dc 3e 1c bf b2 3e 8d be 26 59 66 3e 2f 16 99 3f
       -0.61033416 -0.27586895 0.22494945 1.1959895
000350 64 fc f4 bc 2e 8b d2 be 28 99 72 be d4 9d 0f bf
       -0.029905505 -0.4112181 -0.23691237 -0.561002
000360 05 a8 98 bb ef 70 0f 3f 28 63 21 be 3c 11 80 bd
       -0.0046587014 0.560317 -0.15760481 -0.06253287
000370 8f f6 fd 3d 77 20 8e bc 86 5a 3a 3f 5f fb 0d bf
       0.12400543 -0.017349465 0.7279438 -0.55461687
000380 5b ec 34 3f 22 6a 22 be 09 83 ef 3c 93 3b d9 be
       0.7067315 -0.15860799 0.029237287 -0.42428264
000390 49 5d 17 be 83 41 d7 bd 79 b2 16 3f d0 e7 74 3e
       -0.14781679 -0.10510542 0.5886608 0.23916554
0003a0 02 0e da bf 62 1f 55 3f c4 8d c5 bd 35 6e 3a bd
       -1.7035525 0.8325101 -0.0964618 -0.045515258
0003b0 ff f4 52 bf e8 c9 fd 3e ad 6a 97 3c e0 3d 46 be
       -0.82405084 0.49568105 0.018483484 -0.19359541
0003c0 5e 4c a2 bf 09 09 0b bf be 25 3e 3e 7b a4 67 3f
       -1.2679555 -0.5431066 0.18569085 0.9048535
0003d0 38 c0 05 bf 87 01 90 3e 9b 1f 5d 3e f9 1d c2 bf
       -0.5224643 0.28126165 0.21594088 -1.5165397
0003e0 87 2a 05 be 65 26 79 be 50 df be be 4d b9 c8 be
       -0.13004504 -0.24331053 -0.3727975 -0.39203873
0003f0 4f af 39 bf 8e 51 b6 3e fe 8c 1d bf dd a2 90 be
       -0.72533125 0.35609096 -0.6154326 -0.28249255

bias f4 [64]
000000 4c 0a ca be 91 ec 85 be 97 1e 96 3e f4 e9 36 3f
       -0.3946098 -0.26157048 0.29320213 0.71450734
000010 15 89 53 be 25 b2 e1 bc 94 bb 90 be 83 d4 3a 3e
       -0.20657761 -0.027550766 -0.2826811 0.1824513
000020 f3 e5 a3 be 33 05 77 bc 11 0d 15 3e f4 1a c2 3d
       -0.32011375 -0.015076923 0.14555766 0.09477797
000030 f3 60 b1 3e 17 b2 f3 3d e3 94 00 3d 1c d5 a3 3e
       0.3464428 0.11899202 0.03139199 0.31998527
000040 63 8a 7b bd 78 10 80 be 5d 3a 05 be bc 03 7f be
       -0.061411273 -0.25012565 -0.13010545 -0.24903768
000050 3f f2 68 3c 7d 1a ed 3a 6b 32 bc 3e 87 47 f8 3d
       0.014217912 0.0018089559 0.36757216 0.12123018
000060 8d 52 d6 3e 9c cc 39 bd ee 7f eb 3d 34 2e 22 bd
       0.41859856 -0.045361146 0.1149901 -0.039594844
000070 dc 59 11 3d 7b 61 63 3d d6 22 39 be eb 53 58 be
       0.035486087 0.055512886 -0.18079695 -0.21125762
000080 2c cf d2 be a7 93 52 3e 0b 57 8f ba 13 7a 11 bf
       -0.41173685 0.20564137 -0.0010935975 -0.56826895
000090 c4 03 31 bd f0 55 18 bf ef e5 cb bd 66 98 10 3e
       -0.04321648 -0.5950613 -0.09955966 0.14120635
0000a0 e8 ea b8 3d 94 e9 5e 3d 00 07 0f 3f 4d 8b a3 be
       0.0902918 0.054421976 0.55870056 -0.31942216
0000b0 07 85 a8 3d 96 e4 02 bd 1e 58 10 3f bf f9 7d 3f
       0.08228498 -0.031956278 0.56384456 0.9920921
0000c0 cc 1d 87 bd c7 2d e8 bd 5a f6 8b 3c 5e 60 7e be
       -0.0659748 -0.11336856 0.017085243 -0.24841449
0000d0 16 bb 03 3f 41 af 0e 3f ca f6 76 be 88 5a cb 3e
       0.51457345 0.55736166 -0.2411758 0.39717507
0000e0 d1 1f ee 3d 7f ac 4d 3e 2b 35 22 3e ed 16 62 3e
       0.11627162 0.20085333 0.15840594 0.22079058
0000f0 aa b7 8d 3e d1 cc 63 bf 35 d7 b8 be 04 dc 91 3e
       0.27679187 -0.889844 -0.3610169 0.2848817

weight f4 [2, 64]
000000 8d eb a7 3f 5c 3d dc bf 87 42 4e bf cd 21 07 bf
       1.3118759 -1.7206225 -0.8057026 -0.5278595
000010 84 a9 b8 bd 94 5a 47 3f 0d 45 8c bf 6f 3f 9d bf
       -0.090167075 0.77872586 -1.0958573 -1.2284983
000020 81 88 93 3d 36 4c 8c be 85 b3 7f bf a9 c2 2b 3f
       0.072037704 -0.27401894 -0.998833 0.670939
000030 cc b7 0a bf c1 64 f7 be 23 f3 02 40 3f da 74 3f
       -0.541867 -0.48319057 2.04609 0.9564552
000040 e6 2c 14 40 3e d8 72 3f 00 db 9c bf a3 89 bd 3e
       2.3152404 0.9486121 -1.2254333 0.3701907
000050 88 86 17 3f 56 20 1a 3f f5 06 69 be fc f4 8d bf
       0.59189653 0.6020559 -0.2275656 -1.1090388
000060 46 ef fb be 0a e1 5e 3f ba 58 9e 3e e3 4d b5 3f
       -0.4920599 0.8706213 0.30927068 1.4164394
000070 8d 66 3b bf 07 69 72 3f e2 af 52 3f f1 3d a1 3f
       -0.73203355 0.9469151 0.82299626 1.2597028
000080 e9 7a 65 be ef c1 e4 bf 53 d0 1b bf 02 c2 89 3f
       -0.22410168 -1.7871684 -0.6086475 1.0762331
000090 69 38 76 3f e9 5e 98 bf ea b6 35 3f 85 63 c4 3f
       0.96179825 -1.1903964 0.7098223 1.5342871
0000a0 3f 47 e8 3c 3c 03 ea 3f 8b 59 25 3f f4 c8 33 bb
       0.028354285 1.8282237 0.64589757 -0.002743301
0000b0 9d 96 03 c0 78 70 f9 be 1e 19 17 40 f3 96 50 3f
       -2.0560677 -0.4871862 2.360908 0.8148033
0000c0 d8 3e 7e be e4 97 03 c0 cd a6 c8 3d fc dc ad bf
       -0.2482866 -2.0561457 0.0979744 -1.3583064
0000d0 ff 13 b2 3f 05 30 c6 bf f5 46 14 3f ad 79 9f 3f
       1.3912352 -1.5483404 0.5792077 1.2459008
0000e0 4d 7d 8d 3f bb 5a 06 bf 61 09 3e bf a4 ef a9 bf
       1.1053864 -0.52482194 -0.7423306 -1.3276258
0000f0 11 b3 af 3f 0d 3c ab 3f b4 2c 35 3d 43 10 80 bf
       1.3726522 1.3377701 0.044232085 -1.0004963
000100 49 ad 13 3f 77 0d 93 3f 7f 06 aa 3d 1f 28 a1 3f
       0.5768629 1.1488484 0.0830202 1.2590369
000110 55 0e 9d bf 9d f5 20 3f 15 0d 40 be ae dd 01 3e
       -1.2269999 0.62874776 -0.1875499 0.1268222
000120 0d b2 ce 3f 83 75 b4 bf 0e 54 01 bf 37 b9 8c bf
       1.6148087 -1.4098362 -0.5051888 -1.0994023
000130 8e fb 82 bf a1 7d c3 3f c1 f4 c2 be f6 55 34 bf
       -1.0233018 1.5272714 -0.38077357 -0.70443666
000140 14 f6 05 bd 54 5c 04 3f f9 37 bb 3d 06 06 b4 bf
       -0.03270538 0.5170338 0.09141535 -1.4064338
000150 4d b9 7f bf fd 0c 82 bf 60 98 59 3f 1f 7c 62 bf
       -0.9989212 -1.0160214 0.8499813 -0.88470644
000160 0b 11 b7 bf 31 7a a6 bf 7d 2d 44 bf b6 d5 8e be
       -1.4302076 -1.300604 -0.7663191 -0.27897424
000170 a5 57 b9 3f cc 4d ac bf ba d3 c6 bf 62 dd 33 3f
       1.4479872 -1.3461242 -1.5533364 0.7025968
000180 9b 6b 93 bf 11 38 eb be c5 30 6d 3f eb 3f 98 3f
       -1.1517214 -0.45941213 0.9265254 1.1894506
000190 02 c5 e9 bd 16 d6 64 3e 1a bd 67 bf 9e b1 7d 3d
       -0.114145294 0.22347292 -0.9052292 0.061936967
0001a0 dc 67 c6 bf de 3f 18 bf 61 c4 3f 3f 69 45 02 40
       -1.5500445 -0.59472454 0.74909025 2.0354865
0001b0 6f 5c ad 3e f8 13 4f 3f 03 a5 87 bf f8 01 0a bf
       0.33859584 0.80889845 -1.0597233 -0.53909254
0001c0 72 10 5d 3f ae e4 15 bf c4 ff 86 3f bf 59 2b bf
       0.8635322 -0.5855206 1.0546803 -0.66933817
0001d0 5f 44 1d be 24 83 81 3d 72 48 5a 3f 23 5a 86 3e
       -0.15358113 0.06323841 0.8526679 0.26240644
0001e0 a8 5e e2 be 7b f4 e8 bf 06 f4 18 3f c8 48 1f bd
       -0.44212842 -1.819961 0.5974735 -0.03888777
0001f0 49 ba 1d bf af 22 fe bc b9 50 a3 3f a8 50 5e 3f
       -0.61612374 -0.031022398 1.275901 0.8684182

bias f4 [2]
000000 d9 d1 32 bf ae 04 a3 be
       -0.6985145 -0.31839508
