TD3/data/exp/InvertedDoublePendulum-v2/models/2022-07-08-03-38-59critic.pt (torch, 505547 bytes, 5 tensors)

weight f4 [400, 11]
0	0xbe34e2ae	-0.17664596
1	0xbe021e9c	-0.12706989
2	0x3de9efa4	0.11422661
3	0x3d302b20	0.043009877
4	0xbe7befcb	-0.24603193
5	0x3e95c66b	0.29252943
6	0x3e8ca7b7	0.27471706
7	0xbd2284f7	-0.039677586
8	0x3d24834d	0.04016428
9	0xbd2982e8	-0.041384608
10	0xbc821290	-0.015877992
11	0x3e91c95a	0.28473932
12	0x3df7de67	0.12102967
13	0x3ee0d84e	0.43915027
14	0x3db549ba	0.08851953
15	0xbdfdb87c	-0.12388703
16	0xbcce56dd	-0.025187904
17	0x3e7f6b48	0.24943268
18	0x3e8365ed	0.256637
19	0x3d76080c	0.060066268
20	0x3e6d12f4	0.23151761
21	0xbd517220	-0.05113423
22	0x3cdcb7c8	0.026943102
23	0xbe68f2bc	-0.22748846
24	0xbe09cf2d	-0.13457938
25	0xbe982bd7	-0.29720947
26	0x3e9b056a	0.30277568
27	0xbe49463d	-0.196557
28	0x3e9b5173	0.30335578
29	0x3e78d13c	0.24298567
30	0xbe903e40	-0.28172493
31	0x3df66e28	0.120327294
32	0xbe94525a	-0.2896908
33	0x3e2dd7b0	0.1697681
34	0xbe083cb5	-0.13304408
35	0xbe7507a5	-0.23928697
36	0xbe512aa3	-0.20426421
37	0x3e838cdb	0.25693402
38	0x3dfa8ab6	0.12233488
39	0xbe0634e2	-0.1310611
40	0xbd997751	-0.07493461
41	0xbe57ca10	-0.21073174
42	0x3e54ac00	0.20768738
43	0x3cae79e0	0.021298349
44	0xbe18acde	-0.14909694
45	0x3e6dc375	0.23219092
46	0xbe6041eb	-0.21900146
47	0xbe8d1134	-0.27552187
48	0x3e8a5343	0.2701665
49	0xbe87767d	-0.26457587
50	0xbdadba15	-0.08482758
51	0xbdb58a43	-0.08864262
52	0xbd18094c	-0.03711824
53	0xbdd54e0a	-0.104152754
54	0xbdc59d02	-0.096490875
55	0xbd9cb650	-0.07651961
56	0xbdd9e77d	-0.10639856
57	0x3e84f1c4	0.25965703
58	0x3e07cf97	0.13262783
59	0x3e2f3b01	0.17112352
60	0x3e4c3fd2	0.1994622
61	0x3e1fe46f	0.15614484
62	0x3e3053fa	0.17219535
63	0xbdbcebc7	-0.092246585
64	0x3e62ea28	0.22159636
65	0xbdf383de	-0.11890386
66	0x3e2a1df7	0.16612993
67	0xbe3242cc	-0.17408293
68	0x3e2ce61b	0.16884653
69	0xbc04309a	-0.008068228
70	0xbe62a4c4	-0.22133166
71	0xbe40d80a	-0.18832412
72	0x3e233d4a	0.15941349
73	0xbe926eb5	-0.28600088
74	0x3e7cb0bc	0.24676794
75	0x3e8b7698	0.27238917
76	0xbe86fd07	-0.2636492
77	0x3ec2d30a	0.38051635
78	0x3d40a6ee	0.047034197
79	0xbe0722f5	-0.13196929
80	0x3b5aebf5	0.0033404802
81	0x3c8dcbcf	0.017309098
82	0xbd87fe99	-0.066403575
83	0x3ccac916	0.024754088
84	0x3d82a8f6	0.06379883
85	0xbe89618d	-0.26832238
86	0x3e561534	0.20906526
87	0x3e84b668	0.25920415
88	0x3e9e3454	0.30899298
89	0x3dfda4d7	0.12384956
90	0x3ea21460	0.3165617
91	0x3e2a891d	0.16653867
92	0xbdaf757c	-0.0856733
93	0x3e279005	0.16363533
94	0x3cd5b0f6	0.026085358
95	0x3e775062	0.24151757
96	0x3d4d27cb	0.050086778
97	0xbe30abeb	-0.17253082
98	0x3dd96194	0.10614315
99	0xbe3e8048	-0.18603623
100	0x3e65865f	0.2241454
101	0xbcc4bf9f	-0.024017153
102	0x3db34d4d	0.08754978
103	0xbe063444	-0.13105875
104	0x3e5e4b4d	0.21708412
105	0x3e933c6a	0.2875703
106	0x3e84872c	0.25884378
107	0x3e7a2631	0.24428631
108	0x3e5f9bac	0.21836728
109	0xbe5e086c	-0.216829
110	0x3e022c12	0.12712124
111	0xbec3c678	-0.38237357
112	0xbecad45c	-0.39615142
113	0x3de67a76	0.11253826
114	0x3dda5220	0.10660195
115	0x3e2d2913	0.169102
116	0xbd81a7a3	-0.06330802
117	0xbe8b4e9e	-0.27208418
118	0xbdb7431e	-0.089483485
119	0xbe6bd698	-0.2303108
120	0x3df2b0e8	0.118501484
121	0xbe5f51d6	-0.21808562
122	0xbccfd84e	-0.025371697
123	0xbeeda819	-0.4641731
124	0xbd3d6ae1	-0.046244506
125	0x3e8e98bc	0.27850902
126	0xbe6dd951	-0.23227431
127	0x3dc8c188	0.09802538
128	0xbdf13ab5	-0.117787756
129	0xbd61bfc5	-0.055114526
130	0x3dd538d2	0.10411228
131	0xbcfbe550	-0.030748993
132	0x3ddb31d3	0.107028626
133	0xbe25aaee	-0.16178486
134	0xbe97ed41	-0.29673198
135	0xbe12229d	-0.14271016
136	0x3e6204ae	0.22072098
137	0x3e3a520d	0.18195362
138	0xbe947b28	-0.2900021
139	0x3d757747	0.059928205
140	0xbd883ad8	-0.066518486
141	0xbe0e380f	-0.13888572
142	0x3e1b81ee	0.15186283
143	0xbd4aafeb	-0.049484175
144	0xbdf31c42	-0.11870624
145	0xbee30510	-0.443398
146	0x3d8bff02	0.06835748
147	0x3e1286d7	0.1430925
148	0x3b9b5cdf	0.0047412957
149	0x3dd63e7f	0.10461139
150	0x3e5b8bb1	0.21440007
151	0xbd7fdf05	-0.062468547
152	0x3e8a7604	0.27043164
153	0x3e83bf22	0.2573176
154	0x3e9db78d	0.308041
155	0x3d9d1670	0.07670295
156	0xbed24738	-0.4106996
157	0xbcb55dfa	-0.022139538
158	0x3d837452	0.06418671
159	0x3e473ead	0.19457503
160	0x3d6a9f95	0.057281096
161	0xbdfb0c12	-0.122581616
162	0x3e3e8f40	0.18609333
163	0xbe86fdda	-0.26365548
164	0x3db13114	0.08651939
165	0x3df617ea	0.1201628
166	0xbe837f11	-0.2568288
167	0xbeaceda9	-0.3377507
168	0x3ddd77dd	0.10813878
169	0xbe302a0b	-0.17203538
170	0x3d4ff44b	0.050770085
171	0x3e1ceee4	0.15325505
172	0x3e97e19d	0.29664317
173	0xbd124787	-0.035712745
174	0xbd626cb0	-0.055279434
175	0x3e79b9f4	0.24387342
176	0x3e1a095f	0.15042637
177	0xbe1c7cb9	-0.15281953
178	0x3e387886	0.18014726
179	0x3bdb2561	0.0066878055
180	0xbe5f4860	-0.21804953
181	0xbe86f3a0	-0.26357746
182	0xbe4f5cb5	-0.20250209
183	0x3e1a975e	0.15096804
184	0x3e28fb0b	0.16502015
185	0x3df909ac	0.12160048
186	0x3e8eaa5e	0.27864355
187	0x3dd158b5	0.10221998
188	0xbe447f12	-0.19189098
189	0x3e503db7	0.20336042
190	0xbe708e92	-0.23491886
191	0xbdaa9b57	-0.0833041
192	0xbe638e80	-0.22222328
193	0xbdf95b20	-0.12175584
194	0x3d9a903d	0.075470425
195	0xbe964022	-0.29345804
196	0x3bd0e280	0.006374657
197	0x3e51e410	0.20497155
198	0x3e272f81	0.16326715
199	0xbe5b39d6	-0.21408781
200	0x3deb066c	0.11475834
201	0xbe16d95b	-0.14731352
202	0xbd14ce0c	-0.036329314
203	0xbdb2a35d	-0.08722565
204	0x3e5e9883	0.21737866
205	0x3e9f66b6	0.3113305
206	0x3e8fcacd	0.28084412
207	0x3d8336fc	0.06406972
208	0xbe5d1d06	-0.21593103
209	0x3d8cda62	0.06877591
210	0x3e96783b	0.29388604
211	0xbe5efbcd	-0.21775742
212	0xbe387ce9	-0.180164
213	0x3dd6375e	0.10459779
214	0xbd582975	-0.05277391
215	0xbe377be4	-0.17918354
216	0xbe24432f	-0.16041254
217	0xbe9041af	-0.28175113
218	0xbe19d4f6	-0.15022644
219	0xbe44dc4e	-0.19224665
220	0xbe078ec3	-0.13238053
221	0xbcc76b00	-0.024343014
222	0x3e1185f1	0.14211251
223	0x3d820b8c	0.06349859
224	0xbe8b02ca	-0.27150565
225	0xbe8e62d9	-0.2780979
226	0xbe09215b	-0.1339163
227	0xbda9d54c	-0.08292636
228	0xbe738b54	-0.23783618
229	0x3df04cbc	0.11733386
230	0xbc5fe2c0	-0.013664901
231	0x3d9c6d26	0.07638006
232	0x3e37638b	0.17909066
233	0x3ddeedab	0.10885175
234	0x3e2f0397	0.17091213
235	0x3db2e754	0.087355286
236	0x3e859111	0.2608724
237	0x3e97e9c3	0.29670534
238	0x3e878e25	0.26475635
239	0xbdc0868d	-0.094006635
240	0xbd958fb8	-0.07302803
241	0xbd7420dc	-0.05960165
242	0xbd8a1d98	-0.06743926
243	0x3dfa7073	0.12228479
244	0x3e86fed7	0.26366302
245	0xbe04af0c	-0.129574
246	0x3d8aa856	0.06770389
247	0x3e5a6fc3	0.21331696
248	0xbe73b7c8	-0.23800576
249	0x3e8bc677	0.27299854
250	0x3e94c7ee	0.29058784
251	0xbde85a0c	-0.113453
252	0x3c0325a0	0.008004576
253	0xbcd99e9a	-0.026564885
254	0xbea0e314	-0.31423247
255	0xbec64bbd	-0.3872966

bias f4 [400]
0	0xbe461d97	-0.19347225
1	0x3e57870e	0.21047613
2	0x3e518718	0.2046169
3	0xbe2542bd	-0.1613874
4	0x3b5ed462	0.0034001102
5	0xbe19bd77	-0.15013681
6	0xbe5933d7	-0.21211182
7	0xbd6c1f5a	-0.057647087
8	0x3db1a0cb	0.08673247
9	0xbe7dc373	-0.24781589
10	0xbc994b20	-0.01871258
11	0x3e8edbec	0.27902162
12	0xbe96ab8a	-0.2942775
13	0x3e0e7026	0.13909969
14	0x3d8bfba5	0.06835107
15	0x3e3867fd	0.18008418
16	0xbe98347d	-0.29727545
17	0x3d29c23e	0.04144501
18	0xbcd20a58	-0.025639698
19	0x3b6dcf5c	0.0036286926
20	0xbe976db2	-0.29575878
21	0x3da87cb2	0.08226909
22	0xbdafdf35	-0.08587495
23	0xbe59d807	-0.21273814
24	0x3c02c855	0.007982333
25	0x3de4e1b3	0.11175861
26	0x3d43ae29	0.047773514
27	0x3e083110	0.13299966
28	0x3e886f9e	0.26647657
29	0xbd538963	-0.051644694
30	0xbe176ea5	-0.14788301
31	0x3e821bf5	0.25411955
32	0xbe42abbf	-0.19010828
33	0xbe11cbb8	-0.14237869
34	0x3e833feb	0.25634703
35	0xbe2b32bd	-0.16718574
36	0x3e51ae7d	0.20476718
37	0x3e432934	0.19058686
38	0xbe3b4e82	-0.18291667
39	0x3e524599	0.20534362
40	0xbdb065cb	-0.086131655
41	0x3e15536f	0.14582609
42	0x3e126f7f	0.14300345
43	0x3d505aa6	0.0508677
44	0x3e090fa4	0.13384873
45	0x3d40bed1	0.047056977
46	0xbe48be57	-0.19603859
47	0x3e9b10f6	0.30286378
48	0x3e829e22	0.2551127
49	0xbe461cf8	-0.19346988
50	0x3e81ad3f	0.2532749
51	0xbe2d9011	-0.16949488
52	0xbbb31827	-0.0054655257
53	0x3d831686	0.064007804
54	0xbe953423	-0.2914134
55	0x3e937be7	0.28805467
56	0x3e4b045d	0.19825883
57	0x3e1a21fe	0.1505203
58	0x3e7efb66	0.24900588
59	0x3e6bc343	0.23023705
60	0xbe80dd8b	-0.25169024
61	0x3e3ad88a	0.18246666
62	0xbcc7e804	-0.024402626
63	0xbe7dd248	-0.24787247
64	0x3d0c340e	0.03422933
65	0x3e88a217	0.26686165
66	0xbd68f4ed	-0.056874204
67	0x3d09ee50	0.033674538
68	0xbda4d837	-0.08049052
69	0x3e709c09	0.23497023
70	0x3d434e1c	0.047681913
71	0x3e6d4c47	0.23173629
72	0x3dbbf1ea	0.09177001
73	0xbe280362	-0.1640754
74	0x3e94138e	0.2892117
75	0xbe1aba8e	-0.15110227
76	0xbe0f639d	-0.14002843
77	0xbcd9cb4c	-0.026586197
78	0x3db10df4	0.086452395
79	0xbe824968	-0.2544663
80	0x3d8fbdbb	0.0701861
81	0xbe410568	-0.18849719
82	0xbe36865a	-0.17824689
83	0x3e6b76a5	0.22994478
84	0xbe214d2e	-0.15752098
85	0xbe218b4a	-0.15775791
86	0x3de3488a	0.1109782
87	0x3e4d670a	0.20058838
88	0xbd4b0c28	-0.04957214
89	0xbd08b05b	-0.03337131
90	0xbe51c1c7	-0.20484076
91	0xbe83c861	-0.25738814
92	0x3e83af87	0.25719854
93	0x3e48b0e9	0.19598736
94	0xbe84cd1f	-0.25937745
95	0x3da88e2f	0.08230244
96	0xbe11aa92	-0.14225224
97	0xbd8e4638	-0.06946987
98	0x3e9f20e5	0.31079784
99	0xbe88330e	-0.26601452
100	0x3e3b5a9d	0.18296285
101	0x3cb85c04	0.022504814
102	0xbe90c092	-0.2827192
103	0x3d0b07d5	0.033943016
104	0x3e04ba06	0.12961587
105	0x3d5e9b89	0.05434755
106	0x3c76faac	0.015074413
107	0xbddf1f9c	-0.10894701
108	0xbe127d06	-0.14305505
109	0xbcf268ec	-0.029591046
110	0xbe8ef000	-0.2791748
111	0xbd9c3386	-0.07627015
112	0xbd505d09	-0.050869975
113	0xbe5ae56b	-0.21376579
114	0xbe918723	-0.28423414
115	0xbde9d3af	-0.114173286
116	0xbe3a68c0	-0.18204021
117	0xbe62c66e	-0.22146007
118	0x3cae4516	0.021273177
119	0x3dc2fffa	0.0952148
120	0x3c042e04	0.008067612
121	0x3e2b760f	0.16744255
122	0x3e188f5e	0.1489844
123	0x3eab0946	0.33405513
124	0xbe39bcfc	-0.18138498
125	0x3d3a7e59	0.04553065
126	0x3d2e870e	0.042609267
127	0xbe66fcf2	-0.22557428
128	0x3cd969cc	0.026539706
129	0x3e06f85f	0.13180684
130	0x3e87f3e5	0.26553264
131	0xbe4ac4c9	-0.1980163
132	0x3e84ec1f	0.25961396
133	0xbdfabb73	-0.12242784
134	0xbe52d045	-0.20587261
135	0xbe397539	-0.18111123
136	0x3e49eec6	0.19719991
137	0xbd251fc2	-0.04031349
138	0x3d95a7d8	0.07307404
139	0x3e6d8005	0.23193367
140	0x3e03ec6b	0.12883155
141	0x3d00e94e	0.031472497
142	0xbe19df72	-0.15026644
143	0xbd05dcd2	-0.032681294
144	0xbd8eac3f	-0.06966447
145	0x3e0f3d7b	0.13988297
146	0xbe927573	-0.28605232
147	0xbdc78d5c	-0.09743759
148	0xbd49b7a8	-0.049247414
149	0x3e6a5efd	0.22887798
150	0x3b3d9d81	0.002893299
151	0xbe4d8af4	-0.20072538
152	0x3c94fa45	0.018185744
153	0x3e312906	0.17300805
154	0xbc341680	-0.010991693
155	0x3db32fed	0.087493755
156	0x3e8beab3	0.273275
157	0xbe8b553e	-0.27213472
158	0xbe604d68	-0.21904528
159	0x3e252b6d	0.16129847
160	0xbc36f466	-0.011166668
161	0x3e5011b2	0.2031925
162	0x3e62fde9	0.22167172
163	0x3e3358d9	0.17514361
164	0xbbba4a79	-0.0056851474
165	0x3e5627ad	0.20913573
166	0x3dccf14c	0.10006961
167	0xbe933a22	-0.2875529
168	0x3df05460	0.11734843
169	0xbdc6d38c	-0.09708318
170	0xbe35d8c8	-0.17758477
171	0x3d81b4b1	0.06333292
172	0x3e70fd69	0.23534168
173	0x3e73a3b4	0.23792917
174	0x3dd476d6	0.10374229
175	0x3d1e42d1	0.03863794
176	0x3dd398f3	0.10331907
177	0xbe8d9eb8	-0.27660155
178	0xbd830ea4	-0.06399277
179	0x3e378a34	0.17923814
180	0x3db0c4c1	0.08631278
181	0x3dcb20d5	0.099183716
182	0xbddf0545	-0.10889677
183	0xbe612e6f	-0.2199037
184	0x3e8611bf	0.26185414
185	0x3d6d5acb	0.057947915
186	0x3e4a91b9	0.19782151
187	0x3e936146	0.2878515
188	0xbe8b12e9	-0.27162865
189	0xbd41031f	-0.047122117
190	0xbe17e947	-0.14835082
191	0xbd24c5fd	-0.04022788
192	0x3d7af7aa	0.061271347
193	0xbd9419f1	-0.072315104
194	0x3e6633bf	0.22480677
195	0x3dc52ce9	0.096277066
196	0x3da204e9	0.07911093
197	0xbd66acd5	-0.05631717
198	0x3ba86ec4	0.0051401574
199	0x3e83c89d	0.25738993
200	0xbdd39fad	-0.1033319
201	0x3e97ccce	0.2964844
202	0x3e80e8fe	0.2517776
203	0x3e783955	0.2424062
204	0xbdeeab1c	-0.1165373
205	0x3e012d99	0.1261505
206	0x3dffc5bd	0.124888875
207	0x3e9b4cba	0.30331975
208	0x3e7b8afb	0.24564736
209	0xbd5dfe5a	-0.054197647
210	0x3da9aafe	0.08284567
211	0xbde34230	-0.11096609
212	0xbe82f77f	-0.2557945
213	0x3de0152f	0.109415404
214	0xbe3b84f1	-0.18312432
215	0x3daa338a	0.083106115
216	0x3e7c2df6	0.24626908
217	0xbe88d7bf	-0.267271
218	0x3da31e49	0.07964761
219	0xbe00298d	-0.1251585
220	0x3e3b03f5	0.18263228
221	0x3e2b93a2	0.16755536
222	0xbe3e0241	-0.18555547
223	0xbe4b2450	-0.19838071
224	0xbe6b3946	-0.22971067
225	0xbda42b73	-0.080161
226	0x3dc08706	0.09400754
227	0x3e6b9360	0.23005438
228	0x3e0bc2da	0.13648549
229	0xbd8e418f	-0.06946098
230	0x3e0f9eb9	0.14025392
231	0xbce80427	-0.028322292
232	0x3e4b61ad	0.19861479
233	0xbddda30f	-0.108221166
234	0xbcb5d7d4	-0.022197641
235	0xbe2bbc9c	-0.16771168
236	0xbdfc91ad	-0.12332473
237	0x3e9db70b	0.30803713
238	0x3d8788f3	0.06617918
239	0xbda994a7	-0.08280306
240	0x3e05030c	0.12989444
241	0x3e359a01	0.17734529
242	0xbdc17f64	-0.09448126
243	0x3e7b376e	0.24532863
244	0x3e88b2ab	0.26698813
245	0x3c9b1313	0.018929994
246	0xbc38ff32	-0.011291312
247	0x3e991349	0.29897526
248	0xbd931e29	-0.07183487
249	0xbe8248fd	-0.2544631
250	0xbdaf53ff	-0.08560943
251	0x3e2e6137	0.17029272
252	0x3e6f53d3	0.2337182
253	0x3e1de6f3	0.15420131
254	0xbe0ddea1	-0.13854457
255	0xbe813f01	-0.2524338

weight f4 [300, 400]
0	0x3d5bbe04	0.05364801
1	0x3d960f8b	0.07327183
2	0x3cec4d5e	0.028845485
3	0xbd8fdcf0	-0.07024562
4	0xbcb6437f	-0.022248982
5	0xbcb35c3d	-0.021894569
6	0x3bb27745	0.005446347
7	0xbd294206	-0.04132273
8	0x3c85caca	0.016332049
9	0x3cea7dfd	0.028624529
10	0x3c890afa	0.016728867
11	0xbd573c91	-0.052547995
12	0x3c39b44b	0.011334489
13	0xbd75f560	-0.06004846
14	0xbd19cca4	-0.037548676
15	0xbb1d71d1	-0.0024024139
16	0xbd37813f	-0.044800993
17	0x3ccb8f78	0.024848685
18	0xbc1b861f	-0.009492426
19	0xbde794b9	-0.113076635
20	0xbc62f621	-0.013852627
21	0x3d6b96f2	0.057517
22	0xbcfa43c0	-0.030549884
23	0xbd27c521	-0.04095948
24	0x3cde6212	0.027146373
25	0x3db13b6f	0.08653914
26	0x3ce964ac	0.028490387
27	0x3c99f165	0.018791864
28	0x3cd78ec5	0.026313195
29	0x3cc57308	0.024102703
30	0xbc7931be	-0.015209613
31	0xbb36e5db	-0.0027908
32	0xbc4c4968	-0.012468673
33	0x3d186b9b	0.037211996
34	0xbce80430	-0.02832231
35	0x3cc445ea	0.023959119
36	0x39f9159c	0.0004750908
37	0x3d69ebfc	0.057109818
38	0x3d356374	0.0442843
39	0xbd73e150	-0.059541047
40	0x3d45f584	0.048329845
41	0x3c92e517	0.017931504
42	0x3bc21995	0.00592346
43	0xbc829bae	-0.015943374
44	0x3cb7ba2e	0.022427645
45	0xbcb42205	-0.021988878
46	0xbd6e6e1d	-0.05821048
47	0x3d347d3e	0.044064753
48	0x3c14e862	0.0090886075
49	0xbd189fbd	-0.037261713
50	0xbc105644	-0.00880963
51	0x3bbc918b	0.0057546548
52	0xbd359b30	-0.04433745
53	0xbc625e71	-0.013816462
54	0x3cf425bd	0.029803151
55	0xba9f616b	-0.001215977
56	0xbbd81d48	-0.0065952875
57	0xbc77b417	-0.01511862
58	0xbcd8907a	-0.02643608
59	0x3d221564	0.03957118
60	0xbce0d985	-0.027447471
61	0x3c35a867	0.0110875135
62	0x3d51367c	0.05107735
63	0xbd6da6d1	-0.058020417
64	0x3cf17e10	0.029479057
65	0xbcfac1be	-0.030609962
66	0xbd2ce4d1	-0.042210404
67	0x3c6c4d5f	0.014422744
68	0x3d0c318d	0.034226943
69	0xbb4a3dfc	-0.00308597
70	0x3d3b403f	0.045715567
71	0x3b611606	0.0034345402
72	0x3c0c43b7	0.008561066
73	0xbd65673f	-0.056006666
74	0x3c856c86	0.0162871
75	0xbacecd55	-0.0015777746
76	0xbca58c43	-0.020208484
77	0x3d1d0724	0.038336888
78	0xbc87091a	-0.016483832
79	0xbc496d31	-0.0122941
80	0x3d5bdd11	0.053677622
81	0x3d5df1d2	0.054185696
82	0xbca26a3f	-0.019826053
83	0xbd4a2bf1	-0.049358312
84	0x3cc0c2a3	0.02353031
85	0xbbed2392	-0.0072369063
86	0x3d1da9e5	0.038492102
87	0xbd33feb5	-0.04394408
88	0xbd6839b0	-0.05669564
89	0x3c52e530	0.012872025
90	0x3d12be34	0.035825923
91	0x3d62fc57	0.05541643
92	0xbcb3a790	-0.021930486
93	0xbacb3193	-0.0015502445
94	0x3c38ea77	0.0112863695
95	0x3d2d927a	0.04237602
96	0x3a77f1c7	0.000945833
97	0x3bc07de1	0.005874381
98	0x3d2ab785	0.041678924
99	0xbc29f986	-0.010374432
100	0xbcabbc5f	-0.020963846
101	0xbc0f8482	-0.00875962
102	0x3d0bef5a	0.03416381
103	0xbbc0abe4	-0.005879866
104	0x3d401b60	0.046901107
105	0xbd26b05d	-0.040695537
106	0xbc063d71	-0.00819336
107	0xbcc6db08	-0.024274364
108	0x3c8d5f34	0.01725731
109	0xbd0383ca	-0.032108106
110	0x3ce702e7	0.028199626
111	0x3d3e8bc9	0.04652003
112	0xbcbe6faf	-0.023246614
113	0xbc94421a	-0.018097926
114	0xbb047e1b	-0.0020216766
115	0x3d727e95	0.05920275
116	0x3d0d249b	0.034458738
117	0xbcd94583	-0.026522404
118	0xbc36e9c9	-0.011164137
119	0x391e33d3	0.0001508736
120	0x3d1b140e	0.037860923
121	0xbd7d5166	-0.061845206
122	0xbd1feb6e	-0.039042883
123	0xbc5f655e	-0.013635008
124	0xbd63492f	-0.055489715
125	0x3d195d66	0.037442587
126	0xbcf604c7	-0.030031575
127	0x3ccc7bbb	0.024961343
128	0xbd11879e	-0.035529725
129	0xbc7eb46d	-0.015545947
130	0x3ca8396a	0.02053519
131	0x3c8c48ec	0.017124616
132	0x3c579aa5	0.013159429
133	0x3d0d30fb	0.03447054
134	0xbce02194	-0.027359761
135	0x3d0871ed	0.033311773
136	0xbc0a99d4	-0.008459527
137	0xbb4cc447	-0.003124492
138	0xbc8774b8	-0.016535148
139	0x3ca450b2	0.02005801
140	0xbcdfc4de	-0.027315553
141	0x3abe6e70	0.0014528763
142	0x3c33d7c5	0.010976736
143	0xbcc924a6	-0.024553608
144	0xbcbe441c	-0.023225836
145	0x3d061f41	0.03274465
146	0x3d778120	0.060425878
147	0x3d20f0f9	0.03929231
148	0xbba8dfca	-0.005153631
149	0x3cf2869c	0.029605202
150	0x3d56cf50	0.052443802
151	0xbd871822	-0.065964
152	0x3bea4cd1	0.0071502705
153	0xbcbe83b7	-0.023256166
154	0xbd8e4f76	-0.0694875
155	0x3da6d024	0.081451684
156	0x3c3d6119	0.011558794
157	0x3baaec50	0.005216159
158	0xbd09cbee	-0.033641748
159	0xbcccf572	-0.025019381
160	0x3d104a06	0.035226844
161	0xbca7f5b8	-0.02050291
162	0xbc76ead4	-0.015070636
163	0x3cf047b0	0.029331058
164	0x3c2ac6fd	0.010423419
165	0x3ccdb8d1	0.025112541
166	0x3cb64e79	0.022254216
167	0x3cfe86b0	0.031070083
168	0xbc6c896b	-0.01443706
169	0xba8c11b0	-0.0010686424
170	0x3d01df79	0.03170726
171	0xbd0107a0	-0.031501412
172	0x3bbc785e	0.0057516536
173	0xbd608fe0	-0.05482471
174	0xbd197559	-0.037465427
175	0x3d3762da	0.044772007
176	0x3cda6104	0.026657589
177	0x3b90f737	0.0044240016
178	0xbd34510d	-0.04402261
179	0xbcecaef9	-0.028892027
180	0xbc6e3342	-0.014538588
181	0xbd419c12	-0.04726798
182	0xbc00f3e3	-0.007870647
183	0x3c43b79d	0.011945632
184	0xbd979c4a	-0.07402857
185	0x3c23aed8	0.0099904165
186	0x3caa6688	0.020800844
187	0xbd3af448	-0.04564312
188	0x3b8024a4	0.003910618
189	0xbc0070f7	-0.007839433
190	0x3cf023fe	0.029314037
191	0x3c90fc6e	0.017698493
192	0xbc22233a	-0.009896094
193	0xbb66c72b	-0.0035213928
194	0xbc172801	-0.009225846
195	0x3b4390cb	0.0029840942
196	0x3c6004b0	0.013672993
197	0xbd151d79	-0.03640506
198	0xbd6097a5	-0.05483212
199	0x3d41b292	0.04728944
200	0xbb315c10	-0.002706293
201	0x3c8190e8	0.015816167
202	0x3bb02541	0.0053755348
203	0x3d00902e	0.0313875
204	0x3b18ff2d	0.0023345456
205	0x3c975fd1	0.018478306
206	0x3c432dec	0.011912804
207	0x3cdcf0cf	0.026970295
208	0xbcd57546	-0.026056897
209	0xbd5efb3d	-0.05443882
210	0xbd33cb1c	-0.043894872
211	0x3d0e7f99	0.034789655
212	0x3c127b7d	0.008940575
213	0xbced6904	-0.02898074
214	0x3b195f1b	0.0023402635
215	0x3d632cf8	0.055462807
216	0x3d33f4df	0.0439347
217	0xbc3e33cc	-0.011609029
218	0x3d84cb4d	0.06484089
219	0x3cfa0530	0.030520052
220	0xbadfe843	-0.0017082769
221	0x3c473d84	0.012160663
222	0x3d02d053	0.031936955
223	0x3c9204cb	0.017824551
224	0xbb5a3f7b	-0.0033301997
225	0x3dad3d10	0.084589124
226	0x3c86f24f	0.016472964
227	0x3d43adf0	0.0477733
228	0x3d44f7f0	0.048088014
229	0xbc97102c	-0.018440329
230	0xbd4d3388	-0.050097972
231	0xbd062377	-0.032748666
232	0x3b69d05e	0.0035677175
233	0x3c5eb227	0.0135922795
234	0x3d012f97	0.031539526
235	0x3d31fb61	0.043452624
236	0xbd14bcfa	-0.036313035
237	0xbcd645c6	-0.026156317
238	0xbd0626e9	-0.03275195
239	0xbd0ff685	-0.03514721
240	0x3d646a9f	0.055765744
241	0x3c2d9725	0.010595118
242	0x3e058fc8	0.1304313
243	0x3c3bd571	0.011464463
244	0x3cf2e11e	0.02964836
245	0xb9e24eec	-0.0004316488
246	0xbc7ef28e	-0.015560759
247	0x3c474fcb	0.01216502
248	0x3c2858f2	0.010275112
249	0x3cdd432a	0.027009565
250	0xbd22c9a6	-0.03974309
251	0x3d43aaac	0.047770187
252	0x3d4764cf	0.048680123
253	0xbb7530a0	-0.0037413016
254	0xbd23867f	-0.039923187
255	0x3c659044	0.014011446

bias f4 [300]
0	0xbd2a4340	-0.04156804
1	0xbd19feef	-0.03759664
2	0xbaafadcf	-0.001340324
3	0xbaf10be3	-0.0018390383
4	0xbd3b6f32	-0.04576034
5	0x3d06b352	0.032885857
6	0xbc78f544	-0.015195195
7	0x3cb5e6c1	0.022204759
8	0x3d02d0bd	0.03193735
9	0xbd2d4823	-0.042305123
10	0xbd238e32	-0.03993053
11	0x3cabeb4a	0.020986218
12	0xbc52b3b5	-0.012860228
13	0x3d36f89f	0.044670697
14	0x3cc81f19	0.024428891
15	0x3d33652b	0.043797653
16	0xbbeb2fc5	-0.0071773254
17	0xbbb6a7f9	-0.005574223
18	0xbd0b1931	-0.03395957
19	0xbbca13fa	-0.006166932
20	0xbce8dcee	-0.02842566
21	0xbd20e25f	-0.039278384
22	0x3d59225f	0.053011294
23	0x3d202c69	0.039104853
24	0x3c8153d8	0.01578705
25	0xbd2c7abc	-0.042109236
26	0xbca9aeee	-0.020713296
27	0x3cd46452	0.025926743
28	0xba28c73a	-0.00064383785
29	0xbc0b1018	-0.008487724
30	0xbcf52f5c	-0.02992981
31	0xbc88ba0f	-0.016690282
32	0xbc83a91a	-0.016071845
33	0x3d177cb0	0.036984146
34	0x3d19c046	0.037536882
35	0x3d1e9e8d	0.038725425
36	0xbc37ac29	-0.01121048
37	0x3b95247a	0.0045514675
38	0x3ca0786f	0.019588677
39	0x3cdff082	0.027336363
40	0xbb0df87a	-0.0021662996
41	0xbd0c7d50	-0.034299195
42	0x3d6791d1	0.056535546
43	0x3d470d70	0.0485968
44	0x3d0ec6d5	0.03485759
45	0x3cf3acf4	0.029745556
46	0xbd0cf532	-0.034413524
47	0x3c94d08e	0.018165853
48	0x3cae1842	0.021251801
49	0x3cd9d566	0.026591014
50	0xbd368fb8	-0.044570655
51	0x3b0f2c65	0.002184653
52	0x3d0add28	0.033902317
53	0xbc9dd9db	-0.01926892
54	0x3d47a8ea	0.048745073
55	0xbca0b67c	-0.019618265
56	0x3c7344df	0.014847963
57	0xbce7c43b	-0.028291812
58	0xbc565418	-0.013081573
59	0x3c6be6e4	0.01439831
60	0x3d53bf71	0.051696245
61	0xbcf37160	-0.029717147
62	0x3d251e23	0.040311944
63	0xbcc70bf4	-0.024297692
64	0x3d35317d	0.04423665
65	0xbcee700b	-0.02910616
66	0x3c0f137b	0.008732672
67	0x3d22f6b3	0.039786052
68	0xbc1206f4	-0.008912791
69	0x3bb35733	0.0054730414
70	0x3d2c68f9	0.042092297
71	0xbc74c14d	-0.014938665
72	0xbca4b642	-0.020106439
73	0x3bcac866	0.00618844
74	0x3d31ae36	0.04337903
75	0x3c2483eb	0.010041217
76	0xbc13c05c	-0.00901803
77	0xbc936d3d	-0.017996425
78	0x3d1c27a2	0.038123734
79	0x3d5a6307	0.053317096
80	0x3c42498e	0.011858357
81	0xbcfe0a1d	-0.031010682
82	0x3bc2b5c3	0.005942078
83	0x3b82f8bc	0.0039969366
84	0x3d100a7a	0.03516624
85	0x3b1ddfe3	0.0024089746
86	0xbcae8f51	-0.021308573
87	0x3d2a324b	0.04155187
88	0x3d096f45	0.03355338
89	0xbc9556c7	-0.018229855
90	0x3cecf8cc	0.02892723
91	0x3d0f67d9	0.035011146
92	0xbd2fdfae	-0.042937927
93	0xbcecd283	-0.028908974
94	0x3c43d1a8	0.011951841
95	0x3c81c8e4	0.015842862
96	0xbd171a3f	-0.036890265
97	0xb784d413	-1.5834381e-05
98	0x3c88e5eb	0.016711196
99	0xbae99f7e	-0.0017824022
100	0x3d200750	0.039069474
101	0x3d13e847	0.03611019
102	0xbba95316	-0.0051673753
103	0x3d43fea0	0.04785025
104	0x3ce51c41	0.027967574
105	0xbce10d64	-0.027472205
106	0x3d43a13e	0.047761194
107	0xbc1ce972	-0.009577142
108	0x3d4e28f6	0.050332032
109	0x3c4303ae	0.011902733
110	0x3a5eefbc	0.0008504351
111	0xbc8c80e3	-0.017151302
112	0xbc2c5ecf	-0.010520651
113	0xbd387e67	-0.04504242
114	0xbbb972c1	-0.0056594317
115	0xbd0b40e5	-0.033997435
116	0x3d3d048d	0.046146918
117	0xbb59899f	-0.00331936
118	0xbd055e5a	-0.032560684
119	0xbbcb27fa	-0.006199834
120	0x3cd4e574	0.025988318
121	0xbc4c96a5	-0.012487088
122	0x3b81e48e	0.0039640134
123	0x3cf098f1	0.029369803
124	0xbcf684da	-0.030092645
125	0xbbb9675e	-0.0056580743
126	0x3d63847f	0.05554628
127	0x3d1d8358	0.038455337
128	0xbc005087	-0.007831699
129	0x3d415634	0.04720135
130	0x3d184904	0.037179008
131	0xbd18259d	-0.037145246
132	0xbc33863a	-0.010957295
133	0xbd066d84	-0.032819286
134	0xbd375850	-0.044761956
135	0xbcb1253b	-0.021624198
136	0xbd1ba7d0	-0.038001835
137	0xbcd98a1d	-0.026555115
138	0x3d4c0d18	0.049817175
139	0x3d0cee8b	0.03440718
140	0x3ca7f340	0.020501733
141	0xbc17be3c	-0.009261664
142	0xbc600e98	-0.013675354
143	0x3cb537c4	0.022121318
144	0x3c1b1918	0.009466432
145	0xbcd25acd	-0.025678063
146	0xbd245a97	-0.040125456
147	0xbd08a93b	-0.033364516
148	0xbcb7a03d	-0.022415275
149	0xbbe20605	-0.0068976902
150	0xbd0f8c49	-0.035045896
151	0x3d40fd51	0.04711658
152	0x3d02ec15	0.031963427
153	0x3ccd0b8e	0.025029924
154	0xbd0fa2b5	-0.03506728
155	0x3c9c6a2b	0.019093594
156	0x3d0583db	0.03259645
157	0xbcbfa7f3	-0.023395514
158	0xbd30c1f6	-0.043153726
159	0x3ce219c1	0.027600171
160	0xbd064c48	-0.03278759
161	0xbcf04e25	-0.029334137
162	0x3cdd3e3a	0.027007211
163	0x3c5509ac	0.013002794
164	0xbd2bb421	-0.04191983
165	0x3d241c7b	0.040066224
166	0xbce9c72c	-0.028537355
167	0x3d0dd2b5	0.034624774
168	0xbb61ba4b	-0.0034443315
169	0x3cb541d2	0.022126112
170	0x3d4fec85	0.050762672
171	0x3d0e8593	0.034795355
172	0x3d4130ae	0.047165565
173	0x3d21a885	0.039467353
174	0xbcbfb30c	-0.023400806
175	0xbbb1564d	-0.005411899
176	0xbae1df43	-0.0017232675
177	0xbc076a2c	-0.008265059
178	0xbca695ed	-0.020335162
179	0x3d39b905	0.045342464
180	0x3be71ef4	0.0070532504
181	0xbd154bc7	-0.03644922
182	0xbcd8f9f6	-0.026486378
183	0xbd33de9c	-0.04391347
184	0xbcdaf50d	-0.026728177
185	0x3ce069f4	0.027394272
186	0xbd2d6229	-0.04232994
187	0xbc4c93a0	-0.012486368
188	0xbd1f2406	-0.038852714
189	0xba3b2c10	-0.000714005
190	0xbd3c8acd	-0.04603081
191	0xbb822d93	-0.003972718
192	0xbc1f8b5c	-0.009737816
193	0xbd378e72	-0.04481358
194	0xbd1647fe	-0.03668975
195	0x3d2a1914	0.041527823
196	0xbd20846e	-0.039188795
197	0xbd36d182	-0.044633396
198	0x3cc61ddc	0.02418416
199	0x3cbba87c	0.022907488
200	0xbc068e46	-0.008212632
201	0xbccaba21	-0.024746956
202	0xbb72db8a	-0.0037057125
203	0x3d398cb9	0.04530022
204	0xbd0e5632	-0.03475017
205	0xbd06cba9	-0.03290907
206	0xbaefc6e2	-0.0018293525
207	0x3d31339c	0.04326211
208	0x3cf4ac41	0.029867293
209	0x3d2ebfb8	0.042663306
210	0xbc9ee3fb	-0.019395819
211	0xbcebbf9f	-0.028777895
212	0x3abe8ce0	0.0014537834
213	0x3cf28a54	0.029606976
214	0xbcc0b4b4	-0.023523666
215	0x3c8726b2	0.016497944
216	0xbcedae4e	-0.029013779
217	0xbcd2120f	-0.025643377
218	0x3c91faec	0.017819844
219	0x3d08ad76	0.03336855
220	0x3cccb396	0.024987977
221	0xbc4cdb49	-0.0125034535
222	0x3c6ac1a9	0.014328399
223	0xbce79f26	-0.02827413
224	0xba5127c9	-0.0007978646
225	0x3d4f1eec	0.0505666
226	0x3cf0c9e9	0.029393153
227	0xbc1e450e	-0.009660019
228	0xbcd3dbfa	-0.025861729
229	0x3d4ddf85	0.050261993
230	0xbcd54b4a	-0.026036877
231	0x3c05da05	0.008169656
232	0xbca8b0e1	-0.020592155
233	0x3cf13017	0.029441876
234	0xbd0538a4	-0.03252472
235	0x3d5341ca	0.051576413
236	0x3ce535bc	0.027979724
237	0x3d317eab	0.04333369
238	0x3c885c7e	0.016645666
239	0x3d2a9e60	0.041654944
240	0x3d24a010	0.04019171
241	0xbb64c52f	-0.003490757
242	0xbb4302da	-0.0029756338
243	0x3c282150	0.010261849
244	0x3d505628	0.050863415
245	0x3d125e88	0.035734683
246	0xbd37e615	-0.044897158
247	0xbc2b85dd	-0.010468927
248	0xbb9f8018	-0.004867565
249	0xbd15ef84	-0.036605373
250	0x3d314290	0.04327637
251	0x3d1c802e	0.03820818
252	0x3c98c856	0.018650215
253	0xbceb57a9	-0.028728323
254	0x3c831e45	0.016005645
255	0xbd15e7c4	-0.036597982

weight f4 [1, 300]
0	0xbd4da9cb	-0.050210755
1	0xbd2dabd2	-0.04240019
2	0x3e771f0f	0.24132942
3	0x3d6278f9	0.05529115
4	0x3d44926a	0.047991194
5	0xbd96cb7c	-0.0736303
6	0x3e9b2dd2	0.30308396
7	0x3d3c84bf	0.046025034
8	0x3e963aec	0.2934183
9	0xbd53f74e	-0.05174952
10	0x3d55151e	0.052022092
11	0x3d9a9404	0.07547763
12	0x3cceba83	0.02523542
13	0x3d57e136	0.052705012
14	0xbd11056c	-0.03540556
15	0x3e829593	0.2550474
16	0x3ea4717e	0.32117838
17	0xbd16940b	-0.03676228
18	0xbdc955df	-0.09830832
19	0x3d4dc286	0.05023434
20	0x3d93d6a2	0.07218672
21	0xbd1e34eb	-0.038624685
22	0xbda31f9d	-0.07965014
23	0xbe97b0bc	-0.29627025
24	0x3d429945	0.04750945
25	0x3d8df965	0.06932334
26	0x3d89d105	0.067293204
27	0xbd5b7fda	-0.053588726
28	0x3d4d579c	0.05013238
29	0xbd95d97c	-0.073168725
30	0x3dacadac	0.08431563
31	0x3d1711e5	0.0368823
32	0x3d408ad7	0.047007408
33	0xbd58f7a2	-0.052970536
34	0xbd2941b6	-0.041322432
35	0xbd962912	-0.07332052
36	0xbdacf293	-0.08444705
37	0x3d8ed7d4	0.0697476
38	0xbd680337	-0.05664369
39	0x3e964053	0.2934595
40	0x3da102c0	0.07861853
41	0xbd8fc40b	-0.07019814
42	0xbdc4f0c1	-0.09616233
43	0xbcf91840	-0.030407071
44	0x3e8958fb	0.268257
45	0xbd220af6	-0.039561234
46	0x3d57d352	0.052691765
47	0xbce84b1a	-0.028356124
48	0x3ca8cc9e	0.020605382
49	0xbd73aa4c	-0.05948858
50	0x3d8a889e	0.06764339
51	0xbdb7e5fe	-0.089794144
52	0xbdbdf8a4	-0.0927594
53	0x3e93b913	0.28852138
54	0xbd5350d1	-0.051590744
55	0xbcc7ba3d	-0.024380798
56	0xbd756566	-0.059911154
57	0x3d5e9723	0.054343354
58	0x3d8d0d8d	0.0688735
59	0x3d8b4d1e	0.06801818
60	0xbd672834	-0.056434825
61	0x3d7c3aa8	0.061579376
62	0x3d91dd53	0.07122292
63	0x3d80ff24	0.06298664
64	0xbd59e0ed	-0.05319302
65	0x3dc31f11	0.0952741
66	0x3db2f055	0.08737246
67	0x3d858468	0.06519395
68	0xbd0d6e53	-0.03452904
69	0x3cefbac3	0.02926386
70	0xbd2b0584	-0.041753307
71	0xbd0749a0	-0.0330292
72	0xbe77d5d9	-0.2420267
73	0xbd274b10	-0.04084307
74	0xbd076f7a	-0.033065297
75	0x3d06ca22	0.032907613
76	0xbd7dea5d	-0.061991084
77	0x3d81c20d	0.063358404
78	0x3d0ee1e5	0.0348834
79	0xbd87df9a	-0.066344455
80	0xbd8c8fe0	-0.068633795
81	0x3d8a452b	0.06751474
82	0xbd0474e7	-0.03233805
83	0xbda3d0b1	-0.07998789
84	0xbd81d589	-0.06339557
85	0x3d77ef86	0.06053116
86	0x3d75e988	0.060037166
87	0x3d7a30c2	0.061081655
88	0x3dbfc3a3	0.093634866
89	0xbd9b317e	-0.07577799
90	0xbd5a4121	-0.053284768
91	0xbd6ecad7	-0.058298912
92	0x3d8e65ae	0.069529876
93	0x3da69cfc	0.08135411
94	0x3da0c7c7	0.078506045
95	0x3d34a2cd	0.04410057
96	0xbd16f719	-0.036856744
97	0x3d923fbd	0.07141063
98	0xbd36e5ee	-0.04465287
99	0x3d7a84e7	0.0611619
100	0x3d75d2d5	0.06001552
101	0xbd89f48a	-0.06736095
102	0x3d9b4c22	0.075828806
103	0xbd58e2b6	-0.052950583
104	0xbd2605c9	-0.04053286
105	0xbd83b1b5	-0.06430379
106	0x3d7de9f3	0.06199069
107	0x3d83fa0b	0.06444176
108	0xbd485aa9	-0.048914585
109	0x3d3d3366	0.046191595
110	0x3cee6173	0.029099202
111	0x3dbb3919	0.0914175
112	0x3d6cfa15	0.057855684
113	0xbd41dbca	-0.047328748
114	0xbd77c0b4	-0.06048651
115	0xbda10e18	-0.07864016
116	0xbd28ea3c	-0.04123901
117	0xbca67dcb	-0.020323655
118	0x3d4233f5	0.04741283
119	0xbdb500e7	-0.08838063
120	0xbd8229cc	-0.06355628
121	0xbd9411d3	-0.07229962
122	0x3dc6e9b7	0.09712546
123	0x3d978bd6	0.073997185
124	0x3daa95f4	0.083293825
125	0x3d56744e	0.05235701
126	0x3d16711a	0.036728956
127	0x3d6bab4d	0.057536412
128	0xbd16f1f4	-0.03685184
129	0x3d960688	0.073254645
130	0x3d944a23	0.07240703
131	0xbd40e576	-0.04709383
132	0xbd8e28c7	-0.069413714
133	0xbe3f1a56	-0.1866239
134	0x3d32f363	0.043689143
135	0x3d0ab755	0.033866245
136	0xbd43051b	-0.04761229
137	0xbccaeaf2	-0.024770234
138	0xbcaf1893	-0.021374023
139	0x3d7c03a7	0.06152692
140	0x3d0a2225	0.03372397
141	0xbd5ba97f	-0.05362844
142	0xbd056ec1	-0.032576326
143	0x3d376875	0.044777352
144	0x3d170c09	0.036876712
145	0x3dafc3ff	0.08582305
146	0x3dd61642	0.10453464
147	0x3cf583b1	0.029970022
148	0xbe06de0e	-0.13170645
149	0xbd789e87	-0.06069806
150	0xbd090706	-0.033453964
151	0x3d47f2c5	0.048815507
152	0x3ce30c25	0.027715752
153	0xbd7f0219	-0.06225786
154	0xbcbad1b6	-0.022805076
155	0x3c4eb2d6	0.01261588
156	0xbd5565cf	-0.052099045
157	0x3ce27e06	0.027647983
158	0xbd317ab6	-0.043329917
159	0xbda94b6f	-0.08266341
160	0x3db542aa	0.08850606
161	0xbcccc319	-0.024995374
162	0xbd8de8b9	-0.06929154
163	0xbd9f4293	-0.0777637
164	0x3d7112c5	0.05885579
165	0x3d129015	0.03578194
166	0xbd479cb4	-0.048733428
167	0x3d91b953	0.07115426
168	0xbdf83da4	-0.12121132
169	0xbcab4778	-0.020908102
170	0xbdad12d5	-0.084508575
171	0x3d847064	0.06466749
172	0xbcf5a220	-0.029984534
173	0xbd98f96c	-0.074694484
174	0xbcf7078f	-0.030154971
175	0xbd5cc70c	-0.053900763
176	0x3da2c952	0.07948555
177	0xbd68322f	-0.056688484
178	0x3d3b2cbe	0.045696966
179	0xbd5254c4	-0.05135037
180	0x3dc09524	0.09403446
181	0xbceecc7b	-0.029150238
182	0xbcff00b6	-0.031128269
183	0x3e8c1e16	0.27366704
184	0x3d86099c	0.065448016
185	0xbda04c72	-0.07827081
186	0xbdbc46cc	-0.09193191
187	0xbd7376f7	-0.059439626
188	0x3d86e2fd	0.06586263
189	0xbd1f52a4	-0.03889717
190	0x3cd5abb4	0.026082851
191	0x3d8e5677	0.069500856
192	0x3d8b2435	0.06794015
193	0xbdd600a2	-0.104493394
194	0x3d26a395	0.040683348
195	0xbcb0c940	-0.021580338
196	0xbcfd395a	-0.030911136
197	0xbd2c365c	-0.04204403
198	0xbd941848	-0.07231194
199	0x3d9cd24a	0.07657297
200	0xbcd2f14e	-0.025749829
201	0x3cf7440b	0.030183813
202	0xbdb1f7f1	-0.08689869
203	0x3d8c029a	0.06836434
204	0xbca90835	-0.020633796
205	0xbd7a5d4c	-0.06112413
206	0x3d946b84	0.072470695
207	0xbd0ebf4b	-0.0348504
208	0x3de29681	0.110638626
209	0xbdacf5c7	-0.08445316
210	0xbd87431c	-0.06604597
211	0xbe0a6f7c	-0.1351909
212	0x3d6c924a	0.0577567
213	0x3de522de	0.11188291
214	0x3d6f2338	0.058383197
215	0x3d9305e4	0.07178858
216	0x3d1f52c8	0.038897306
217	0xbe24d17a	-0.16095534
218	0x3da00dce	0.07815133
219	0xbd696b72	-0.056987233
220	0xbc8a58e0	-0.016888082
221	0x3e01013b	0.12598126
222	0xbd3a2e36	-0.045454226
223	0xbd86586b	-0.06559833
224	0xbd4c50e1	-0.04988182
225	0x3d0bf154	0.034165695
226	0xbd57a21f	-0.052644845
227	0xbcdc6603	-0.026904112
228	0xbe86da2f	-0.26338336
229	0xbd907826	-0.070541665
230	0x3cada9e2	0.02119917
231	0x3da4faa7	0.08055621
232	0xbe10f1a0	-0.14154673
233	0x3d6d6d86	0.057965778
234	0x3db396c7	0.08768993
235	0x3dbbc05f	0.09167551
236	0x3d180412	0.037113257
237	0xbda9e8ad	-0.082963325
238	0x3d7f93e7	0.06239691
239	0xbcb83638	-0.022486791
240	0xbd2bcb4c	-0.041941926
241	0xbd7d4852	-0.06183655
242	0x3d8e25c2	0.069407955
243	0xbda64fd3	-0.08120694
244	0x3d4726e6	0.04862108
245	0xbd7193de	-0.058978908
246	0xbd8e0fcb	-0.06936606
247	0xbe154a5b	-0.14579146
248	0xbcf0c69e	-0.029391583
249	0xbd0f33ab	-0.034961384
250	0x3c91a726	0.017779898
251	0xbd76e4a7	-0.060276654
252	0xbda0bc66	-0.07848434
253	0x3d497889	0.049187217
254	0xbd89f535	-0.06736223
255	0x3e03f914	0.12887985
