TD3/data/exp/Hopper-v3/2022-07-01-21-26-53_critic.pt (torch, 23831 bytes, 5 tensors)

weight f4 [64, 14]
0.49776855 -0.03267504 -1.2584335 -0.47342217 0.113398045 -0.028494263 -0.10016709 0.16968694
-0.2240124 -0.13754174 -0.1446571 -0.038982842 -0.12631363 -0.20982963 0.80183226 0.8117923
0.11886052 0.37840983 -0.49630255 -0.5780802 -0.27563363 0.1146067 -0.030038312 0.13299486
0.19670574 -0.19332746 0.080368996 0.24541385 0.17078711 2.0299387 -0.57108366 -0.61096907
-0.1289441 0.17443371 -0.2554728 0.07853537 0.01877836 -0.03760451 0.011712502 0.16446549
-0.11961849 0.058434203 -0.29376593 -0.682983 0.21874543 0.23363449 -0.06684998 0.23500852
-0.024111317 -0.32662645 0.1308974 0.10143642 0.11313093 -0.14536601 -0.06001117 0.4163345
-0.29225945 -0.08504 -0.1215323 -0.21837294 -0.0295907 -0.1420495 -0.37059346 -0.19214693
0.0980743 0.07556211 0.10741259 -0.06335207 -0.058021978 0.19413407 0.48272935 0.15608384
-1.002 -0.7123899 -0.49366775 0.1680621 0.03416649 -0.11992406 0.045037854 0.067733206
0.0074061253 0.015357801 0.04457883 -0.021135667 0.33880073 -1.8178364 1.6224686 0.23863706
0.6872155 -0.52850246 0.20121528 -0.14667019 0.08192023 0.088854045 0.058316067 -0.036314175
-0.09564524 -0.0061758226 -0.35436985 -0.9658263 -0.8657951 -0.64490837 -0.044054408 0.10888765
-0.08362774 -0.22440039 0.17528205 0.009864961 -0.088519 0.1235342 -0.18448682 -0.27979854
0.18152404 -0.90933806 -0.46875787 -0.98193794 0.46176443 0.11523776 -0.7237126 -0.4071356
0.33573794 0.16779275 -0.04819163 -0.12022427 -0.018071484 -0.071045496 -0.9588756 1.3341638
0.550857 -0.65308654 0.73411924 0.15918356 0.31360894 -0.04591359 0.1260335 -0.0044850307
0.053074658 0.1142379 -0.06479122 -0.16834259 -0.7442377 -0.47534972 1.5566825 0.3673702
0.3224761 0.6225045 0.12982957 0.020378266 -0.028875176 -0.12277651 -0.014248292 -0.019525656
-0.00884478 -0.07084425 0.040733874 0.21193077 -0.39816946 -0.7402172 -0.4573068 0.15709509
0.280015 0.21769579 -0.14364088 -0.11749066 -0.18959834 0.056499746 -0.053294476 -0.4433739
0.20274484 -0.29870954 0.0978779 0.15026705 0.05084975 0.4862157 -0.21476106 -0.19568437
0.19768281 0.097330205 -0.091158755 0.03743808 0.17005925 -0.58406895 -0.32425562 -1.8244874
0.08928284 -0.69227594 -0.096405946 -0.7414455 0.34085253 -0.079028375 0.12323608 0.17696734
0.030841468 0.008372666 0.11500986 -0.07711666 0.054115135 -0.9109365 -0.2557821 -0.52483094
-0.4938465 -0.09651706 -0.44228712 0.15758425 -0.11697432 -0.061704658 -0.073951975 -0.05375978
0.028234646 -0.0662932 -0.81290907 1.6042391 -2.0452068 -0.863227 0.24964607 0.56654465
-0.32767037 0.026047861 -0.062589176 -0.044368472 0.095768 -0.10650705 0.13835968 0.2197879
0.023421437 -0.48227307 -0.18014221 -0.81634367 -0.9432497 -0.20192036 0.046509065 0.005663486
-0.03502193 -0.05878121 -0.09360143 -0.048280206 -0.13479592 -0.09837482 0.045858167 -1.041664
0.923074 -0.006975495 0.36838987 -0.3666062 0.06895777 -0.057788435 0.10498879 0.02981845
0.002893916 0.02554556 -0.023516683 -0.08353759 0.6064018 -0.06410711 -0.089496866 -1.1153817
00000000: 85db fe3e 43d6 05bd 5914 a1bf 6464 f2be
00000010: 3c3d e83d cd6c e9bc 6724 cdbd 6ac2 2d3e
00000020: 8263 65be bed7 0cbe fe20 14be 79ac 1fbd
00000030: 5c58 01be 94dd 56be e144 4d3f 9fd1 4f3f
00000040: 256d f33d efbe c13e 5e1b febe 10fd 13bf
00000050: da1f 8dbe ebb6 ea3d e812 f6bc ce2f 083e
00000060: 3b6d 493e a2f7 45be 8098 a43d c54d 7b3e
00000070: d1e2 2e3e 84ea 0140 8a32 12bf 7868 1cbf
00000080: ec09 04be c09e 323e 55cd 82be 27d7 a03d
00000090: 13d5 993c 3007 1abd cbe5 3f3c a469 283e
000000a0: 8afa f4bd b458 6f3d 7d68 96be f9d7 2ebf
000000b0: cdfe 5f3e e13d 6f3e a4e8 88bd 13a6 703e
000000c0: 1985 c5bc 953b a7be f809 063e e6bd cf3d
000000d0: 30b1 e73d d4da 14be 46ce 75bd cc29 d53e
000000e0: 08a3 95be 7429 aebd ede5 f8bd 289d 5fbe
000000f0: 3268 f2bc 6d75 11be 6dbe bdbe 2ac2 44be
00000100: 2edb c83d 4fc0 9a3d 22fb db3d bbbe 81bd
00000110: 74a8 6dbd 15cb 463e 4d28 f73e 71d4 1f3e
00000120: 8941 80bf 2f5f 36bf 05c2 fcbe 7918 2c3e
00000130: 29f2 0b3d bf9a f5bd 9d79 383d b5b7 8a3d
00000140: 15af f23b 499f 7b3c 4b98 363d b524 adbc
00000150: 4a77 ad3e ddae e8bf 0dad cf3f 465d 743e
00000160: 5bed 2f3f f04b 07bf 610b 4e3e b630 16be
00000170: cbc5 a73d 1cf9 b53d d4dc 6e3d 2cbe 14bd
00000180: a7e1 c3bd 8e5e cabb f76f b5be 6440 77bf
00000190: bfa4 5dbf b718 25bf 6572 34bd 7d00 df3d
000001a0: 0545 abbd 37c9 65be 237d 333e a5a0 213c
000001b0: 7349 b5bd 80ff fc3d 1dea 3cbe c141 8fbe
000001c0: 70e1 393e 61ca 68bf 0801 f0be 4960 7bbf
000001d0: 636c ec3e c601 ec3d 3b45 39bf 1474 d0be
000001e0: d8e5 ab3e ddd1 2b3e 9664 45bd 2438 f6bd
000001f0: a60a 94bc 4d80 91bd df78 75bf e1c5 aa3f
00000200: f704 0d3f ae30 27bf 3def 3b3f 0401 233e
00000210: 5a91 a03e e30f 3cbd ed0e 013e 2af7 92bb
00000220: d064 593d 8ff5 e93d 42b1 84bd 0062 2cbe
00000230: 5d86 3ebf 0a61 f3be 5f41 c73f f217 bc3e
00000240: 961b a53e 745c 1f3f 0bf2 043e 52f0 a63c
00000250: a28b ecbc 4072 fbbd ab71 69bc 45f4 9fbc
00000260: b2e9 10bc ca16 91bd 90d8 263d 6104 593e
00000270: dedc cbbe e07e 3dbf 1e24 eabe 89dd 203e
00000280: 205e 8f3e a5eb 5e3e 9816 13be f19e f0bd
00000290: 1126 42be 476c 673d 4f4b 5abd e701 e3be
000002a0: 589c 4f3e 75f0 98be 3574 c83d 9bdf 193e
000002b0: d447 503d 44f1 f83e 53ea 5bbe 7c61 48be
000002c0: 5d6d 4a3e 0f55 c73d 71b1 babd ac58 193d
000002d0: 0324 2e3e 8b85 15bf d504 a6be ce88 e9bf
000002e0: ecd9 b63d ff38 31bf 7b70 c5bd 5fcf 3dbf
000002f0: 3984 ae3e a1d9 a1bd 3363 fc3d ed36 353e
00000300: 3fa7 fc3c 822d 093c 4a8a eb3d 57ef 9dbd
00000310: d5a7 5d3d 2233 69bf dff5 82be 525b 06bf
00000320: 73d9 fcbe bdaa c5bd 7573 e2be c45d 213e
00000330: 3b90 efbd 06be 7cbd 2274 97bd 3733 5cbd
00000340: 584c e73c bbc4 87bd cf1a 50bf b557 cd3f
00000350: abe4 02c0 72fc 5cbf 38a3 7f3e 1209 113f
00000360: 69c4 a7be 5362 d53c c12e 80bd b7bb 35bd
00000370: 0322 c43d 5e20 dabd 29ae 0d3e 1410 613e
00000380: 50de bf3c 7fec f6be 3377 38be e6fb 50bf
00000390: d078 71bf 36c4 4ebe 4a80 3e3d c494 b93b
000003a0: 2873 0fbd 91c4 70bd 1bb2 bfbd 77c1 45bd
000003b0: f107 0abe bd78 c9bd c6d5 3b3d 3f55 85bf
000003c0: 944e 6c3f b192 e4bb 999d bc3e cfb3 bbbe
000003d0: bb39 8d3d 91b3 6cbd 5d04 d73d d245 f43c
000003e0: dba7 3d3b ec44 d13c 0fa6 c0bc c215 abbd
000003f0: 263d 1b3f 974a 83bd 224a b7bd d4c4 8ebf

bias f4 [64]
0.050480396 0.0013029749 0.11519241 -0.48597127 -0.17679799 -0.28917402 1.1526005 -0.22320803
0.030532807 -0.70872504 -0.20871803 -0.47665665 0.5356077 -0.020824898 -0.68627757 -0.23677516
-1.0156577 0.67046416 0.3193113 0.04754384 0.17991675 -0.40070346 -0.21549624 0.6053076
0.3110876 -0.18021515 -0.38240832 0.024693388 0.896159 -0.17092797 -0.38408852 0.57089853
-0.24429862 0.6818853 0.8531758 -0.15040967 0.10846002 -0.3435559 0.16272596 -0.16141762
-0.27006853 0.21584271 -1.035599 0.5446324 0.25992316 0.7718253 -0.58214664 -0.5480391
0.7859788 0.14826441 0.17853375 -0.21423103 -0.5333631 0.4852357 0.23886317 0.25137043
-0.192128 -0.2179549 0.58168435 0.5054333 0.85476094 -0.39099023 0.106534205 -0.2565017
00000000: 88c4 4e3d 95c8 aa3a 00ea eb3d 3ad1 f8be
00000010: 880a 35be 9e0e 94be 6a88 933f a590 64be
00000020: f01f fa3c 016f 35bf 2eba 55be 570c f4be
00000030: 961d 093f fa98 aabc e3af 2fbf 3075 72be
00000040: 1201 82bf 8aa3 2b3f c57c a33e 54bd 423d
00000050: 193c 383e 0129 cdbe 0cab 5cbe 70f5 1a3f
00000060: e046 9f3e 528a 38be 06cb c3be ca49 ca3c
00000070: ad6a 653f be07 2fbe 40a7 c4be 6826 123f
00000080: 6b29 7abe 0990 2e3f bb69 5a3f fe04 1abe
00000090: 4920 de3d 8fe6 afbe a2a1 263e a94a 25be
000000a0: 6c46 8abe df05 5d3e 828e 84bf 076d 0b3f
000000b0: a614 853e 5896 453f 9007 15bf 4a4c 0cbf
000000c0: e835 493f a0d2 173e 8dd1 363e 615f 5bbe
000000d0: 7c8a 08bf d070 f83e 8c98 743e a0b3 803e
000000e0: 34bd 44be 922f 5fbe 44e9 143f 1464 013f
000000f0: 9dd1 5a3f df2f c8be 9b2e da3d 3154 83be

weight f4 [64, 64]
-0.56432635 -0.04682903 -0.10643096 0.28564054 -0.22331521 -1.3036788 -0.19162367 -0.56247973
0.86291176 0.27297974 0.9076498 0.5941436 0.06332635 0.060035367 -0.6458177 0.48764873
-1.1715187 -0.108543426 -0.4742833 -0.36332908 -0.31984916 -0.23206523 -1.0448496 -0.3359877
0.020197833 0.74099904 -0.39928064 -0.6112208 0.7556842 -0.52429026 0.24677573 0.22070144
0.61170936 0.2895251 0.29543364 -1.2180104 0.24068923 -1.3684018 0.55611825 0.06984248
-0.0010147804 0.046901852 -1.2110506 0.723984 -0.14060877 0.054842986 -0.5564441 -1.0322994
-0.48968726 0.40051964 0.07314373 0.7472677 -0.52481836 -0.90824693 0.07753354 0.5254926
-0.11954905 -0.0290764 0.54496115 0.44711283 0.4033455 -0.99645203 0.6193427 -0.30718333
0.58291787 0.4487987 -0.17983864 -0.44664553 0.39739057 0.7656658 -1.5068703 0.48727322
-1.264881 0.83409804 -0.13078141 0.4156359 -0.66120017 -0.13614501 1.5308408 0.5622132
1.40644 -1.7852175 0.1340809 -0.5571495 0.49936453 0.07787666 0.24074359 -0.70757943
-0.43444276 -0.7089843 1.1169113 0.56866807 -1.8784742 -0.06809052 0.41049016 -0.027688302
-0.20572604 -0.7246227 -1.329817 0.5469859 0.12570997 1.6111737 0.19213913 -0.12764242
0.029695876 -1.3126737 1.0407566 -0.8611712 -0.17272386 -1.0733691 0.60882574 1.3663008
-1.2503432 -0.6298936 -0.274919 -0.98454016 1.044649 -1.2038466 -0.6060973 -0.94169414
0.4006825 -0.12225037 -1.2466872 -0.4486627 -0.9338521 1.2125152 0.0155325895 0.2732852
-0.4549772 -0.22850244 0.7515824 0.27111134 -0.9304406 -0.52942854 -0.15132329 0.396573
0.20102023 0.2809484 0.8557084 0.020142803 0.45735407 -0.27007082 -0.76869494 0.7374107
-0.74963456 0.49761957 -0.23469123 0.3332535 -0.3072079 -0.2569173 -0.6515222 -0.3098703
0.78384715 -0.26420924 -0.25893617 -0.21562804 0.3789512 -0.09616674 0.12026495 0.4846383
0.272673 0.29286873 -0.31369475 -0.42006135 -0.55635995 -0.45815405 0.24272388 -0.25541466
-0.6436266 0.23107873 -1.0662369 -0.93971926 -0.3913074 -0.28689048 -0.73352414 -1.5001088
-0.38084182 -0.14701241 0.6661352 0.2472522 0.3081163 -1.0621674 -0.59998107 1.3899262
-0.49272826 -0.5565187 0.5248865 0.6222901 0.6290878 -0.35227963 0.46500903 -0.6976363
-0.50142246 -0.29366323 1.5863566 -0.23950745 -1.1964697 -0.865475 -0.10691349 0.14724721
-0.18798523 -0.28424013 0.44903365 -0.33314177 0.5891419 -1.2597228 -1.0081413 0.57509995
-0.29642957 0.07598263 0.06657718 0.00044315984 -0.41013584 -0.055160284 -0.93363094 -0.25983974
1.2627311 -0.7323607 -0.22976433 0.30279252 0.27815327 -0.49627674 0.28845307 0.9088298
-0.123597324 -0.39543682 0.7094389 -1.1601658 -0.5753048 -0.23970942 -0.0021697432 -1.3124483
-1.6630038 -1.2113541 0.26649317 -0.8838462 -0.0011947688 -1.0481355 -0.232834 -1.0009593
0.44052806 -0.052714042 0.96413326 -0.004856081 -0.8918253 -0.31460547 -0.73312724 1.332985
1.1563518 -0.43028727 -0.67527556 1.1182541 -0.002474245 -0.07034857 0.5622869 0.92386067
00000000: b177 10bf cccf 3fbd 7af8 d9bd 7a3f 923e
00000010: beac 64be f2de a6bf ff38 44be acfe 0fbf
00000020: c9e7 5c3f 00c4 8b3e bd5b 683f cc19 183f
00000030: 3fb1 813d a5e7 753d 4f54 25bf 18ad f93e
00000040: 53f4 95bf 044c debd 43d5 f2be 4506 babe
00000050: 45c3 a3be 82a2 6dbe a2bd 85bf 9406 acbe
00000060: ed75 a53c 1db2 3d3f 836e ccbe f778 1cbf
00000070: 8574 413f e337 06bf c7b2 7c3e 8fff 613e
00000080: fc98 1c3f a23c 943e 1443 973e c4e7 9bbf
00000090: 3d77 763e ca27 afbf c45d 0e3f 9309 8f3d
000000a0: 6102 85ba 281c 403d b503 9bbf 0457 393f
000000b0: bffb 0fbe 0aa3 603d 1f73 0ebf 6322 84bf
000000c0: 4ab8 fabe e910 cd3e 61cc 953d f04c 3f3f
000000d0: 7f5a 06bf df82 68bf e8c9 9e3d af86 063f
000000e0: 22d6 f4bd a131 eebc 9382 0b3f f9eb e43e
000000f0: 4d83 ce3e 7b17 7fbf 3e8d 1e3f 2247 9dbe
00000100: 1b3a 153f f1c8 e53e 9f27 38be b9ae e4be
00000110: c776 cb3e ad02 443f 20e1 c0bf e07b f93e
00000120: 9fe7 a1bf 7387 553f 90eb 05be 3bce d43e
00000130: 6a44 29bf 9969 0bbe 97f2 c33f 34ed 0f3f
00000140: 3a06 b43f 0282 e4bf 814c 093e 5aa1 0ebf
00000150: b5ac ff3e cc7d 9f3d 7d85 763e ed23 35bf
00000160: 486f debe ff7f 35bf f3f6 8e3f 3b94 113f
00000170: d871 f0bf 0b73 8bbd c42b d23e 94d2 e2bc
00000180: d9a9 52be e080 39bf 7237 aabf 4507 0c3f
00000190: 1dba 003e f13a ce3f 1fc0 443e b2b4 02be
000001a0: c444 f33c b105 a8bf 8337 853f b775 5cbf
000001b0: 86de 30be 2964 89bf 01dc 1b3f f2e2 ae3f
000001c0: 3f0b a0bf b540 21bf 2fc2 8cbe d30a 7cbf
000001d0: 0fb7 853f a517 9abf 3129 1bbf de12 71bf
000001e0: 4226 cd3e 675e fabd 7293 9fbf 1eb7 e5be
000001f0: ee10 6fbf b333 9b3f 677c 7e3c 0aec 8b3e
00000200: c6f2 e8be 8bfc 69be b467 403f 1bcf 8a3e
00000210: 5b31 6ebf a188 07bf 7ef4 1abe 9e0b cb3e
00000220: 3fd8 4d3e 78d8 8f3e b50f 5b3f 8502 a53c
00000230: 502a ea3e b946 8abe 31c9 44bf f3c6 3c3f
00000240: 0de8 3fbf fec7 fe3e e652 70be 34a0 aa3e
00000250: 5b4a 9dbe aa8a 83be 29ca 26bf 52a7 9ebe
00000260: 35aa 483f 6f46 87be 4893 84be 99cd 5cbe
00000270: e405 c23e 11f3 c4bd 784d f63d 8322 f83e
00000280: cc9b 8b3e e4f2 953e 999c a0be 4812 d7be
00000290: 9b6d 0ebf 2b93 eabe 9c8c 783e b6c5 82be
000002a0: b6c4 24bf e79f 6c3e 737a 88bf 7191 70bf
000002b0: 7259 c8be 4fe3 92be 3dc8 3bbf 9103 c0bf
000002c0: b3fd c2be 6c8a 16be d687 2a3f ae2f 7d3e
000002d0: 6bc1 9d3e 1af5 87bf 5c98 19bf 1ae9 b13f
000002e0: e146 fcbe 0278 0ebf f65e 063f 674e 1f3f
000002f0: e60b 213f ff5d b4be aa15 ee3e 4b98 32bf
00000300: 395d 00bf 075b 96be bc0d cb3f 7141 75be
00000310: eb25 99bf c58f 5dbf 76f5 dabd f9c7 163e
00000320: 337f 40be ec87 91be bde7 e53e 8f91 aabe
00000330: 01d2 163f 993e a1bf c60a 81bf c039 133f
00000340: 9ec5 97be c89c 9b3d 9e59 883d e857 e839
00000350: 53fd d1be c0ef 61bd 7002 6fbf b709 85be
00000360: 2ca1 a13f fe7b 3bbf 5747 6bbe 9f07 9b3e
00000370: 1b6a 8e3e fc17 febe 1fb0 933e 12a9 683f
00000380: 9820 fdbd b276 cabe ca9d 353f 5080 94bf
00000390: 2d47 13bf 6376 75be 4032 0ebb 4efe a7bf
000003a0: 4fdd d4bf a70d 9bbf cb71 883e bf43 62bf
000003b0: ca99 9cba 4e29 86bf 096c 6ebe 6f1f 80bf
000003c0: e58c e13e aeea 57bd 70d1 763f c31f 9fbb
000003d0: aa4e 64bf f813 a1be 3aae 3bbf 419f aa3f
000003e0: 5603 943f 9d4e dcbe dcde 2cbf f322 8f3f
000003f0: f126 22bb e912 90bd 09f2 0f3f 2282 6c3f

bias f4 [64]
0.372923 -0.54091305 -0.04152196 0.32544315 -0.452681 0.009264147 0.32680017 0.24768911
0.44921035 -0.3098195 -0.34238377 0.46013767 -0.33756915 0.3642824 -0.20738435 -0.0883129
-0.009937719 0.54428124 -0.25200883 0.51400423 0.034155782 -0.111199 0.33503827 -0.38588074
0.09373786 0.06608822 0.24386781 -0.3067046 0.44582364 0.7155037 -0.39629298 0.38490456
-0.08191769 0.24706855 -0.38324368 0.089863524 -0.30248347 -0.18503763 -0.30690122 0.07056507
0.068063945 0.16246255 0.23464485 0.24657942 -0.41029787 0.42011777 0.03359053 0.19119689
-0.15155524 0.16351071 0.33787715 0.003664864 -0.18950395 -0.32917342 0.29096887 -0.012256088
0.18325646 0.41887257 -0.1997955 0.18704493 -0.3699743 0.60684437 0.588177 0.31217054
00000000: c3ef be3e 4779 0abf ee12 2abd 7ca0 a63e
00000010: cec5 e7be a6c8 173c 5a52 a73e 37a2 7d3e
00000020: e6fe e53e a9a0 9ebe ed4c afbe 2a97 eb3e
00000030: ddd5 acbe 3983 ba3e 905c 54be 65dd b4bd
00000040: d1d1 22bc 0456 0b3f 4d07 81be c895 033f
00000050: efe6 0b3d 4dbc e3bd 238a ab3e 2992 c5be
00000060: a3f9 bf3d 4359 873d 7cb8 793e 6308 9dbe
00000070: ff42 e43e 402b 373f eae6 cabe 3612 c53e
00000080: 76c4 a7bd 8aff 7c3e 8438 c4be 5e0a b83d
00000090: 1ddf 9abe 817a 3dbe 2822 9dbe 6b84 903d
000000a0: 1c65 8b3d 955c 263e bd46 703e 517f 7c3e
000000b0: 9012 d2be ad19 d73e 3996 093d 1ec9 433e
000000c0: 4c31 1bbe 5a6f 273e 3cfe ac3e 372e 703b
000000d0: 530d 42be 6b89 a8be dff9 943e c2cd 48bc
000000e0: 95a7 3b3e 7776 d63e 3197 4cbe b588 3f3e
000000f0: 456d bdbe 275a 1b3f c592 163f d1d4 9f3e

weight f4 [1, 64]
3.835869 -4.864126 4.867754 5.3632503 -5.200744 -5.6334167 -1.9050307 5.514693
3.3555245 -2.979985 -1.82126 4.242544 -5.7905016 4.4105573 -4.9071064 -5.333002
-3.1121047 5.3516784 -5.398443 4.953071 -6.019594 4.1860514 5.2204027 -6.047175
-7.2501845 7.3757005 3.0930028 -5.147156 4.1618547 3.611353 -5.090598 4.86381
-3.090533 5.7167835 -5.271895 6.6354904 1.4875327 -5.2408066 -5.613324 1.326264
4.1651263 -5.3644466 5.621689 5.6417317 -5.0720005 4.994363 6.4818506 5.2779007
-5.252434 5.3924284 4.487618 -3.5348337 -3.9215517 -3.4757533 3.4184225 2.8210151
3.4258716 5.1771884 -5.5307164 4.5401406 -3.9540584 3.438443 5.3980503 3.5828924
00000000: e17e 7540 eca6 9bc0 a4c4 9b40 bf9f ab40
00000010: 7f6c a6c0 f344 b4c0 0cd8 f3bf 5d78 b040
00000020: eac0 5640 13b8 3ec0 0c1f e9bf ecc2 8740
00000030: ca4b b9c0 4923 8d40 0407 9dc0 f4a7 aac0
00000040: b92c 47c0 f340 ab40 0cc0 acc0 8f7f 9e40
00000050: 84a0 c0c0 22f4 8540 8a0d a740 7582 c1c0
00000060: 8301 e8c0 bd05 ec40 c2f3 4540 80b5 a4c0
00000070: ea2d 8540 6820 6740 2ee6 a2c0 55a4 9b40
00000080: 4bcb 45c0 e4ef b640 5db3 a8c0 f055 d440
00000090: 7967 be3f b0b4 a7c0 5aa0 b3c0 05c3 a93f
000000a0: b748 8540 8ca9 abc0 e0e4 b340 1189 b440
000000b0: d44d a2c0 d2d1 9f40 526b cf40 90e4 a840
000000c0: f013 a8c0 c68e ac40 919a 8f40 b73a 62c0
000000d0: b4fa 7ac0 be72 5ec0 6fc7 5a40 838b 3440
000000e0: 7b41 5b40 87ab a540 a1fb b0c0 d548 9140
000000f0: 4b0f 7dc0 730f 5c40 d4bc ac40 1c4e 6540
