TD3/data/exp/Hopper-v3/2022-07-01-21-26-53_critic_2.pt (torch, 23831 bytes, 5 tensors)

weight f4 [64, 14]
0	0xbe2537e6	-0.16134605
1	0x3d4f3912	0.050591536
2	0x3fb798a4	1.4343457
3	0x3f837dcb	1.0272764
4	0xbf808f8a	-1.0043805
5	0xbf0364d5	-0.5132573
6	0x3dacc4d9	0.08435983
7	0xbe7956ba	-0.2434949
8	0x3ea30751	0.3184152
9	0x3e8a0795	0.2695891
10	0xbca30e11	-0.019904168
11	0x3de92fa1	0.113860376
12	0x3dabbdf6	0.083858415
13	0xbce7d53b	-0.028299918
14	0x3e3113a2	0.17292646
15	0x3dbe91ae	0.0930513
16	0x3f63849e	0.8887423
17	0x3edfeb37	0.43734142
18	0x3e95ac01	0.2923279
19	0x3f19bf19	0.60057217
20	0x3c0d191f	0.008611946
21	0xbe518d1f	-0.2046399
22	0x3e371914	0.1788066
23	0x3e1c14ac	0.1524226
24	0xbc46396a	-0.0120986495
25	0x3c7cc94c	0.015428852
26	0x3de0cb1a	0.109762385
27	0xbc895140	-0.016762376
28	0x3e48527b	0.19562714
29	0xbff1bfe4	-1.8886685
30	0x3f57d57b	0.8431012
31	0xbe8ba822	-0.27276713
32	0xbe791bee	-0.2432706
33	0xbec0e6e3	-0.37676153
34	0x3e623793	0.22091512
35	0xbe0f4cca	-0.13994136
36	0x3e5093e7	0.2036892
37	0x3e17f3a5	0.14839037
38	0xbd6f0b4d	-0.058360387
39	0x3cf84882	0.030308012
40	0xbd157532	-0.03648872
41	0xbb875547	-0.004130039
42	0xbe2a678b	-0.16641061
43	0x3edc214d	0.42994156
44	0x3f330cae	0.6994122
45	0x3e1cc14c	0.15308112
46	0xbf92661e	-1.1437414
47	0xbf091653	-0.5354969
48	0x3f42e5d1	0.7613192
49	0x3f185c63	0.5951597
50	0xbf0fc038	-0.5615268
51	0xbe681565	-0.22664411
52	0xbde9aab2	-0.11409511
53	0xbd757b82	-0.05993224
54	0x3d702e40	0.058637857
55	0xbe5e3cae	-0.21702835
56	0xbe374519	-0.17897452
57	0xbfd9ce0f	-1.7016009
58	0x3e843b59	0.2582653
59	0x3f2185cd	0.6309479
60	0xbf12dd22	-0.5736867
61	0x3e15772a	0.14596239
62	0x3dd3e669	0.103466816
63	0xbec4dd9e	-0.3845033
64	0x3e172c71	0.14763047
65	0x3e4f22f3	0.20228176
66	0x3d0ac75f	0.03388154
67	0xbd7f14a4	-0.062275544
68	0x3cfd5643	0.030924922
69	0x3e8ac72f	0.2710509
70	0xbeb08e31	-0.34483483
71	0xc0153bee	-2.3317828
72	0xbf455318	-0.77079916
73	0x3dd082c3	0.10181191
74	0xbdffeaed	-0.124959804
75	0x3f018004	0.5058596
76	0x3f2472cd	0.6423767
77	0xbe7b4950	-0.24539685
78	0x3e00c550	0.12575269
79	0xbda5652e	-0.08075939
80	0xbe9140d8	-0.28369784
81	0xbd3ae5cf	-0.04562932
82	0xbce89f5e	-0.028396305
83	0xbecc6481	-0.39920428
84	0xbdb6eb08	-0.089315474
85	0x3f24a39b	0.6431214
86	0x3e9d54c0	0.30728722
87	0x3f24194d	0.64101106
88	0x3f5f124f	0.8713731
89	0xbd5a6911	-0.053322855
90	0x3e9f5971	0.31122926
91	0xbde7eeaf	-0.11324822
92	0x3dbcdc51	0.092217095
93	0x3d8994ed	0.067178585
94	0x3db4b159	0.08822889
95	0x3d43af03	0.047774326
96	0x3d5c8eda	0.05384717
97	0x3df62cdb	0.12020274
98	0xbed9e4bf	-0.42557332
99	0xbf21830d	-0.6309059
100	0xbf8b8d21	-1.0902444
101	0xbfac643d	-1.346809
102	0x3e634122	0.22192815
103	0x3eadc186	0.3393671
104	0xbeb56be7	-0.35433885
105	0x3db06a5d	0.08614037
106	0xbf36af3a	-0.71361125
107	0x3d58938d	0.05287509
108	0x3eea9d7d	0.4582328
109	0xbebd0594	-0.36918318
110	0xbde4423b	-0.11145445
111	0x3f1dc367	0.61626285
112	0x3f5b3bc7	0.8563809
113	0x3fc0a4dd	1.5050312
114	0xbf2cd336	-0.6750978
115	0xbe23a2f8	-0.15980136
116	0xbea95ac5	-0.33077064
117	0x3e4e1379	0.20124616
118	0xbf448a86	-0.7677387
119	0xbe4b978d	-0.19882031
120	0x3e4949ad	0.19657011
121	0x3e0687ee	0.1313779
122	0x3da2ab88	0.07942873
123	0xbce3e30f	-0.02781823
124	0x3e14f497	0.14546429
125	0x3e867754	0.26262915
126	0xbee7e242	-0.4528981
127	0x3e4c367d	0.1994266
128	0x3f2ed397	0.6829161
129	0x3ee23cdd	0.4418706
130	0x3ec6eb6a	0.38851482
131	0xbf0c0dfe	-0.5470885
132	0x3ebf21b6	0.37330407
133	0x3e81ca5d	0.25349703
134	0xbe35337c	-0.17695421
135	0xbdebb9cd	-0.11510048
136	0x3d937f45	0.07202009
137	0xbde9736f	-0.1139897
138	0x3bb1082e	0.0054025864
139	0xbd5bb94d	-0.053643513
140	0xbd63c291	-0.055605475
141	0xc0035efa	-2.052672
142	0x3fbc748a	1.4723065
143	0x3d59aa55	0.053140957
144	0x3f58e1e0	0.8471966
145	0xbf3a8cd2	-0.72871125
146	0x3eb9a02d	0.36255017
147	0x3e0dd552	0.13850906
148	0x3adaa5b9	0.0016681469
149	0xbd236d24	-0.039899006
150	0xbd280923	-0.04102434
151	0x3c2f9c57	0.010718427
152	0xbe1f1de1	-0.15538742
153	0xbe6b3add	-0.22971673
154	0x3ef24245	0.47316185
155	0x3f27d781	0.6556321
156	0x3f172699	0.5904327
157	0xbf3d7721	-0.740099
158	0xbec215fe	-0.37907404
159	0x3ef90f5c	0.4864453
160	0xbe966393	-0.29372844
161	0xbe6514db	-0.22371237
162	0x3e40b186	0.1881772
163	0xbda56f69	-0.080778904
164	0x3c40d707	0.0117700165
165	0x3dd250f8	0.1026935
166	0xbd9008ca	-0.070329264
167	0x3e57bb50	0.21067548
168	0x3d6f7b76	0.05846735
169	0x3f0a6cf0	0.54072475
170	0xbda8be20	-0.082393885
171	0x3c3a21b1	0.011360572
172	0x3e4b4b7f	0.19853018
173	0x3d88cb0f	0.06679355
174	0xbda5847f	-0.08081912
175	0x3e11612b	0.14197223
176	0xbe47d2ef	-0.19514059
177	0x3a5ce5b6	0.00084265636
178	0x3dcdc416	0.10047166
179	0xbdecf9d1	-0.11571086
180	0xbc97c452	-0.01852623
181	0x3e717bf1	0.23582436
182	0xbf06d9da	-0.52676165
183	0xc01458b3	-2.3179138
184	0xbf23416d	-0.63771707
185	0xbf863502	-1.0484927
186	0xbf287f72	-0.65819466
187	0x3e8505c0	0.2598095
188	0xbe3513a9	-0.17683281
189	0xbdeffb66	-0.11717872
190	0xbd9a8e94	-0.07546726
191	0xbd782674	-0.060583547
192	0xbd1ca620	-0.038244367
193	0xbdc84d20	-0.097803354
194	0xbde098a9	-0.109666176
195	0x3dc2b1a0	0.095065355
196	0xbebd82ba	-0.370138
197	0xbe81c4b3	-0.25345382
198	0x3f65e03f	0.897953
199	0xbe5e10a3	-0.21686034
200	0xbf177cd7	-0.59174865
201	0xbf211daf	-0.6293592
202	0xbe1490f7	-0.14508425
203	0xbe210fd2	-0.15728691
204	0x3e1c02ad	0.15235396
205	0x3e855309	0.26039913
206	0x3d11f4ad	0.03563373
207	0x3cd70df4	0.02625177
208	0x3cbce391	0.02305773
209	0x3c765392	0.015034573
210	0x3f4f54d7	0.8098883
211	0xbecc0703	-0.398491
212	0x3ba44255	0.00501279
213	0x3e04c476	0.12965569
214	0xbf0ba02b	-0.5454127
215	0xbf2ef213	-0.68338126
216	0xbea783c8	-0.3271773
217	0x3ece96df	0.4034948
218	0xbe9f8f4e	-0.3116402
219	0xbe242c1a	-0.16032448
220	0xbd39c4b7	-0.045353618
221	0x3d1b8435	0.03796788
222	0xbd02a3cf	-0.0318945
223	0x3d5c6dfa	0.05381582
224	0x3ec08b95	0.37606493
225	0x3f815e00	1.0106812
226	0xbef87ca6	-0.485326
227	0x3ede3db8	0.43406463
228	0x3fcdc8bf	1.6076888
229	0x3e79d6c9	0.2439834
230	0xbe75f3e0	-0.24018812
231	0xbcdaed10	-0.026724368
232	0x3dd0976a	0.1018513
233	0x3e0ef1cf	0.1395943
234	0x3deb801b	0.114990436
235	0x3df729cf	0.12068521
236	0x3e36a320	0.17835665
237	0x3da20d82	0.07912733
238	0xbf806a78	-1.0032492
239	0x3fd968db	1.6985124
240	0xbe42b225	-0.19013269
241	0x3f28e8d7	0.65980285
242	0xbf89672f	-1.0734614
243	0xbdecd39e	-0.115638
244	0xbf46afce	-0.77612007
245	0x3e229e02	0.15880588
246	0xbdf7af87	-0.12094026
247	0xbded878e	-0.11598121
248	0xbbeacdd9	-0.0071656522
249	0xbdb132d9	-0.086522765
250	0x3da72689	0.08161647
251	0x3e39d554	0.18147784
252	0x3ef49359	0.47768667
253	0xbf510f9a	-0.8166443
254	0xbe5444d6	-0.20729384
255	0xbe0e59f6	-0.13901505

bias f4 [64]
0	0x3e731ca3	0.23741393
1	0x3ec6a2ec	0.38796175
2	0xbe9b8d07	-0.30381033
3	0xbe95e7d4	-0.29278433
4	0xbe4157e6	-0.18881187
5	0xbedeabf4	-0.43490565
6	0x3f7cadf6	0.98702943
7	0xbe977306	-0.29579943
8	0xbf5974de	-0.8494395
9	0x3e449057	0.19195686
10	0x3e9bb741	0.3041325
11	0xbe9a3e9a	-0.30125886
12	0x3f41ae59	0.7565666
13	0x3e989b7b	0.29806122
14	0xbe8ab7ab	-0.27093253
15	0x3f0d072d	0.55089074
16	0x3f89f84e	1.0778902
17	0xbf155479	-0.5833202
18	0xbe9c007f	-0.30469128
19	0xbf212192	-0.6294185
20	0xbe558b51	-0.20853926
21	0xbf494193	-0.78615683
22	0xbcec8cf8	-0.028875813
23	0xbee5d2f8	-0.4488752
24	0x3f114c85	0.56757385
25	0x3f506f9d	0.8142031
26	0xbf3fd4c2	-0.7493402
27	0x3dad126c	0.08450779
28	0xbd5e7a7c	-0.05431603
29	0x3f1ce6f8	0.6128993
30	0xbe1a843d	-0.15089507
31	0x3d3a734a	0.045520104
32	0x3d1c43a1	0.038150433
33	0xbddd250b	-0.10798081
34	0x3ed0319c	0.4066285
35	0x3f03f243	0.5154154
36	0x3ef1fdc8	0.47263932
37	0xbe3a351a	-0.18184319
38	0x3e472443	0.19447426
39	0xbe23327b	-0.15937226
40	0xbf28b03a	-0.658939
41	0xbf6b9ed9	-0.9203926
42	0xbdfe12ca	-0.124059275
43	0x3c37a73d	0.011209306
44	0xbf87922e	-1.0591486
45	0xbeb7a6ee	-0.35869545
46	0xbfad7a8b	-1.3553022
47	0x3e85c3da	0.26125985
48	0x3e7ef82e	0.2489936
49	0xbeda6eda	-0.42662698
50	0xbed95c8e	-0.42453426
51	0x3e5c3d80	0.21507835
52	0xbdf4577c	-0.11930749
53	0xbf0862da	-0.53275836
54	0x3e005c60	0.12535238
55	0xbea6aa4e	-0.32551807
56	0x3f7f2115	0.99659854
57	0xbcd290ed	-0.025703872
58	0xbf2779fa	-0.65420496
59	0x3edba9d2	0.42903
60	0xbf2dd110	-0.6789713
61	0x3ece63c2	0.40310484
62	0xbd5a62a8	-0.053316742
63	0xbdb80073	-0.08984461

weight f4 [64, 64]
0	0xbecf0e12	-0.40440422
1	0x3a3f09f8	0.0007287557
2	0x3f1ca0cd	0.6118286
3	0x3eb3550c	0.35025823
4	0x3db079b7	0.08616965
5	0xbf31cbbb	-0.69451493
6	0xbf8533b5	-1.0406405
7	0x3ec0c77d	0.37652197
8	0x3e4883fd	0.195816
9	0x3d258856	0.040413223
10	0xbda60140	-0.08105707
11	0x3edfb272	0.4369083
12	0xbfa6b4f9	-1.3023978
13	0xbf40271e	-0.7505969
14	0x3e7e7aca	0.24851528
15	0xbf633f90	-0.88768864
16	0xbf3f12b0	-0.7463789
17	0x3fb0911a	1.3794281
18	0xbe8cbe5d	-0.27488986
19	0xbe04c1eb	-0.12964599
20	0x3f19fc82	0.6015092
21	0x3f8289b8	1.0198278
22	0x3f72be6d	0.94821817
23	0x3f7c2724	0.98497224
24	0xbe0aa203	-0.13538365
25	0xbf1b8b61	-0.6075955
26	0x3f802070	1.0009899
27	0x3d6d6a2f	0.057962593
28	0xbe62b82c	-0.22140568
29	0xbf238866	-0.6388
30	0x3ef88f07	0.4854662
31	0x3d9b701b	0.07589742
32	0x3ce4f8e6	0.027950715
33	0xbf6f6c9b	-0.93525094
34	0xbf435a98	-0.7631011
35	0x3ea3bd05	0.31980148
36	0xbd02604e	-0.031830125
37	0xbebfd389	-0.37466076
38	0x3e2a900b	0.1665651
39	0xbeae62d9	-0.3405979
40	0x3f4087d6	0.7520727
41	0x3f37c002	0.71777356
42	0x3f89ce31	1.076605
43	0xbe4e2bc1	-0.20133878
44	0xbea20111	-0.3164144
45	0x3deb4f7c	0.1148977
46	0x3fd2874e	1.6447542
47	0x3e7faf8f	0.24969314
48	0xbf35c232	-0.70999444
49	0xbe80569f	-0.25066087
50	0x3f3290b5	0.69752055
51	0xbe9bff8e	-0.3046841
52	0xbf14042a	-0.57818854
53	0xbf0e6ff0	-0.55639553
54	0xbf910f26	-1.1332748
55	0x3e6eaffc	0.2330932
56	0xbf6f5fc0	-0.9350548
57	0x3d58c165	0.05291881
58	0xbf34385b	-0.7039849
59	0x3f485095	0.7824796
60	0x3e94da09	0.29072598
61	0xbe25c34c	-0.16187781
62	0x3e3da0ae	0.18518326
63	0x3e6b1552	0.22957352
64	0xbd8c5c63	-0.06853559
65	0xbc91304d	-0.017723227
66	0xbe2bf337	-0.16791998
67	0xbd7d61f3	-0.06186099
68	0x3f01ca03	0.5069887
69	0x3e657f75	0.22411902
70	0xbd1f57e9	-0.038902197
71	0x3f1a2c3b	0.6022374
72	0xbe985dce	-0.29759067
73	0xbe3ccb44	-0.18436915
74	0x3e9db71d	0.30803767
75	0xbde9722f	-0.11398732
76	0x3c875fd8	0.016525194
77	0x3ec8fe7d	0.3925666
78	0x3d4f9e3c	0.050688013
79	0xbf902105	-1.1260077
80	0x3ec5dcf6	0.38645142
81	0x3e12311c	0.14276546
82	0x3d3b5b4a	0.045741357
83	0xbefc37d2	-0.49261338
84	0x3f18d374	0.5969765
85	0xbdab2e08	-0.08358389
86	0xbf95b1dc	-1.1694903
87	0x3e05a444	0.13050944
88	0xbdf4cedf	-0.1195352
89	0x3e759e73	0.23986225
90	0xbe53d38f	-0.20686172
91	0x3eeddd41	0.46457866
92	0x3dc88e22	0.09792735
93	0x3ecf738f	0.40517852
94	0xbf8542f4	-1.0411057
95	0x3e25ff1c	0.16210598
96	0xbe15c23f	-0.1462488
97	0xbd741bd4	-0.05959685
98	0xbef3d153	-0.4762064
99	0xbb8cf547	-0.0043017003
100	0xbeb8d60a	-0.361008
101	0x3d690a9d	0.056894887
102	0xbcb2be80	-0.021819353
103	0x3f68bc7d	0.9091261
104	0xbf1f41e8	-0.6220994
105	0x3e23bf92	0.15991047
106	0xbfb30d9d	-1.398853
107	0x3ed4715c	0.41492736
108	0x3fa1c68e	1.2638719
109	0x3ec57b22	0.38570505
110	0x3ea123b9	0.31472567
111	0x3d94b1b6	0.07260458
112	0x3e0ae528	0.13563979
113	0xbe279e38	-0.1636895
114	0xbf17959d	-0.59212667
115	0xbe0c983b	-0.13729946
116	0x3ec31b90	0.38106966
117	0x3e409027	0.1880499
118	0xbd61bb04	-0.055109993
119	0x3e973be5	0.29537883
120	0xb927b4f3	-0.0001599377
121	0x3efadb9f	0.48995683
122	0x3f0af90e	0.5428628
123	0xbd958dbb	-0.073024236
124	0x3d285d25	0.041104455
125	0x3f872228	1.0557299
126	0xbf3e2ca4	-0.74286866
127	0xbe3eeac1	-0.18644239
128	0xbe42490f	-0.18973182
129	0xbf1adb58	-0.6049094
130	0xbec6fce4	-0.38864815
131	0xbd2cb5de	-0.04216563
132	0x3e6facd8	0.23405778
133	0x3eb88cf6	0.36045045
134	0xbebc6f61	-0.36803725
135	0x3e470ea2	0.19439176
136	0x3e7c8a13	0.24662046
137	0x3d21e3e3	0.03952397
138	0xbebf4d08	-0.37363458
139	0x3e3b8533	0.1831253
140	0xbf2cb737	-0.67467064
141	0xbfb49980	-1.4109344
142	0xbe084f85	-0.13311584
143	0xbe1c3a3c	-0.1525659
144	0xbd8dcecc	-0.06924209
145	0x3fa7ba4f	1.3103732
146	0x3e2717e9	0.16317715
147	0x3ea207c7	0.3164656
148	0xbdde5470	-0.10855949
149	0x3fa08b34	1.2542481
150	0xbca63d16	-0.0202928
151	0x3f30e5e8	0.6910081
152	0xbf2a029f	-0.6641025
153	0xbf8666bf	-1.0500106
154	0x3f1955e1	0.59896666
155	0xbf05e296	-0.5229887
156	0xbf288d3d	-0.6584051
157	0xbf386f6b	-0.7204501
158	0x3ee8c1ac	0.4546026
159	0xbf38cbe2	-0.721861
160	0xbe74a21e	-0.23889968
161	0xbd68cca2	-0.056835778
162	0x3e8a4d39	0.2701204
163	0x3afafd6a	0.001914901
164	0x3e0e403f	0.13891695
165	0x3f2b412b	0.66896313
166	0x3eb51f66	0.35375518
167	0xbe928c58	-0.286227
168	0x3f75b8b1	0.9598494
169	0xbe8835a4	-0.26603425
170	0x3e7ae18b	0.245001
171	0xbc239296	-0.009983679
172	0x40072079	2.111357
173	0xbf108794	-0.56456876
174	0x3ecf99d3	0.40547046
175	0xbeb6cfee	-0.35705513
176	0xbff61731	-1.9225827
177	0x3faaff78	1.3359213
178	0x3f990680	1.1955109
179	0x3e7e1cc1	0.24815656
180	0x3f2c1b34	0.6722901
181	0xbf222912	-0.6334392
182	0xbf92933e	-1.1451185
183	0x3f83792e	1.0271356
184	0xbf258dca	-0.6466948
185	0xbeb5f3df	-0.3553762
186	0xbe86186b	-0.26190504
187	0x3f8472c2	1.0347521
188	0x3df48a42	0.11940433
189	0xbed002cd	-0.40627137
190	0xbea4c231	-0.32179406
191	0xbddd042b	-0.107918106
192	0x3e6284f7	0.22121035
193	0x3f313481	0.6922074
194	0x3d8891f9	0.06668467
195	0xbf7c9dd0	-0.986783
196	0xbe92387a	-0.28558713
197	0x3eb3a484	0.35086453
198	0x3fa0752e	1.253576
199	0xbe6b1273	-0.22956257
200	0xbf6728e5	-0.90296775
201	0x3ed20e65	0.41026607
202	0x3f50aabb	0.81510514
203	0xbe93f072	-0.28894383
204	0x3f0d5d9b	0.55220956
205	0x3f9c2bb9	1.2200843
206	0xbeb33090	-0.34997988
207	0x3ed67b76	0.41891068
208	0x3f7d70f4	0.9900048
209	0xbed9cdb4	-0.42539752
210	0xbf3dd590	-0.74153996
211	0xbfa81e3a	-1.3134224
212	0xbe3e1438	-0.185624
213	0xbf496056	-0.7866262
214	0xbf5acfd8	-0.85473394
215	0xbf236bcb	-0.63836354
216	0x3e818847	0.25299284
217	0x3fcde979	1.6086875
218	0xbf43c866	-0.7647766
219	0x3f421d85	0.75826293
220	0xbe967169	-0.293834
221	0x3f696e1a	0.91183627
222	0xbf314ca4	-0.6925757
223	0x3ed19a1a	0.40937883
224	0x3d8308bd	0.06398151
225	0x3ca90278	0.02063106
226	0x3f3b77f6	0.7322992
227	0x3e84ccc1	0.25937465
228	0x3e374463	0.17897181
229	0x3cce5a08	0.025189415
230	0xbea53260	-0.32264996
231	0xbe9ad583	-0.30241022
232	0xbf2edbad	-0.6830395
233	0xbfcdcdc0	-1.6078415
234	0xbf8fd3b1	-1.1236478
235	0xbce0eb0b	-0.027455827
236	0xc00c0bdf	-2.1882246
237	0x3c60befe	0.013717411
238	0xbfd592a8	-1.6685381
239	0x3ee1af4e	0.4407906
240	0x3f2bf583	0.67171496
241	0xbf62e7d2	-0.8863498
242	0xbf7a00fa	-0.9765774
243	0x3ebd3f78	0.36962485
244	0x3d5b0145	0.053468008
245	0x3cbfbe1d	0.023406083
246	0x3f2a78b5	0.66590434
247	0x3dfdb105	0.123872794
248	0x3f5e68fe	0.86878955
249	0x3ca0f2ca	0.01964702
250	0x3eeb16d8	0.45915866
251	0xbf4a480a	-0.7901617
252	0xbf09515e	-0.5363978
253	0x3e6eb375	0.23310645
254	0xbe21dfdf	-0.15808056
255	0xbe57d7a1	-0.2107835

bias f4 [64]
0	0xbee785aa	-0.45219165
1	0xbe2a2701	-0.16616441
2	0xbe2ba0df	-0.16760586
3	0x3f126813	0.57190055
4	0x3ccd59ac	0.025067173
5	0x3eaa51ea	0.3326562
6	0xbe9d0e61	-0.30675033
7	0x3e8f2da0	0.27964497
8	0x3e404f1d	0.1878018
9	0x3f0bd8ce	0.5462769
10	0xbc66cb22	-0.014086517
11	0xbddcb1f0	-0.107761264
12	0x3976da58	0.00023541728
13	0xbd714309	-0.05890182
14	0x3f14389e	0.5789889
15	0xbe3e2dcc	-0.18572158
16	0x3f07f9d4	0.5311558
17	0x3e905dc4	0.28196537
18	0xbe27c9c6	-0.16385564
19	0x3e1728e1	0.14761688
20	0x3f13a868	0.5767884
21	0x3c4478d9	0.011991703
22	0x3e865066	0.26233214
23	0xbf064ae3	-0.5245802
24	0xbdf5a876	-0.11995022
25	0xbeda10c3	-0.42590913
26	0xbec25c04	-0.37960827
27	0x3edeba12	0.43501335
28	0x3caf618c	0.021408819
29	0x3dcb4322	0.09924914
30	0xbef54336	-0.4790284
31	0x3ecd8193	0.4013792
32	0x3eb3a907	0.35089895
33	0x3e0a50bf	0.13507365
34	0xbece67d7	-0.403136
35	0xbed1261b	-0.40849385
36	0xbdb138bc	-0.08653399
37	0x3da8babe	0.08238743
38	0xbf29346d	-0.6609562
39	0xbec31c1c	-0.38107383
40	0x3f12cab7	0.5734057
41	0x3f230adc	0.63688445
42	0x3dd7ebb5	0.105430044
43	0x3e93cf13	0.28868923
44	0x3de3833f	0.111090176
45	0x3d3228c2	0.0434959
46	0xbebe44da	-0.37161905
47	0x3ed069e4	0.40705788
48	0x3ef2c03e	0.47412294
49	0xbeae0ddc	-0.3399495
50	0x3ea3ac62	0.31967455
51	0xbeb582d4	-0.35451376
52	0x3ef900ad	0.48633328
53	0xbea18ed8	-0.31554294
54	0xbf0d7c8b	-0.5526816
55	0x3c8cb101	0.017174246
56	0x3e618c32	0.22026137
57	0xbf07e96f	-0.53090566
58	0x3f0c4c9c	0.54804397
59	0xbdf76741	-0.12080241
60	0xbdae6d9b	-0.08516999
61	0xbf0177a0	-0.5057316
62	0x3f0aeb3d	0.54265195
63	0xbf0c40c1	-0.54786307

weight f4 [1, 64]
0	0xc06d7894	-3.7104845
1	0x4013b26a	2.3077645
2	0xc0e017e1	-7.002915
3	0x4083d25c	4.1194286
4	0x404c72af	3.1944997
5	0x40a0691c	5.0128307
6	0xc033a42a	-2.8068948
7	0x40a7649b	5.231031
8	0x40abaa4b	5.3645377
9	0x40a3bafd	5.1165757
10	0xc049f079	-3.1553023
11	0x40b4598e	5.635932
12	0xc0b912c5	-5.783541
13	0xc05b32a5	-3.424966
14	0x40a2df93	5.089792
15	0xc0b4b647	-5.6472507
16	0x40a68e8e	5.2049017
17	0x409c89a5	4.8918023
18	0xc0af77cc	-5.4833736
19	0x407201e4	3.7813654
20	0x40a621f6	5.1916456
21	0x3fdd5b2c	1.7293448
22	0x40a8308b	5.2559257
23	0xc0a5eda5	-5.1852593
24	0x40c3a82d	6.1142793
25	0xc0947f80	-4.640564
26	0xc08dcb0a	-4.431035
27	0x407dd6f0	3.9662437
28	0x40af95ad	5.487021
29	0x40c0b219	6.0217404
30	0xc0a5fc64	-5.1870594
31	0x40446b02	3.0690312
32	0x4097727f	4.7327266
33	0x40854228	4.1643257
34	0xc081d492	-4.0571985
35	0xc031d7ef	-2.7788045
36	0xc0e21178	-7.0646324
37	0x408e1fc8	4.4413795
38	0xc0a083ad	-5.0160737
39	0xc0a59944	-5.174959
40	0x4086668c	4.200018
41	0x408ef432	4.467309
42	0xbfed352a	-1.8531849
43	0x40a57489	5.1704755
44	0x406569de	3.5845866
45	0xc0caeab0	-6.3411484
46	0xc0b8f5a0	-5.7799835
47	0x40a2e116	5.0899763
48	0x409e5608	4.948002
49	0xc0af64d5	-5.4810586
50	0x40b05fdb	5.511701
51	0xc08b1a00	-4.346924
52	0x402b700e	2.6787143
53	0xc0a2bf84	-5.0858784
54	0xc0775f9a	-3.86521
55	0xc085bd44	-4.1793537
56	0x40a7ae0c	5.239996
57	0xc09deb9b	-4.9350104
58	0x409e4ed4	4.9471226
59	0xc0776609	-3.8656027
60	0xc04557bf	-3.0834806
61	0xc096f0f5	-4.7169137
62	0x40ae834c	5.4535275
63	0xc096da34	-4.714136
