TD3/data/exp/Hopper-v3/2022-07-01-21-26-53_actor.pt (torch, 23639 bytes, 6 tensors)

weight f4 [64, 11]
000000 3b 98 d2 be aa 32 ac 3f 20 69 c8 3e 76 a4 cc 3e
       -0.41131768 1.3452961 0.39142704 0.39969224
000010 19 8d 42 3f 4f 6c b5 3d 59 ee f4 bd 0c 2d 84 3d
       0.7599655 0.08858549 -0.11959524 0.064539045
000020 78 55 2d 3d 70 42 a5 3d a3 ca 01 3d cc 09 c2 be
       0.042317837 0.080693126 0.03168739 -0.378981
000030 78 1b b4 be 3a 7b 32 bf b4 e9 47 bf c4 59 93 be
       -0.35177207 -0.6971928 -0.7809098 -0.28779423
000040 91 19 ec bd 10 8a 53 3e d7 8b d9 3e be 0f bf be
       -0.11528314 0.20658135 0.42489502 -0.37316698
000050 c7 f3 62 be 1e 2f 34 be 93 38 22 3f 39 71 04 3f
       -0.22163306 -0.17596099 0.63367575 0.51735264
000060 5c 07 65 bf ac c6 f4 be b7 33 85 3e 5f e2 d9 be
       -0.89464355 -0.47807825 0.26016018 -0.4255552
000070 29 30 12 bd 40 8d 0d 3f fa 01 d4 be 95 6c 5d be
       -0.03569046 0.55293655 -0.41407758 -0.21623452
000080 ac 87 d1 bd 3d 78 5a be d8 c6 a6 be eb 5a f6 be
       -0.102309555 -0.2133493 -0.3257358 -0.4811624
000090 78 0e d6 be 5d 24 f4 bc 8b 8f c0 3e 09 fb b9 be
       -0.41807914 -0.029802496 0.37609515 -0.36324337
0000a0 43 0a 15 3f e5 d6 e5 be 1a 3d 88 be 4e 4e 4e be
       0.58218783 -0.44890514 -0.26609117 -0.20147058
0000b0 ea de a0 3e cd 46 f9 be e4 29 16 be 66 85 c9 3e
       0.3142007 -0.4868683 -0.14664418 0.39359587
0000c0 81 25 a9 be 4b 52 f3 3e 93 61 19 3f 1e 2d b5 3e
       -0.33036426 0.47523722 0.5991451 0.35385984
0000d0 1a 6e 5a be 95 71 83 be 53 80 03 be d3 b6 48 be
       -0.21331063 -0.25672594 -0.1284192 -0.19600992
0000e0 b7 e5 28 40 8c 19 c8 be 4b fe b0 3e 3b c4 fc be
       2.6390207 -0.3908199 0.3456901 -0.49368462
0000f0 8b 74 52 be fc 23 05 bf e0 41 4e 3d 02 ff 98 3d
       -0.2055227 -0.5200803 0.050355792 0.07470514
000100 8e 03 74 3d 28 a4 80 bc 15 60 42 3c 59 b4 ba 3f
       0.059573703 -0.015703276 0.011863728 1.4586288
000110 2e ce fb bf 08 ab 8a bf fd a4 88 bf e7 b0 70 3e
       -1.9672296 -1.0833445 -1.067535 0.23504983
000120 bf 7f b2 3b c4 b7 68 be 4e 17 7b 3e 89 6c e0 3d
       0.0054473574 -0.22726351 0.24520609 0.109582014
000130 57 38 f7 3c 99 13 7c 3e 99 13 ee be a9 99 27 be
       0.030178232 0.24616851 -0.46499327 -0.1636721
000140 3e 0d 95 be 13 17 02 be 57 d9 a4 3e 59 3b 31 3d
       -0.29111665 -0.12704115 0.32197067 0.04326949
000150 66 3d 87 be b4 49 05 3e 14 3f b5 3d 13 c6 4c be
       -0.2641403 0.13016397 0.08849922 -0.19997434
000160 84 0e 50 be db ae 56 3f ac e2 e5 be 1d 65 50 be
       -0.20318037 0.8386056 -0.448995 -0.20351072
000170 74 9e 19 3e c0 25 90 3e 7b d4 13 bf 61 7c f3 3e
       0.15001851 0.281538 -0.57746094 0.4755583
000180 79 cc 02 bf 21 69 91 be ce 64 30 3e e9 e0 0b bf
       -0.5109325 -0.2840052 0.17225954 -0.5464006
000190 f1 ba bb bc 83 22 76 be c5 68 2e bf 63 78 2d be
       -0.022916289 -0.24036603 -0.68128616 -0.16940455
0001a0 b5 95 06 3c cd 1d 36 3f 46 0b 2a 3e 37 d8 05 be
       0.008214404 0.7113922 0.16605863 -0.1307076
0001b0 5d 44 66 bb 73 21 cd be a2 98 2d 3f a1 6f 0b 40
       -0.0035135963 -0.40064582 0.67811024 2.1786883
0001c0 74 7d 68 bf 74 58 b7 3e 80 69 49 bd 0e 48 1e 3e
       -0.90816426 0.35809672 -0.04917288 0.15457174
0001d0 17 3e 98 bf bb 7b c8 3a 37 dc be bd d2 cd ec 3d
       -1.1893948 0.0015295664 -0.093193464 0.115626946
0001e0 ca 31 9b 3e d7 e4 88 3e 89 1b 47 3e 5a ae f3 3e
       0.30311424 0.2673709 0.19444098 0.47593957
0001f0 a2 ca 06 3f 69 6b af bd 1a 11 74 3e 69 02 15 bf
       0.52652943 -0.08565409 0.23834649 -0.582068
000200 7d eb 9c 3e cb fb 85 be de a5 d7 bd dd cc 8d be
       0.30648413 -0.26168665 -0.105296835 -0.2769536
000210 e6 ad eb be a5 31 19 40 09 cf 95 bf df bb e2 be
       -0.4603111 2.393655 -1.1703807 -0.4428396
000220 84 85 f0 3c de 4d 9d 3e 38 54 9c 3d 66 08 a4 3c
       0.02936054 0.3072347 0.07633251 0.020023536
000230 91 e0 83 bd 72 5f dd bd 82 fc 0e bc d0 a8 9b bd
       -0.06439317 -0.108092204 -0.008727195 -0.07600558
000240 07 ea 1c c0 b7 9b ab 3f 9c 70 c8 3d 1e 00 85 bd
       -2.451784 1.3406895 0.097871035 -0.06494163
000250 16 7b 48 bf b0 18 2a 3f 71 57 df be 52 e1 d4 3e
       -0.78312814 0.6644392 -0.436214 0.41578156
000260 41 36 94 3e 0e 85 56 bd be b5 b8 3e 92 59 e1 3e
       0.28947642 -0.052372985 0.36076158 0.4401365
000270 3b a8 95 3f 43 09 d4 3e 30 28 5e bf 7c 0b 26 bf
       1.1691965 0.41413316 -0.8678007 -0.64861274
000280 b1 bb 5a 3f 91 91 6d be e2 2b 94 3e 26 08 58 3e
       0.85442644 -0.2320006 0.2893973 0.21096858
000290 f2 62 28 3e 5b cb c6 be 6d 57 f9 bf 28 5b e7 3e
       0.16443995 -0.38827023 -1.9479805 0.45186734
0002a0 62 cf d9 3d 62 de 39 bf 89 d9 dc 3e 7a 0e 03 be
       0.10635258 -0.72604954 0.43134716 -0.12798491
0002b0 5c 29 f2 be 9d 63 33 3e e6 0d 11 3e 41 3d 7d 3e
       -0.4729718 0.17518468 0.14165458 0.24730398
0002c0 ef cf 50 3c 17 42 d3 3e 2b 77 55 3e 39 57 70 be
       0.012744888 0.4126136 0.2084624 -0.23470773
0002d0 29 8a e5 3d fd e4 24 be d3 fa 90 3c 4c dd af be
       0.112079926 -0.16102977 0.017697727 -0.34348524
0002e0 d7 b6 95 3e 0f 0d 4a 3e 59 f4 94 3e 43 aa c0 be
       0.29241058 0.19731544 0.29092672 -0.376299
0002f0 10 a7 42 3f 99 35 d4 be 02 56 9c be 42 db c2 3e
       0.7603617 -0.41447142 -0.3053437 0.38057905
000300 a6 25 ad b8 64 6e ed 3d ea 6c d7 3d 65 2e b3 3d
       -8.2562954e-05 0.11593321 0.105188206 0.087490834
000310 74 12 d7 bc 2e 05 51 be 9a 2a 9d 3e 00 f9 b1 be
       -0.026253916 -0.20412132 0.30696565 -0.34760284
000320 30 c5 0e 3f 90 bb 40 be e0 fd 03 3d e8 4c ce bb
       0.55769634 -0.1882155 0.032224536 -0.006295789
000330 70 fb 7f 3e 87 fb 96 bd 27 cd 4f 3e a4 21 d5 3c
       0.2499826 -0.07372194 0.20293103 0.026017018
000340 c3 9c 59 be ff 41 96 bd d3 39 82 bf 4b 66 b0 bd
       -0.21251206 -0.073368065 -1.0173897 -0.08613261
000350 a1 f1 f4 be 02 87 2c 3f f8 e3 7f be b9 ca d4 bd
       -0.47840598 0.67393506 -0.24989307 -0.10390229
000360 21 23 ec 3d 85 16 06 3c e3 c6 34 be 14 c5 67 be
       0.11530138 0.00818408 -0.17653994 -0.22633773
000370 2d 65 03 bf 5b 93 82 3f a0 01 9e bf 98 25 e0 be
       -0.51326257 1.0201219 -1.2344246 -0.43778682
000380 35 5d 98 3e 26 70 fb 3e 61 2e 25 3e 8b cb 5c 3e
       0.2975861 0.49109 0.16130973 0.2156202
000390 2d 44 29 be ee 75 51 3c b4 6f 84 3c bf 2e 1d 3d
       -0.16529913 0.012784464 0.016166545 0.03837466
0003a0 4e fe 4c 3f b9 98 43 3e 63 ec 85 be 12 d9 b6 bd
       0.8007554 0.19101228 -0.2615691 -0.089281216
0003b0 c0 a7 0f be 50 a6 6f 3f 0e a5 80 3d cb 03 49 be
       -0.14028835 0.9361315 0.06281482 -0.19630353
0003c0 6c 7c a5 bd ca 19 3b 3d 3c b5 8b bd 6e 25 73 3e
       -0.08080372 0.04567889 -0.06821677 0.23744747
0003d0 f7 93 51 3e ad 2f 20 3e bc 9e 07 bf 3e c8 7a be
       0.204666 0.15643187 -0.52976584 -0.24490449
0003e0 ed bf c8 3e 50 5a e8 bd f9 dc ec 3b 90 99 db 3d
       0.39208928 -0.11345351 0.0072284904 0.10722649
0003f0 35 7c 61 3d ab 1d 0a bd b2 72 8f be 72 3b 39 bf
       0.055050094 -0.0337197 -0.28017193 -0.7235633

bias f4 [64]
000000 e5 9b 97 be a0 49 e1 bc 83 cd 59 3e aa ef 31 bf
       -0.29611126 -0.027500927 0.21269803 -0.69506323
000010 0d 62 03 3f f1 22 2d bf ea 62 29 bf 3d 39 1d 3e
       0.5132149 -0.6763144 -0.66166556 0.15353866
000020 40 97 e0 bd bb a4 89 bd f4 64 1c 3f 5a 9f 08 3e
       -0.10966349 -0.06720873 0.6109154 0.13342038
000030 98 37 57 bf 3d 27 c1 3d 0e 42 84 3d b7 a8 07 bf
       -0.84069204 0.09431312 0.064579114 -0.52991813
000040 df b3 44 3e a5 ba 21 be 09 0e 5a 3e 97 44 d8 3e
       0.1920924 -0.15793855 0.21294416 0.4223983
000050 aa 41 40 bf 66 3c ff ba fa 20 36 3e c6 9b 82 be
       -0.75100195 -0.0019472956 0.17786017 -0.2550947
000060 60 87 b8 be ba 84 6e bf 68 b1 dd 3e 8c cd 89 3e
       -0.36040783 -0.93171275 0.43299413 0.26914632
000070 55 4f a3 3e 9d 79 ce 3e 22 88 fe be 34 5e e8 3e
       0.31896463 0.4032716 -0.49713236 0.4538437
000080 e2 d6 bf bb ab 18 f8 bc 05 19 cc bd 02 87 81 bd
       -0.0058544734 -0.0302852 -0.099657096 -0.06324579
000090 7d a8 21 3f 43 71 98 be fa 28 78 be 82 cd 59 3f
       0.6314772 -0.29773912 -0.24234381 0.85079205
0000a0 04 07 9c 3e 56 01 39 3e d4 2d e6 3d b2 aa 34 3f
       0.30474102 0.18066916 0.1123921 0.7057296
0000b0 85 ed 57 3f 82 ea 81 3e 4d 8c 39 bf 9f f0 62 be
       0.843468 0.25374228 -0.72479707 -0.22162102
0000c0 44 b1 e3 be 27 d1 19 bf 80 4f 3b 3f de f5 93 be
       -0.4447118 -0.60084766 0.7316818 -0.2889852
0000d0 5f 38 28 3f 93 6e 24 3f 2f bc 12 3e 03 5c ec bd
       0.65711015 0.6423122 0.14329599 -0.11540987
0000e0 ee c1 90 3e 82 8f f2 bd 50 e7 ab 3d ce f8 19 3f
       0.28272957 -0.11843778 0.08393729 0.6014527
0000f0 73 2b 40 3d 34 ff 83 bd ec b1 21 bd 6c 08 21 3e
       0.046916436 -0.064451605 -0.03947632 0.15725869

weight f4 [64, 64]
000000 24 43 ed bd e7 cc 62 3d 71 90 06 3f 75 e1 3b 3e
       -0.11585072 0.05537119 0.5256415 0.18347724
000010 70 d9 31 3d 97 c3 86 3e 1a c3 5c be f4 93 9e be
       0.043420255 0.26321098 -0.215588 -0.30972254
000020 94 85 02 3e 50 2e 15 3e 8c 23 b1 3d e5 b5 31 3e
       0.12746269 0.14568448 0.08649358 0.17354544
000030 50 3f a6 3c 15 82 af be 42 9a db be 07 f8 96 be
       0.020293862 -0.34278932 -0.42891127 -0.29486105
000040 69 72 cf be ff 48 46 3e ce 03 11 3e 75 d7 81 3e
       -0.40516976 0.19363783 0.14161608 0.25359693
000050 63 4a 61 3f 6b 79 08 3f 9b ab 35 3f e8 f5 74 bd
       0.8800413 0.5331027 0.70964974 -0.059804827
000060 45 f7 f0 bc c2 0a 09 3d 2b 6e 1b be cc fa 8e 3e
       -0.029414782 0.033457525 -0.15178744 0.27925718
000070 4b f7 4b 3c 1a 0f 7b be b8 57 df 3c 74 2a 3d 3d
       0.012449096 -0.2451748 0.027263507 0.046183065
000080 e4 64 91 be ab fc f2 3e 90 37 15 3f e7 79 32 bd
       -0.28397286 0.47458395 0.58287907 -0.043573286
000090 ed 7b 99 be db 24 1d 3d 9a 57 ce 3e d9 78 70 3e
       -0.2997736 0.038365226 0.4030121 0.234836
0000a0 5d 04 69 be 6b f0 e9 3e da d4 fa be 77 fd 81 3e
       -0.2275557 0.45691237 -0.48990518 0.2538869
0000b0 04 ac 9a 3d 69 d8 18 be a2 49 10 bf 16 99 db 3d
       0.075523406 -0.14926304 -0.56362355 0.10722558
0000c0 88 31 75 be 0e f1 da bd 0b 2b ff 3d 4f a7 48 be
       -0.23944676 -0.10690509 0.12459382 -0.19595073
0000d0 0d fe 06 bb 84 b2 d4 be d6 70 35 be 69 47 01 3f
       -0.0020598203 -0.41542447 -0.17718825 0.5049959
0000e0 28 18 fb bd dc 5d 7f 3e 67 1b 05 3f 1f d5 86 3e
       -0.12260467 0.24938148 0.5199494 0.26334473
0000f0 5a a4 bf bb bd 6b 90 3e 11 d4 a4 bd f0 15 01 be
       -0.0058484497 0.28207198 -0.08048261 -0.12606025
000100 53 9d a0 be 77 77 4c bd 5e 30 be bb ca 7d 7b be
       -0.3137003 -0.049918618 -0.0058041057 -0.24559703
000110 b5 36 4d bb e9 1c 11 bf 41 52 11 bf 62 18 f5 bc
       -0.0031313126 -0.5668474 -0.56766135 -0.029918853
000120 98 a8 3c be 9f 04 47 bb 89 72 d7 3e 9d cb 32 3c
       -0.18423688 -0.0030367745 0.4207957 0.010912803
000130 17 da 23 bf 3c 5d 8b 3d 08 d6 66 3f a5 5b 5f bd
       -0.64004654 0.068048924 0.90170336 -0.05453076
000140 83 0a e5 3e 85 22 d1 3d ce 1b b9 bd f6 37 c7 3e
       0.44734582 0.10211662 -0.090385064 0.38909882
000150 8c df 89 be 8f d1 5a bf 56 df 96 3e 04 4c c8 be
       -0.26928365 -0.8547601 0.29467267 -0.39120495
000160 90 6a c6 be c5 8f 86 be b4 d7 0b 3f d6 e0 8e 3a
       -0.38753176 -0.26281562 0.5462601 0.0010900747
000170 96 9e 3c 3e c1 49 40 3f b5 4a db 3e 64 2d 78 3e
       0.1841987 0.7511254 0.42830434 0.24236065
000180 cf 91 80 be d2 b2 2d be cb d2 03 3e 2f 4c ba be
       -0.25111243 -0.16962746 0.1287338 -0.36386248
000190 ee d0 3c 3f d5 20 3e bf 0a 78 58 be 03 d9 94 3e
       0.737563 -0.7426885 -0.21139541 0.29071817
0001a0 f8 23 45 be 21 9d 94 be 7f fb 8c 3e f4 c6 96 3e
       -0.19252002 -0.2902613 0.27535626 0.29448664
0001b0 3a 8e 90 bd a8 f4 b0 3e 44 8f 0e bf 7c a6 09 bf
       -0.070583776 0.34561658 -0.55687356 -0.5376966
0001c0 85 32 db be 26 91 ce bc 39 75 d9 3e 3d 8c e3 be
       -0.4281198 -0.025215697 0.42472246 -0.4444293
0001d0 15 86 51 be b5 4c 48 3e 2d 6c be 3e 8c 16 aa 3d
       -0.20461304 0.19560511 0.37191907 0.08305082
0001e0 f2 6f 7f 3e 68 15 43 bc 15 6f 89 3d 62 8d 06 3f
       0.24945047 -0.011906959 0.0671064 0.52559483
0001f0 e7 1a 8e be 84 7f 0f 3e 60 8e 3b 3e bb 88 85 bd
       -0.277549 0.14013487 0.1831603 -0.0652022
000200 75 0b e9 bc b2 a6 0b bd 18 bc 17 3f 7b cd 5a 3d
       -0.028447846 -0.03409452 0.59271383 0.053418618
000210 b4 5d 65 3e 6d 1f 26 3e 14 d7 db 3e 71 b5 9e 3e
       0.22399026 0.16222925 0.4293753 0.30997804
000220 de 66 c3 bc b3 24 41 3e d7 0b 04 3d 29 14 37 3e
       -0.023852762 0.18861656 0.032237854 0.17878784
000230 84 bf 62 be d0 41 3d be b9 93 80 bd 2b 56 d0 3c
       -0.2214337 -0.18482137 -0.06278176 0.025431713
000240 34 10 66 be 98 c7 28 bf ba c8 dd bd d0 51 07 bc
       -0.22467119 -0.65929556 -0.10829301 -0.008259252
000250 10 7f 03 bb 6a 33 9f bd 78 03 1d 3a e6 3c 43 bd
       -0.0020064749 -0.07773478 0.00059895916 -0.0476655
000260 a8 52 2f be cf ed 9f bd 32 6f 8b be fb b9 81 be
       -0.17121375 -0.0780903 -0.27233273 -0.25337204
000270 03 30 2e 3c 92 65 2d 3e c6 ec f1 be 2e d5 45 3d
       0.010631564 0.16933277 -0.47250956 0.048299007
000280 2a 33 00 3f dc 8e 06 be 4c a5 e0 be 19 c9 a4 bb
       0.5007807 -0.13140434 -0.43876112 -0.0050288555
000290 37 b9 69 3f cc 18 10 3e c7 c3 03 3e 0d e2 44 be
       0.9129824 0.1407196 0.12867652 -0.19226857
0002a0 c2 34 ab be 8c 50 79 bd d3 ae 28 3f af 2e a2 3e
       -0.3343869 -0.06086783 0.6589176 0.31676242
0002b0 9d 16 9e 3e 8d ee 54 3e e2 e1 6e 3d 2b d0 46 be
       0.30876628 0.20794125 0.058320887 -0.19415347
0002c0 2a 6b fa 3e b1 36 00 be 1e 92 b0 bc 17 3d 35 3f
       0.48909885 -0.12520863 -0.02155405 0.7079634
0002d0 85 92 75 3d 49 51 a5 be ff f8 59 3f 32 9e f5 be
       0.059954185 -0.32288578 0.8514556 -0.47972256
0002e0 bd e0 06 3f b1 26 20 3f 8e 2f aa 3d ce 06 a5 3e
       0.52686673 0.6255904 0.083098516 0.32231754
0002f0 15 db 79 3e e1 e3 e4 3e d2 03 70 3e e1 ad 89 bb
       0.2439998 0.44705108 0.23438957 -0.004201636
000300 14 b3 2b bd a4 5a 70 bd 48 ba ed bd f8 4c 1c 3d
       -0.04191883 -0.05868019 -0.11607796 0.03815934
000310 dc e6 2e 3c 41 d1 ae bc 35 53 bf be 57 ba 5d be
       0.010675158 -0.021340014 -0.3736817 -0.21653114
000320 d8 6e 5b 3c a8 b3 af 3e 2b 8c bc be c3 05 33 be
       0.013393126 0.34316754 -0.3682569 -0.17482667
000330 a9 ee 40 3e 29 cd 3b 3e 4e ec 52 3c 72 10 1c bc
       0.18841042 0.18339981 0.012873722 -0.009525405
000340 ed aa e9 bd 6e 20 43 bc 2b b1 19 3e 0b 1f 89 bc
       -0.11409555 -0.011909587 0.1500899 -0.016738435
000350 a0 eb bd 3d 25 3c c8 3d 83 42 6c be 25 24 35 bd
       0.092734575 0.09777097 -0.23072247 -0.044223923
000360 b4 a0 ac be dd bf dd 3e e2 ad 60 be a1 50 8e be
       -0.33716357 0.43310443 -0.21941331 -0.2779589
000370 48 f5 80 be cd 00 3d 3d 00 74 43 3e dd cf 0f 3e
       -0.25187135 0.04614334 0.19087219 0.14044137
000380 60 29 05 3e cf 61 60 be c8 63 b0 3d aa e6 e5 bd
       0.13004065 -0.21912311 0.08612782 -0.11225636
000390 e9 2c a7 be 85 bb f7 3d ea ec 8c be 36 dd 2f 3e
       -0.3265145 0.120963134 -0.275245 0.17174229
0003a0 df 2a 93 3d 35 2a f5 3d 06 44 0d be 01 cd 90 3d
       0.071859114 0.11970941 -0.1379548 0.070703514
0003b0 44 c7 e6 3c 85 2f 95 bd 84 c7 24 be aa 3b dc bc
       0.02817119 -0.07284454 -0.16091734 -0.026883919
0003c0 b6 05 48 3e 6b ec 29 be 29 bb d3 be 7f ec 15 bf
       0.19533429 -0.16594093 -0.4135373 -0.5856399
0003d0 1f 4e db 3c 74 3e 00 3f c8 f6 83 be 7e 94 e5 3d
       0.02677065 0.50095296 -0.25774217 0.11209963
0003e0 55 09 13 be f7 21 96 3e 75 45 6f be f6 1a d3 be
       -0.14359029 0.29322788 -0.2336634 -0.41231507
0003f0 47 18 4d 3e 88 03 12 bf d2 94 40 be ea 4f bb 3d
       0.20028792 -0.5703664 -0.1880677 0.09146102

bias f4 [64]
000000 2a 37 87 3e 6f 78 b4 3e 16 91 39 3e 47 89 88 3c
       0.26409274 0.35248134 0.18121752 0.016667021
000010 52 21 57 3d 5f db 47 bd ea 33 d4 3e d0 ac f5 3c
       0.05252201 -0.048793193 0.41445857 0.02998963
000020 1b 1e 03 3e ea be 12 be 3a 9d 1f 3d 1b 9e 34 3e
       0.12804453 -0.1433064 0.038968302 0.17638437
000030 78 88 1c be 76 60 44 be b2 48 32 be e9 d1 8d 3d
       -0.15286434 -0.19177422 -0.17410544 0.06924803
000040 ca 92 94 3e 1f b1 86 3e 00 2b 69 3e cf f3 7f 3d
       0.2901824 0.26307008 0.2277031 0.062488373
000050 cb 34 b9 3e 2d e8 36 3d 14 f7 2c 3e 1d d8 a7 be
       0.3617309 0.044655014 0.16891128 -0.3278207
000060 84 3a ec be b5 bc 9a be e9 cb 47 3e 0a 0e e7 bd
       -0.46138394 -0.30222097 0.1951138 -0.112819746
000070 60 7b ea be 95 01 d5 3d 57 f0 f8 bc 63 7c 86 3c
       -0.45797253 0.104006924 -0.03038804 0.016416734
000080 ac 1c 23 be df a9 dd 3d 3f 4d 94 bd 0b 7c b2 bc
       -0.15928906 0.10823416 -0.07241296 -0.021787664
000090 a6 02 a2 be fb 28 37 bc b2 a0 1e bf f3 85 08 3c
       -0.31642646 -0.011179204 -0.6196395 0.008332717
0000a0 89 c5 e6 3d 67 55 8d 3e 55 c1 cb 3a c1 07 cb be
       0.112681456 0.2760422 0.0015545288 -0.39654353
0000b0 7f 8e 5e 3e 88 25 b9 3c a2 27 47 be 2c 31 fa 3d
       0.21734045 0.022600904 -0.19448712 0.1221641
0000c0 39 87 54 bd 1a 4e 30 3d cf 52 03 be ec 97 8b 3e
       -0.05188677 0.043043233 -0.12824558 0.27264345
0000d0 29 35 13 bd aa 7e 8b be 8a 50 af 3e dc 6b 2d 3e
       -0.03593937 -0.27245075 0.34241134 0.16935676
0000e0 8f 37 55 3e 0a bf 29 be 1c ca 46 3e 35 a7 9c 3d
       0.20821975 -0.16576782 0.19413036 0.0764908
0000f0 39 96 26 3d 6e cc c4 3b f6 96 dd bd eb aa eb be
       0.040670607 0.006005815 -0.10819809 -0.46028838

weight f4 [3, 64]
000000 50 d8 e1 3e 90 6a 36 be 71 a7 cf 3d f1 f3 b6 3f
       0.44110346 -0.17814088 0.10139359 1.4293195
000010 d7 19 97 bd a6 81 fb 3e 93 17 6d 3f e9 cf ed bf
       -0.073779754 0.4912235 0.92614096 -1.8579074
000020 30 fd 80 3e bf 23 8c be 19 c7 b9 bf a6 40 5c 3e
       0.25193167 -0.27371022 -1.4513885 0.21509036
000030 f5 3d 80 3e 17 dc c5 be a3 e0 c7 be 62 a3 10 be
       0.2504727 -0.38644478 -0.39038572 -0.14124826
000040 f1 09 46 3f 2c e3 b8 3e 02 34 b3 be 32 f2 cd 3f
       0.7735892 0.36110818 -0.35000616 1.6089537
000050 cc 2b d9 3f f9 8d ec be 08 e0 ca 3f 6c 9b 2e bf
       1.6966491 -0.46202067 1.5849619 -0.68205905
000060 e7 f1 87 bf 67 d8 4e bf 5f d5 c0 3e 67 3c a5 3f
       -1.0620698 -0.80798954 0.3766279 1.2909058
000070 5e 0b 00 3f 82 fd 1a be 61 39 04 3f 4f 65 a3 bf
       0.50017345 -0.15135768 0.51650053 -1.2765292
000080 98 2e 56 3f 95 03 cc 3d b6 48 b6 be c0 39 76 bf
       0.83664846 0.09961621 -0.3560235 -0.9618187
000090 87 ea a5 3f ba 7d 03 be f2 43 06 3f 94 64 18 bf
       1.2962197 -0.1284093 0.52447426 -0.5952847
0000a0 da 1f 7e 3f 60 c6 0d 3e c1 57 a8 3f 37 a2 28 3f
       0.9926735 0.13845205 1.315178 0.6587252
0000b0 4a 27 54 be 40 a7 85 be 92 5d 54 3d 2a 0f f3 bb
       -0.20718113 -0.26104164 0.051847048 -0.007417579
0000c0 3f 16 02 bf 72 5b 85 be 6c 64 74 bf 0c 8b ba bf
       -0.50815195 -0.2604633 -0.9546573 -1.4573684
0000d0 b9 56 e4 bf 50 30 20 3f f0 1a a7 be c6 39 25 bf
       -1.7838966 0.6257372 -0.3263774 -0.6454128
0000e0 39 0f 00 bf 7b b9 9f 3f 83 38 9c bf 7b e0 48 be
       -0.5002323 1.2478479 -1.2204746 -0.19616883
0000f0 9f 32 1d bf 54 46 af 3f ef 2e 6b be 34 67 c3 be
       -0.61405367 1.3693337 -0.22967122 -0.38164675
000100 3c b5 8a 3f b9 2b 23 3e 04 d2 3c 3b 4d 90 42 3f
       1.0836558 0.15934648 0.0028811703 0.76001436
000110 1e a5 b6 bf 04 b0 a6 be 4c c9 d5 3e 43 71 41 bf
       -1.426914 -0.32556164 0.4175514 -0.7556345
000120 d5 77 95 bf 21 a2 56 be 97 3a 18 3e 92 c3 bc 3c
       -1.1677195 -0.20960285 0.148661 0.023042474
000130 fc 70 b3 3f 58 5f e3 3e f3 21 56 bd 24 5c bf bf
       1.4018855 0.4440868 -0.05227847 -1.4949994
000140 5b ea d7 be 9f a7 e5 3f c6 c8 3b be 48 ce cd 3d
       -0.42170987 1.7941779 -0.18338308 0.10049111
000150 f6 d7 20 be f2 3e a4 3f 41 09 ad 3c 76 8a c3 bf
       -0.15707383 1.2831709 0.021122577 -1.527663
000160 5c f9 0a bf 75 bd 90 3f b6 bb 08 bf f4 43 e4 3e
       -0.5428674 1.1307818 -0.53411424 0.44583094
000170 6e 39 71 be 74 42 42 be e8 4f de bd 5b da 9d bf
       -0.23557064 -0.18970662 -0.10855085 -1.2332262
000180 5a 54 71 bf 3a 91 6f 3f 05 6e 74 3e 9a 8b 36 3f
       -0.94269335 0.93580973 0.23870094 0.71306765
000190 be e5 24 bf 15 8e e2 3e ea 73 31 3f ad b4 9c 3f
       -0.6441306 0.44249025 0.69317496 1.2242638
0001a0 ab bc 7a bf db 87 a7 bf 9d 29 a0 3f 34 18 a1 3d
       -0.97944134 -1.3088335 1.2512699 0.078659445
0001b0 b7 55 dc 3f 9f 22 f6 3f 1e d2 26 be d9 af 00 bf
       1.7213658 1.9229316 -0.16291091 -0.5026832
0001c0 4d 37 99 bc a7 74 af 3f fd ac ba bf 31 6c 71 3f
       -0.018703127 1.3707474 -1.4584042 0.9430571
0001d0 d2 a5 8b 3e 63 d2 d4 3f 83 d3 48 3f fa e7 87 3e
       0.27274948 1.6626705 0.7844774 0.26544172
0001e0 04 08 b0 3e 68 f2 1a bf 2b 68 ff be d3 83 9a 3e
       0.34381115 -0.6052613 -0.4988416 0.301787
0001f0 fc d0 82 bf 0c 1d 00 3f 67 bc 90 3f 06 df a9 3f
       -1.0220027 0.5004432 1.1307496 1.3271186
000200 8d 80 e3 3e f5 25 ac bf 63 63 a6 bf 1b 7e 77 bf
       0.44434014 -1.3449084 -1.299908 -0.96676797
000210 47 21 1d bf 70 f1 f4 bf e0 ed 03 c0 60 b0 8b be
       -0.613789 -1.9136181 -2.0613937 -0.27283
000220 32 5d 09 bf 87 d1 85 bf d7 4a f1 3e 50 96 01 40
       -0.5365783 -1.0454568 0.4712741 2.0247993
000230 a0 f3 f9 bc 5e 58 8b 3f cb d4 dd 3f c7 eb 98 3e
       -0.030511677 1.0886343 1.7330564 0.29867384
000240 fe c8 a7 3f dd 13 1e 3f 11 9a bb 3f 3d df 0d bf
       1.3108213 0.6174906 1.4656392 -0.5541876
000250 86 ba 0d bf 2b 56 06 3d a3 f5 5a bf 8b a6 9d be
       -0.5536274 0.03279702 -0.8553106 -0.30791125
000260 8c 81 70 be c1 ab 06 bf d3 c4 a8 bf 96 c2 3f 3c
       -0.23486918 -0.52605826 -1.3185066 0.011704108
000270 99 d0 8c 3f fc c8 de bf e7 90 03 40 4a f1 48 3e
       1.1001159 -1.7405086 2.0557191 0.19623294
000280 64 9c 77 bf ed 2f d4 3f ae 41 56 bf b6 94 8a 3f
       -0.9672301 1.6577126 -0.8369397 1.0826633
000290 6e 90 51 bf 49 86 6c bf c5 0b 58 bf f3 b1 0d bf
       -0.8186101 -0.923924 -0.8439296 -0.55349654
0002a0 e9 e2 8e bf 84 42 9f 3f 15 3f 1f 3f 12 2b 9f bf
       -1.1162997 1.2442174 0.6220563 -1.2435019
0002b0 9d e7 82 3f 38 51 08 3f a0 a6 16 c0 1d 4d c6 3f
       1.0226933 0.5324893 -2.35392 1.5492283
0002c0 6f a1 c7 3f 87 10 8f 3f dc 66 ee be a0 e7 3c 3f
       1.5596141 1.1176919 -0.4656285 0.7379093
0002d0 73 77 80 bd 77 e3 d4 3e 6e df a2 bf 1d cd 6f bf
       -0.06272783 0.41579792 -1.2724435 -0.93672353
0002e0 87 85 86 3f be df 07 3f 25 23 5a 3f 29 75 d8 3f
       1.0509499 0.5307578 0.85209876 1.6910754
0002f0 0c 26 c0 be 8e 64 dd be 6c 51 94 3e 0d 69 9a bf
       -0.37529027 -0.4324078 0.2896837 -1.2063309

bias f4 [3]
000000 13 03 68 3f 3f dc 71 3e 87 e4 94 3e
       0.9062969 0.23619173 0.29080603
