old_files/ppo/data/exp/InvertedDoublePendulum-v2/model/2022-06-17-09-07-44_critic.pt (torch, 22999 bytes, 5 tensors)

weight f4 [64, 11]
0	0x3f3a0621	0.726656
1	0x400fa80a	2.2446313
2	0x3e6bd222	0.23029378
3	0xbe41215b	-0.1886038
4	0xbd6c3cec	-0.057675287
5	0x3c8e810e	0.017395522
6	0xbdefedec	-0.11715302
7	0xbef601ac	-0.4804815
8	0x3da45b70	0.08025253
9	0x3e6e1b14	0.23252517
10	0x3ddd10d4	0.10794225
11	0xbd6341c1	-0.05548263
12	0xbfb1e7b2	-1.3898833
13	0xc00308a2	-2.047402
14	0xbe54d6d3	-0.20785074
15	0x3d73ea27	0.059549477
16	0xbfa1b7f9	-1.2634269
17	0xc080b4cd	-4.0220704
18	0xc024a9d1	-2.5728648
19	0x3e9971cd	0.29969636
20	0x3e6b41b8	0.22974288
21	0xbe879563	-0.2648116
22	0xbf0dc535	-0.5537904
23	0xbffd906a	-1.9809697
24	0xbf46e176	-0.77687776
25	0x3ef84108	0.48487115
26	0x3eea06cc	0.4570831
27	0xbf6abdfe	-0.91696155
28	0x3c704e33	0.014667082
29	0x3f5ea6d2	0.869733
30	0x3d46fca2	0.048580773
31	0x3df09240	0.11746645
32	0x3e321266	0.17389831
33	0x3f053ef0	0.5204916
34	0x40360872	2.8442655
35	0x405c49a3	3.4419944
36	0xbe169589	-0.1470548
37	0xbd47ff56	-0.04882749
38	0x3f2bc7e0	0.6710186
39	0x3fecba4f	1.8494357
40	0x3fa22152	1.2666419
41	0xbce64ff9	-0.028114306
42	0xbe10b9e2	-0.14133409
43	0xbe744d00	-0.23857498
44	0xbee7fe90	-0.45311403
45	0xc011e594	-2.2796373
46	0xbf96c52b	-1.1778921
47	0xbece075a	-0.40239984
48	0x3e87308c	0.26404226
49	0xc082247d	-4.066954
50	0xc0ecc4fd	-7.3990464
51	0xc02ba007	-2.6816423
52	0xbe964c64	-0.29355156
53	0xbe6b60e7	-0.22986184
54	0x3dcbc3e4	0.099494725
55	0x3f30f9fb	0.6913144
56	0xbe4bbc62	-0.19896081
57	0xbf2eef1d	-0.6833361
58	0x3e9684c1	0.29398158
59	0x3f021fa1	0.5082951
60	0xbb560be1	-0.003266089
61	0x3f54f60e	0.8318795
62	0x3f12f902	0.57411206
63	0xbd69617b	-0.05697773
64	0x3e515524	0.20442635
65	0x3c1fb120	0.00974682
66	0x3e7a0ed3	0.24419717
67	0x3fd276ea	1.644254
68	0x3e93ab4d	0.2884163
69	0x3f02aa13	0.5104076
70	0xbeed0c2b	-0.46298346
71	0x3f88c5a3	1.0685314
72	0xbe47fbda	-0.19529667
73	0xbfbf29ae	-1.4934595
74	0xbcdf579d	-0.027263457
75	0xbe948f6e	-0.29015678
76	0xbe5bb25f	-0.21454762
77	0xbef78ba0	-0.48348713
78	0x3f794e31	0.97384936
79	0x3fca3a65	1.5799071
80	0xbec4d0da	-0.3844059
81	0xbf649af0	-0.89298916
82	0xbff9b463	-1.9508175
83	0xbfb94057	-1.447276
84	0x3e9d0ee1	0.30675414
85	0x3e30315e	0.17206332
86	0xbb8df740	-0.004332453
87	0xbe37210c	-0.178837
88	0xbf548d63	-0.8302824
89	0xc00453ea	-2.0676217
90	0xc036a4d9	-2.8538115
91	0x3f349785	0.705437
92	0xbd8cfaa8	-0.068837464
93	0xbfa62a8e	-1.2981737
94	0xc0610365	-3.5158322
95	0xbff216a0	-1.8913155
96	0xbdf55af5	-0.11980239
97	0x3daa725c	0.083225936
98	0x3dbb0de8	0.09133512
99	0x3ebd5499	0.36978605
100	0x3fe2195b	1.7663988
101	0x3fc3d32b	1.5298818
102	0xbe62f295	-0.2216285
103	0x3f84246e	1.0323617
104	0x3fed9264	1.85603
105	0x40990d70	4.7828903
106	0x4029b773	2.6518219
107	0x3e2609a5	0.16214617
108	0xbd2b8548	-0.041875154
109	0xbe67897a	-0.22611037
110	0x3ef567fd	0.479309
111	0x3fdd8765	1.7306944
112	0x3fbdf90d	1.4841629
113	0x3e873810	0.2640996
114	0x3f51a31b	0.81889504
115	0x3f2fbc0a	0.686463
116	0x3f884742	1.0646746
117	0x3e9880a1	0.29785636
118	0x3e25d3fa	0.16194144
119	0x3d52a170	0.05142349
120	0x3e8b2956	0.27179974
121	0x3e2c3541	0.1681719
122	0x3dd846e4	0.10560396
123	0xbfc95491	-1.5728933
124	0x3f10e26f	0.5659551
125	0xbfcf54d6	-1.6197765
126	0x3f3b3dcd	0.73141176
127	0xbe8a820f	-0.27052352
128	0xbfa1f40e	-1.2652605
129	0x3e1f4cba	0.15556613
130	0xbdd92a78	-0.106038034
131	0x3e479340	0.19489765
132	0xbd11503a	-0.0354769
133	0xbfda3296	-1.7046688
134	0xbfbb8385	-1.4649512
135	0xbca708e1	-0.020389976
136	0x3f18f486	0.59748113
137	0xbf8a0497	-1.0782651
138	0xc06d021a	-3.7032533
139	0xc01571d4	-2.3350725
140	0x3e55b24e	0.20868799
141	0x3ceebc70	0.029142588
142	0x3e76f154	0.24115497
143	0x3d890e3b	0.06692167
144	0x3fcdb303	1.6070255
145	0x40352565	2.8304074
146	0x3f196345	0.599171
147	0x3f6c661e	0.9234332
148	0x3f18f372	0.5974647
149	0x4051c9ad	3.2779343
150	0x401209e3	2.2818534
151	0x3e8ff4ad	0.2811636
152	0x3e252c3c	0.16130155
153	0xbe0bf27e	-0.13666722
154	0xbd811700	-0.06303215
155	0xbfeacea8	-1.8344316
156	0xc00dc3cd	-2.2150757
157	0x3f0470f2	0.5173484
158	0xbf4a6586	-0.7906116
159	0xbf358a86	-0.70914495
160	0xc04624ee	-3.096004
161	0xc00a72eb	-2.163264
162	0x3dd1f8d3	0.102525376
163	0xbe73fb07	-0.23826228
164	0x3c324a00	0.010881901
165	0x3eca3387	0.39492437
166	0x4013e655	2.3109334
167	0x401db0ca	2.4639153
168	0xbbabbe6c	-0.005241206
169	0x3ea54e63	0.32286367
170	0x3f6d1907	0.92616314
171	0x4023cc67	2.5593507
172	0x3fb87c80	1.4412994
173	0xbdcbe49e	-0.09955715
174	0x3e0805ee	0.13283512
175	0x3e8c06a8	0.27348828
176	0xbc1f7652	-0.0097328
177	0xbfaed60f	-1.3659075
178	0xc034166c	-2.8138685
179	0x3d357a80	0.04430628
180	0x3fe9b961	1.8259698
181	0xbf53b729	-0.82701355
182	0xc0976b20	-4.731827
183	0xc069ca69	-3.6529791
184	0x3e227a1c	0.15866894
185	0xbdd60ec8	-0.10452038
186	0x3da8cc54	0.082420975
187	0x3ee66db7	0.4500558
188	0x3fe95436	1.8228824
189	0x400f86f9	2.242613
190	0x3e3a439e	0.18189856
191	0xbe552255	-0.20813878
192	0x40850b6a	4.1576433
193	0x41277310	10.465591
194	0x40b7a288	5.7385902
195	0x3dedf98c	0.11619863
196	0xbd28fb10	-0.041255057
197	0x3e24938e	0.16071913
198	0xbf998b43	-1.1995624
199	0xc0796db0	-3.8973198
200	0xc0918261	-4.5471654
201	0xbe1ea553	-0.15492754
202	0x3f410d7a	0.7541119
203	0xbf83d229	-1.0298511
204	0xc06fd888	-3.747591
205	0xc0179bcd	-2.3688843
206	0xbd292e11	-0.041303698
207	0x3e615674	0.22005635
208	0x3e3aec84	0.18254286
209	0xbe9d1891	-0.30682805
210	0xbfd8921f	-1.6919593
211	0xbe0244be	-0.12721536
212	0xbe5c4641	-0.21511175
213	0xbdf74d06	-0.12075238
214	0xbf18e8d8	-0.5973029
215	0xbfdff911	-1.7497884
216	0xbf81cd7c	-1.0140834
217	0x3e30f990	0.172827
218	0xbd3d2c20	-0.04618466
219	0xbe49812a	-0.19678178
220	0xbea5de4c	-0.32396162
221	0xc03ae21e	-2.920051
222	0xc059a31a	-3.40058
223	0x3ef47e4f	0.47752616
224	0x3f90afa7	1.1303605
225	0xbf0b78db	-0.54481286
226	0xbfbbaca0	-1.4662056
227	0xbf3775ac	-0.7166393
228	0xbbc0b60a	-0.0058810757
229	0x3e7caca4	0.24675232
230	0x3e38dd20	0.18053102
231	0x3cb5cf45	0.02219356
232	0x3ffd81d7	1.9805249
233	0x3ff978d7	1.9490002
234	0x3e88df7a	0.26733
235	0xbef8e3d7	-0.48611328
236	0x3db2240d	0.086982824
237	0x400aa7e5	2.1664975
238	0x3fc680a7	1.5508012
239	0xbe850e11	-0.25987294
240	0xbe7a6bda	-0.24455205
241	0x3beea780	0.007283151
242	0xbe73f727	-0.2382475
243	0xbe43fc16	-0.19139132
244	0x3fb33430	1.4000301
245	0x3e84b8ad	0.25922146
246	0xbf43355d	-0.762533
247	0x3d3254da	0.043537952
248	0x3f937acb	1.1521848
249	0x3f8d4fe6	1.1040008
250	0xbc975d12	-0.018476997
251	0xbe207325	-0.15668924
252	0x3e5ea594	0.2174285
253	0x3e6e138a	0.23249641
254	0xbefcd391	-0.49380162
255	0x3f05d362	0.5227567

bias f4 [64]
0	0x3e9ce079	0.3064001
1	0xbe420c95	-0.18950112
2	0x3f130311	0.57426554
3	0x3fa3210a	1.2744458
4	0xc02cd076	-2.7002234
5	0xc031139f	-2.7668226
6	0x3f8db900	1.1072083
7	0xbf6189b3	-0.8810074
8	0xbe211fce	-0.15734789
9	0xc001ae92	-2.02628
10	0xbf85983c	-1.0437083
11	0x3ffe3518	1.9859953
12	0xbe2c2cc1	-0.16813947
13	0x3e15ac52	0.14616516
14	0xbeb602c9	-0.35549
15	0xbf489cdb	-0.7836434
16	0xc014c826	-2.324716
17	0x3d369a8d	0.044580985
18	0xbea9de81	-0.3317757
19	0xbf0ea62b	-0.557223
20	0xbf0e8659	-0.5567375
21	0x3fcb690d	1.5891434
22	0x3f40ec77	0.75360817
23	0x3e594c97	0.21220623
24	0x3f01d901	0.50721747
25	0xbe68e9a1	-0.22745372
26	0xbeccd988	-0.40009713
27	0x3fe3694c	1.7766509
28	0x3eaa8fad	0.3331274
29	0x3e050153	0.12988786
30	0x40dab934	6.835108
31	0x3e13ba7f	0.14426611
32	0x3fa7b0fc	1.3100886
33	0x3e7a6cfa	0.24455634
34	0xbf5af53a	-0.85530436
35	0xbfd07c6e	-1.6287973
36	0xbf9070f6	-1.1284473
37	0x3dab3d00	0.08361244
38	0x3d32fec3	0.04369999
39	0xbf910e13	-1.133242
40	0x3ff21dc7	1.8915337
41	0xbef5650b	-0.47928652
42	0x409bbd24	4.8668385
43	0x3ce68b08	0.028142467
44	0xc024be46	-2.5741134
45	0x3f672b3c	0.90300345
46	0xbfa78498	-1.3087339
47	0xc04d169a	-3.2045045
48	0xbd176455	-0.03696092
49	0x39811134	0.00024617615
50	0xbe4b1d62	-0.19835427
51	0xbf6591dd	-0.89675695
52	0xbf97a5ab	-1.1847433
53	0xc0c92a9d	-6.286452
54	0x3ff3ce7a	1.9047387
55	0x3f17fefd	0.59373456
56	0xbf0b072f	-0.54307836
57	0x3ee6b402	0.4505921
58	0x40c4452f	6.1334453
59	0x3f5acc82	0.85468304
60	0xc05969b3	-3.3970764
61	0x3f8f9bb5	1.1219393
62	0xc011ca49	-2.2779715
63	0x3f6cb6a9	0.9246622

weight f4 [64, 64]
0	0xbecda9db	-0.40168652
1	0x3ef380c0	0.47559166
2	0xbe58dd1b	-0.21178095
3	0x3ee535e7	0.44767687
4	0x3ea8fba7	0.33004496
5	0xbf817d24	-1.0116315
6	0x3fb8aa87	1.4427041
7	0x3e0644a1	0.13112117
8	0xbe9d8196	-0.3076293
9	0xbee3a2c0	-0.44460106
10	0xbf30b7eb	-0.69030637
11	0xbd1bc702	-0.038031586
12	0x3e9dbfe8	0.30810475
13	0x3ef48909	0.477608
14	0xbf12caba	-0.57340586
15	0x3e81534e	0.2525887
16	0x3efe5fcf	0.4968247
17	0xbebc9650	-0.3683343
18	0xbeea05ed	-0.45707646
19	0x3ef604df	0.4805059
20	0xbe359f3b	-0.17736523
21	0x3e4af3be	0.19819543
22	0xbf548e37	-0.830295
23	0xbdaad14b	-0.08340701
24	0xbee8ee87	-0.45494482
25	0xbf512ecc	-0.8171203
26	0xbe13a430	-0.14418101
27	0x3e6cd71f	0.23128937
28	0xbe999cc8	-0.30002427
29	0x3db1d8df	0.08683943
30	0xbe45669a	-0.1927742
31	0x3f221234	0.63309026
32	0xbf48440b	-0.78228825
33	0x3de3e1c1	0.111270435
34	0x3f20b399	0.62774044
35	0x3f5218b5	0.8206895
36	0xbddee44b	-0.10883387
37	0xbe9d8d3c	-0.30771816
38	0x3ec70d98	0.3887756
39	0xbe2f661f	-0.171288
40	0xbe8eaa79	-0.27864435
41	0x3ed763b3	0.42068252
42	0x3ea9ab56	0.3313853
43	0x3ed49a89	0.4152415
44	0x3ed32c29	0.4124463
45	0xbf1be936	-0.60902727
46	0xbd978210	-0.07397854
47	0xbfada928	-1.3567247
48	0x3f8f19cc	1.1179748
49	0xbe546f70	-0.20745635
50	0x3ebb603c	0.36596859
51	0x3e675418	0.22590673
52	0xbed92986	-0.42414492
53	0x3e88958f	0.26676604
54	0x3f81c547	1.0138329
55	0xbe9c5ebf	-0.30541036
56	0x3ea28d43	0.317484
57	0x3e526c37	0.20549093
58	0x3e6ebdf1	0.23314644
59	0xbf6ecb18	-0.93278646
60	0xbfcb7a8d	-1.5896775
61	0x3f53c1b1	0.82717425
62	0x3e85bf66	0.26122588
63	0xbf176a99	-0.5914703
64	0x3f3b6731	0.7320433
65	0xbe119176	-0.14215645
66	0x3eab4cb4	0.33456957
67	0xbe88fc4e	-0.26754993
68	0xbf90bd1b	-1.130771
69	0xbed7dc6e	-0.42160362
70	0x3e46ad32	0.19402006
71	0xbf43f096	-0.7653898
72	0xbfb53f95	-1.4160029
73	0x3f44894b	0.7677199
74	0x3f5bb554	0.8582356
75	0x3f481bd5	0.7816747
76	0xbedeb07a	-0.43494016
77	0x3e7eed8f	0.24895309
78	0xbe557f3a	-0.20849314
79	0x3c87d0a4	0.01657898
80	0xbf0d1546	-0.55110586
81	0xbffa728c	-1.9566207
82	0x3e7af0ae	0.24505875
83	0xbf5a5227	-0.85281605
84	0xbe477186	-0.194769
85	0x3f3c62f0	0.73588467
86	0xbe4c1de1	-0.19933273
87	0x3eb92d29	0.36167267
88	0xbda7cb31	-0.081930526
89	0x3ee54c1b	0.44784626
90	0xbca4f3d9	-0.020135807
91	0xbf5c3e0e	-0.8603219
92	0xbe66a207	-0.22522746
93	0x3e412746	0.18862638
94	0xbf0e8fcb	-0.5568816
95	0xbdc511e2	-0.096225515
96	0x3f639bc1	0.88909537
97	0x3f1baacd	0.60807496
98	0xbf08c8b6	-0.5343126
99	0x3f46ce6c	0.77658725
100	0x3e54456c	0.20729607
101	0xbe8a00f7	-0.2695386
102	0x3f84c066	1.0371215
103	0xbf37e520	-0.7183399
104	0xbf21e326	-0.63237226
105	0x3ed29aab	0.41133627
106	0x3f41b820	0.7567158
107	0x3e2ddc97	0.1697868
108	0x3fda48de	1.7053487
109	0xbcbaaff6	-0.022788983
110	0x3f704969	0.93862015
111	0xbdd52080	-0.104065895
112	0xbe82df0a	-0.2556079
113	0x3dd8895e	0.10573076
114	0xbf0fbcd1	-0.56147486
115	0xbe7d9ac9	-0.24766077
116	0xbf3d128a	-0.73856413
117	0x3d4d9057	0.05018648
118	0xbf9e8607	-1.2384652
119	0xbf265f0e	-0.6498879
120	0x3eda5559	0.4264324
121	0xbe4afc72	-0.19822863
122	0x3f8488d2	1.0354254
123	0x3f78275e	0.9693507
124	0x3ee389bd	0.44441023
125	0xbf08b148	-0.5339551
126	0xbf923262	-1.1421626
127	0xbdefba02	-0.117054
128	0xbee77a2f	-0.45210406
129	0x3f2437eb	0.64147824
130	0xbf17d932	-0.5931579
131	0xbe66e1c0	-0.22547054
132	0x3f27f655	0.6561025
133	0xbf046919	-0.51722866
134	0x3ed247dc	0.4107045
135	0x3f1d7253	0.6150257
136	0x3f4ed641	0.80795676
137	0xbee6bb3e	-0.4506473
138	0xbda83fde	-0.08215307
139	0xbe8d4348	-0.27590394
140	0x3f1a6e26	0.60324323
141	0xbf2712d2	-0.6526309
142	0x3f0fbdb0	0.56148815
143	0xbe58a23b	-0.21155636
144	0x3d5fe01f	0.054657098
145	0x3f939eb5	1.1532809
146	0xbe77c579	-0.24196424
147	0x3f3e37bb	0.7430379
148	0x3ca9ce09	0.020728128
149	0xbf7a2281	-0.977089
150	0xbea78560	-0.32718945
151	0xbf22b1d8	-0.6355262
152	0xbb7f8c44	-0.0038993517
153	0xbf152ee1	-0.58274657
154	0x3e87c074	0.26514018
155	0x3f167fa7	0.5878853
156	0x3e9aed8a	0.30259353
157	0xbf4e6f58	-0.8063865
158	0x3f12bf7c	0.5732343
159	0x3e0fb3f8	0.14033496
160	0xbfa96814	-1.3234887
161	0xbe27c9e2	-0.16385606
162	0x3f8d1f5a	1.1025193
163	0xbef3bf71	-0.47606996
164	0x3e22d4e2	0.15901521
165	0xbe5cd340	-0.2156496
166	0xbea55e73	-0.32298622
167	0x3ecd64d2	0.40115982
168	0x3f7e26f6	0.992782
169	0xbe934d62	-0.28769976
170	0xbf149600	-0.5804138
171	0x3e1dfe12	0.15428951
172	0xbf4e184d	-0.8050583
173	0xbef1cecb	-0.47228083
174	0xbf9d3a1e	-1.2283361
175	0xbe365cb1	-0.17808796
176	0x3f6ee632	0.9332
177	0xbd8ab536	-0.067728445
178	0xbda7741e	-0.081764445
179	0x3ebf0fb3	0.37316665
180	0x3f048940	0.51771927
181	0xbf775c47	-0.9662518
182	0x3f394ffc	0.7238767
183	0x3ea43888	0.3207438
184	0xbf18c7e3	-0.5968
185	0x3eb8c470	0.3608737
186	0xc00238e3	-2.034722
187	0xbf832e55	-1.0248514
188	0xbdb37f93	-0.08764567
189	0x3eab2355	0.33425394
190	0x3fbaf1a1	1.4604989
191	0x3e5e45e4	0.21706349
192	0x3f1c7b22	0.61125386
193	0xbf9630fb	-1.1733698
194	0x3f80a00e	1.0048845
195	0xbec020a2	-0.37524897
196	0xbf908883	-1.129166
197	0x3e5c45ac	0.21510953
198	0xbf15b68a	-0.5848166
199	0xbf741c04	-0.9535525
200	0xbf0d9256	-0.55301416
201	0x3f34c6e1	0.70615965
202	0x3fcfccb5	1.6234347
203	0xbe73bd20	-0.23802614
204	0xbee53d7e	-0.44773477
205	0x3f53f4b2	0.8279525
206	0xbf273a8e	-0.6532372
207	0x3f4f2133	0.80910033
208	0xbf870559	-1.0548507
209	0xbff0fe2b	-1.8827566
210	0xbebab8f1	-0.36469224
211	0xbf010247	-0.503941
212	0xbf808391	-1.0040151
213	0x3e4d4aac	0.20048016
214	0xbe572de4	-0.210136
215	0x3f2699cb	0.6507842
216	0xbf1bfa1c	-0.6092851
217	0xbda2e4d0	-0.07953799
218	0xbf990264	-1.1953855
219	0xbf142fc7	-0.578854
220	0xbf2812ca	-0.6565367
221	0xbe95928d	-0.29213372
222	0x3f4df0ae	0.80445373
223	0xbe850e12	-0.25987297
224	0x3f8fd65a	1.123729
225	0xbda7c93f	-0.081926815
226	0xbf29bb60	-0.66301537
227	0xbe98e310	-0.29860735
228	0xbf17ba2b	-0.59268445
229	0xbf9b044a	-1.2110684
230	0xbdf8d478	-0.121499
231	0xbf221047	-0.6330609
232	0xbf97e993	-1.1868156
233	0x3e0a83c0	0.13526821
234	0x3f34baf2	0.70597756
235	0x3f14c843	0.58118075
236	0x3f9baa0d	1.216127
237	0x3f17284b	0.5904586
238	0x3ef65ef4	0.48119318
239	0x3d300867	0.042976763
240	0xbf6c34b2	-0.92267907
241	0xbed07c7b	-0.4071997
242	0xbdf005ec	-0.117198795
243	0xbd8138f4	-0.06309691
244	0xbf29a8b7	-0.66273063
245	0x40146f86	2.3193069
246	0x3e8467b5	0.25860372
247	0xbed49406	-0.41519183
248	0xbe4575c8	-0.19283211
249	0xbe094a98	-0.13407362
250	0x3ff1244a	1.88392
251	0x3f8df091	1.108904
252	0xbce782f1	-0.02826068
253	0xbe1ed662	-0.15511468
254	0xbf76d226	-0.9641441
255	0xbf147045	-0.5798381

bias f4 [64]
0	0x4035544c	2.83327
1	0xbeabf191	-0.33582738
2	0x3e098675	0.13430198
3	0xbe9e968b	-0.3097423
4	0x3f8012fb	1.0005792
5	0xc060f4ee	-3.5149493
6	0x401ae23a	2.4200578
7	0x3ee019a3	0.4376956
8	0xbecf6bf5	-0.40512052
9	0xbc87713c	-0.016533487
10	0x3fa2e4ca	1.2726071
11	0xc0237f56	-2.554647
12	0x4074532d	3.8175766
13	0xbf2bf467	-0.67169803
14	0xbeef83b4	-0.4678017
15	0xbfa92866	-1.3215454
16	0x3e4f6142	0.20251945
17	0xbfba342a	-1.4547169
18	0xbf230726	-0.6368278
19	0x3f93789b	1.1521181
20	0x409932c7	4.7874484
21	0xbeae6d34	-0.3406769
22	0xbecd705b	-0.40124783
23	0xbffe5384	-1.9869237
24	0xbcf76c7a	-0.030203093
25	0x3fc0684b	1.5031828
26	0x3ee207ae	0.44146484
27	0x3f4ea4b0	0.80720043
28	0xbf39101e	-0.7229022
29	0x3fb0ce01	1.3812867
30	0x3e8e5f9d	0.27807322
31	0x3d424a1c	0.047433957
32	0xbf49931c	-0.78740096
33	0x3e7e9854	0.24862796
34	0x3be36169	0.0069391024
35	0x3e2cc6df	0.16872738
36	0xbfd5ec84	-1.6712804
37	0x3efdb698	0.4955337
38	0x4071f246	3.7804122
39	0xbf1b0127	-0.60548633
40	0x3f3b3b20	0.7313709
41	0x3f45b069	0.77222306
42	0xbea33520	-0.3187647
43	0xbff305a0	-1.8986092
44	0xbd40dfee	-0.047088556
45	0xbf596d8e	-0.8493279
46	0x3da01a2a	0.078174904
47	0xc02eb806	-2.729982
48	0x3e1d312d	0.1535079
49	0x4026d7bc	2.6069174
50	0xbea0b8c9	-0.3139098
51	0x3de09b0e	0.10967074
52	0x40363558	2.8470058
53	0x3ebcf546	0.3690588
54	0xc074e0a1	-3.8262103
55	0x3e7b9e69	0.24572147
56	0xc0356164	-2.8340693
57	0x3f934dd3	1.1508125
58	0x3f0715ff	0.5276794
59	0xbe4fd694	-0.20296699
60	0xbf76f6bf	-0.96470255
61	0x3e8ee556	0.27909344
62	0x3ef3fba6	0.4765293
63	0xbfdee162	-1.7412531

weight f4 [1, 64]
0	0xbf508b3e	-0.81462467
1	0x3fcd73ee	1.6051004
2	0xc01ebc6b	-2.4802501
3	0xbf877f32	-1.0585692
4	0xbf91e66a	-1.1398442
5	0x3f5d16c5	0.8636287
6	0xbf575f8d	-0.84130174
7	0xc02ec475	-2.7307408
8	0xbf4b1f77	-0.79344887
9	0xbff39104	-1.902863
10	0xc0122322	-2.2833943
11	0xbda0ac4b	-0.07845362
12	0xc026e268	-2.6075687
13	0xbf44f120	-0.7693043
14	0x3f335163	0.7004606
15	0xc030833a	-2.7580094
16	0xbe8386b8	-0.2568872
17	0x3fa8ce5d	1.3187977
18	0x3fdee9e6	1.741513
19	0xbfdaa736	-1.7082279
20	0xc01d56ba	-2.4584184
21	0xbfd5c016	-1.6699245
22	0x3fea0703	1.828339
23	0xbf4f2f85	-0.80931884
24	0x3f0dbbab	0.55364484
25	0xbfd0c87b	-1.6311182
26	0xbfa38a74	-1.2776628
27	0xbfcc27b3	-1.5949615
28	0x40700b07	3.750673
29	0xbfbee87b	-1.4914697
30	0xbfa587ce	-1.2932069
31	0xbf0951a3	-0.5364019
32	0xbf12c9af	-0.57338995
33	0xbf9aa7d5	-1.2082468
34	0x4036bec0	2.8553925
35	0xbfc723d9	-1.5557815
36	0x3fc3f2b4	1.5308442
37	0xc00a974a	-2.165484
38	0xbfe44898	-1.7834654
39	0x3fa8b0fb	1.317901
40	0x3ff18f09	1.8871776
41	0xbfba5311	-1.45566
42	0x3ff9861c	1.9494052
43	0xbf66bb54	-0.9012959
44	0x3dc99ed5	0.09844748
45	0x3fec6e63	1.8471187
46	0x3fe02ef9	1.7514335
47	0x3f826d51	1.0189611
48	0x3f8f44b8	1.1192846
49	0xbf2660b4	-0.6499131
50	0x401e6bdf	2.475334
51	0xc03560c9	-2.8340323
52	0x3fb48bbb	1.4105142
53	0xc00c65e8	-2.1937199
54	0xbf622a66	-0.88345945
55	0xbffa5663	-1.9557613
56	0x401d4c5f	2.4577863
57	0xbfb6a0d0	-1.4267826
58	0x4001fc2f	2.031017
59	0x3fdb66da	1.7140763
60	0xc0019f79	-2.0253584
61	0xbff5d3ed	-1.92053
62	0xbff2385b	-1.8923448
63	0xbfc78059	-1.5586044
