DDPG/data/exp/InvertedDoublePendulum/models/2022-07-08-03-48-29actor.pt (torch, 505547 bytes, 5 tensors)

weight f4 [400, 11]
0.13895953 0.01983973 -0.1477736 0.31071422 0.058619555 -0.15015282 0.15334736 -0.32930568
0.24545841 0.18856612 -0.28984624 0.25936028 -0.34059912 -0.3539906 -0.051501326 0.27589905
-0.17114949 -0.011088556 -0.29971367 -0.004072208 -0.2692955 0.057868868 0.10617546 -0.10637108
0.27005735 -0.19069272 -0.25310105 -0.08477702 -0.2632176 -0.14328524 0.25041646 -0.24512401
-0.044950873 -0.14309038 0.113382556 0.12285596 0.028580982 0.1934669 -0.1115863 -0.111186855
0.23155458 0.25594988 -0.06618306 0.27357396 0.13494737 0.1557038 0.33469993 -0.28165746
-0.041030508 -0.17110798 0.23774347 -0.17365289 0.25393295 0.22391519 -0.03815326 -0.1013043
0.045218077 -0.07111402 0.24283206 0.005938154 0.06997765 -0.00992478 -0.06524997 -0.28165048
-0.25761127 -0.09324525 -0.20897803 0.08873891 0.3246592 0.20199546 0.14195769 0.17627357
0.17568082 0.17453678 0.0020561886 -0.2342124 -0.29074773 -0.2508941 0.126684 -0.21469003
-0.26078874 0.2666596 -0.23374155 0.31860456 -0.09013858 0.05407784 -0.1746884 -0.14299779
-0.18740883 0.016563408 -0.14440249 -0.055637304 -0.078492716 -0.09467634 0.04362109 0.041590713
-0.24301663 -0.096300155 -0.19597515 0.25030255 -0.262414 -0.34672576 0.14324915 -0.26639023
0.276945 -0.25783753 -0.28722587 0.020254385 0.018675387 -0.2933933 -0.27017644 0.33806705
0.24816395 -0.28823686 -0.24435663 -0.23847431 -0.059135247 -0.14827625 -0.30218825 -0.16681027
0.0071041286 -0.30024737 0.30096245 0.13169907 0.09266032 -0.19657084 -0.24634777 0.12031549
0.046995033 0.12738168 -0.15697962 -0.21764234 0.15313463 -0.20465341 0.022239154 0.27500504
-0.14348873 0.27506408 0.03852392 -0.06920922 -0.23996298 0.21299338 0.080697775 -0.17763597
0.28838977 0.052238233 -0.1424963 -0.18486315 0.01041149 -0.026002593 0.03044598 -0.090209216
0.10104235 -0.26181337 0.011831373 0.28688154 -0.07166869 -0.046158854 -0.08116343 -0.2693713
0.3166385 -0.22120084 0.17408393 0.1661053 0.07332042 0.19057223 0.21191542 -0.17740081
0.22349945 0.040144093 -0.07865368 -0.29065013 -0.31264907 -0.114924625 -0.24917299 -0.2569508
0.11537185 -0.0972419 -0.30033675 -0.16383044 -0.26585466 -0.24167857 -0.18503615 -0.145663
-0.082967006 -0.26923013 -0.26920065 -0.15546127 0.08529739 0.10774093 -0.14360864 0.010496837
-0.25908276 -0.30687794 0.2623063 -0.26618287 0.20771891 0.18807408 -0.16785634 0.21746586
0.2677883 -0.06987483 -0.006878387 -0.1391188 -0.19799024 0.24098264 0.18814835 0.1661914
0.28448173 -0.13142477 0.012529026 0.36648074 -0.2961476 0.22255218 -0.20202368 -0.19177607
-0.25819537 0.040884078 0.105381936 -0.038564295 0.09697522 0.09096257 -0.1693211 0.31827843
-0.008455495 0.1028625 -0.18719769 0.09131993 0.17447284 0.069310874 0.2289387 -0.20323294
0.021374749 0.32306212 0.062058408 0.18376613 -0.20540954 0.020898119 0.27068514 0.16001141
0.05804636 0.22206342 0.19565566 0.08998034 -0.08480225 0.23611042 0.028040884 -0.289383
0.015275781 -0.020944072 0.26396894 0.0010539889 -0.0048996806 -0.2495332 -0.101000614 0.0042648716
00000000: 684b 0e3e ee86 a23c f651 17be ef15 9f3e
00000010: 0f1b 703d a9c1 19be 1707 1d3e c19a a8be
00000020: 7359 7b3e 7a17 413e ba66 94be dfca 843e
00000030: 0263 aebe 423e b5be 0ef3 52bd a442 8d3e
00000040: d041 2fbe c6ac 35bc 1274 99be 2870 85bb
00000050: 1ae1 89be e807 6d3d 8572 d93d 15d9 d9bd
00000060: f544 8a3e f444 43be 7696 81be 939f adbd
00000070: 75c4 86be 5eb9 12be 9636 803e ca01 7bbe
00000080: 681e 38bd 4986 12be 1d35 e83d e89b fb3d
00000090: aa22 ea3c 301c 463e 5c87 e4bd efb5 e3bd
000000a0: a51c 6d3e dd0b 833e fc8a 87bd e311 8c3e
000000b0: a52f 0a3e d170 1f3e ca5d ab3e 6835 90be
000000c0: 9b0f 28bd ee36 2fbe 0673 733e 10d2 31be
000000d0: 8003 823e 064a 653e 9846 1cbd a178 cfbd
000000e0: 9736 393d 3aa4 91bd f8a8 783e d994 c23b
000000f0: 7150 8f3d 8b9b 22bc c7a1 85bd 7e34 90be
00000100: a0e5 83be 5ef7 bebd 56fe 55be bfbc b53d
00000110: bb39 a63e e6d7 4e3e 5b5d 113e 0f81 343e
00000120: ace5 333e c5b9 323e 1fc1 063b 60d5 6fbe
00000130: e3dc 94be 3175 80be 73b9 013e b4d7 5bbe
00000140: 1a86 85be 9b87 883e f259 6fbe 2320 a33e
00000150: 939a b8bd ba80 5d3d 84e1 32be 036e 12be
00000160: 1ae8 3fbe fcaf 873c 3fde 13be f1e3 63bd
00000170: cac0 a0bd abe5 c1bd 07ac 323d 065b 2a3d
00000180: 5ad9 78be 0439 c5bd b6ad 48be a827 803e
00000190: 215b 86be 0a86 b1be e8af 123e 4d64 88be
000001a0: bccb 8d3e 4803 84be 450f 93be 86ec a53c
000001b0: 20fd 983c a637 96be 9154 8abe 2017 ad3e
000001c0: b11e 7e3e c893 93be a038 7abe 9c32 74be
000001d0: cd37 72bd bbd5 17be 6bb8 9abe 50d0 2abe
000001e0: c0c9 e83b 06ba 99be c017 9a3e 1fdc 063e
000001f0: b2c4 bd3d de49 49be 9742 7cbe f867 f63d
00000200: dd7d 403d 5870 023e 44bf 20be a2dd 5ebe
00000210: 53cf 1c3e aa90 51be e32e b63c 76cd 8c3e
00000220: b6ee 12be 33d5 8c3e 42cb 1d3d 90bd 8dbd
00000230: dbb8 75be f01a 5a3e e044 a53d 34e6 35be
00000240: d3a7 933e c2f7 553d 8dea 11be c44c 3dbe
00000250: f494 2a3c 6403 d5bc d969 f93c 9cbf b8bd
00000260: 4bef ce3d 670c 86be 60d8 413c 23e2 923e
00000270: 09c7 92bd 1111 3dbd 0339 a6bd 09eb 89be
00000280: 711e a23e 7982 62be 0f43 323e 8217 2a3e
00000290: 0429 963d 5e25 433e 5b00 593e 8fa8 35be
000002a0: 0add 643e 226e 243d 2e15 a1bd 18d0 94be
000002b0: 8a13 a0be 9a5d ebbd 3427 7fbe 0e8f 83be
000002c0: 1448 ec3d c326 c7bd bdc5 99be 2bc3 27be
000002d0: 1a1e 88be 967a 77be 1e7a 3dbe ae28 15be
000002e0: 9bea a9bd 88d8 89be abd4 89be 3d31 1fbe
000002f0: 66b0 ae3d 47a7 dc3d 250e 13be edfa 2b3c
00000300: 7fa6 84be 1b1f 9dbe 034d 863e 1f49 88be
00000310: 44b4 543e 7e96 403e 88e2 2bbe 5faf 5e3e
00000320: 8c1b 893e 891a 8fbd 1864 e1bb 2975 0ebe
00000330: f4bd 4abe 27c4 763e f6a9 403e 142e 2a3e
00000340: 97a7 913e 3794 06be 8b46 4d3c 5da3 bb3e
00000350: a9a0 97be b8e4 633e 4cdf 4ebe f260 44be
00000360: 2f32 84be 1076 273d 7cd2 d73d 98f5 1dbd
00000370: f29a c63d 954a ba3d 8362 2dbe 64f5 a23e
00000380: eb88 0abc 93a9 d23d c0b0 3fbe f205 bb3d
00000390: 02a9 323e dcf2 8d3d e86e 6a3e 4c1c 50be
000003a0: 191a af3c 6668 a53e f530 7e3d 302d 3c3e
000003b0: e156 52be 8832 ab3c 3e97 8a3e 08da 233e
000003c0: 05c2 6d3d 9864 633e f559 483e 9d47 b83d
000003d0: cdac adbd eec6 713e ffb5 e53c 022a 94be
000003e0: 4547 7a3c e792 abbc f026 873e 0026 8a3a
000003f0: 808d a0bb a285 7fbe 69d9 cebd 56c0 8b3b

bias f4 [400]
-0.1982991 0.2476536 0.2432105 -0.040699836 0.23720102 0.07268301 0.1816698 -0.21583891
-0.29652146 0.047387235 0.07338533 -0.020586997 0.2930357 -0.12616119 0.036688283 0.13704106
0.17920083 0.0645676 0.11934628 0.19302861 0.27992234 0.07846165 -0.16888067 -0.2709251
-0.18503676 -0.0103667015 0.21591265 0.12782064 0.04109048 0.2851679 0.025000516 0.09998053
0.2683292 -0.21768248 -0.13949901 -0.31464332 0.22323336 0.028063634 -0.008134868 0.25635865
-0.027640764 -0.11072957 0.25554386 0.11465103 0.255424 -0.045556217 -0.20125021 0.25596082
0.28624055 0.2717863 -0.25188628 0.21859504 0.019506956 -0.20520493 -0.08260252 0.033691797
-0.23692906 -0.15291409 -0.2778636 -0.048238475 0.25271356 -0.18349017 -0.19372043 0.0022602112
0.17864403 0.21915378 -0.13336182 -0.119886324 -0.13537176 -0.031443898 -0.24602827 0.09200359
0.025266403 -0.13250574 0.17934822 0.14578867 -0.13785186 -0.29082972 0.09761258 0.17489272
0.24165513 -0.252433 -0.23059452 -0.22492848 0.17082134 0.25134113 -0.22501804 -0.28233966
0.25053692 0.07061101 -0.17227313 0.20218988 0.2607509 0.3230459 -0.33246282 0.18432759
-0.23952678 0.25718287 0.25041768 0.057366688 -0.08863611 -0.052689373 0.059962515 0.094285086
0.21017647 -0.2953001 0.044634867 -0.01387963 -0.21920621 0.13639078 -0.04979716 0.25783846
0.2883058 -0.2556647 0.1867214 -0.17790046 -0.25327674 0.058141667 0.1896246 0.22255722
-0.273555 -0.10767107 -0.15491746 0.30289948 0.13803867 0.0716396 -0.07154461 0.23908974
-0.029522335 -0.275659 -0.23418711 0.07922005 0.21244071 -0.12578997 -0.063701145 -0.017953672
-0.12580143 -0.21587306 0.004233345 -0.07113721 -0.01550892 -0.17098567 0.2553509 -0.20620346
-0.25423208 -0.20445141 0.15031774 -0.025249071 0.28162286 -0.18001345 0.11861991 -0.094193645
0.24285534 0.071119115 0.12605277 0.121601105 -0.30255246 0.2766472 -0.20999958 -0.03932925
0.049295116 -0.10290934 0.2145563 -0.2914896 0.21727589 -0.109317645 -0.21739647 0.07473376
-0.2837662 -0.21238554 0.32807842 0.2689847 -0.31028205 -0.055479895 -0.2634109 -0.07893872
-0.102315016 -0.05770746 -0.044318937 0.14773583 -0.029695775 0.031086748 0.1661957 0.25354064
-0.28492582 -0.011074318 0.30909908 0.09136916 -0.25271186 -0.25485831 0.19355032 -0.12119774
-0.2542888 0.20385215 -0.05635985 -0.11790434 0.20478222 0.3040924 0.30123132 -0.23044437
-0.049928084 -0.29437515 -0.010235977 -0.024993604 0.02982133 -0.17274581 0.3199471 0.20572117
-0.06020929 -0.18648593 0.03043796 -0.21658163 0.04612982 0.1461718 0.24105461 0.13502727
-0.078560084 0.0016156259 -0.10014826 -0.07840086 -0.27051258 0.068319574 -0.08653405 -0.04821578
-0.28784987 0.20592286 0.062055845 0.16519164 0.31193015 0.17528443 0.2609117 0.16575573
-0.17227393 -0.07586068 0.22582094 0.16305007 0.31124422 -0.24319893 0.25763077 -0.020824788
-0.17980973 -0.14307459 0.06996775 0.27980542 0.20669028 0.21188648 -0.22636402 0.037430905
-0.070986174 0.1683137 -0.15608767 -0.1344959 -0.12586276 -0.08797258 0.10931324 -0.10409658
00000000: eb0e 4bbe e898 7d3e 2c0c 793e dfb4 26bd
00000010: d3e4 723e d4da 943d a607 3a3e e004 5dbe
00000020: a9d1 97be 1e19 423d 0c4b 963d 10a6 a8bc
00000030: c608 963e 6630 01be 7446 163d 7e54 0c3e
00000040: 6c80 373e 053c 843d d36b f43d 4ba9 453e
00000050: fb51 8f3e 80b0 a03d 0eef 2cbe b2b6 8abe
00000060: 477a 3dbe 19d9 29bc 3518 5d3e 6ae3 023e
00000070: 7e4e 283d 8701 923e e2cd cc3c 98c2 cc3d
00000080: 7262 893e 28e8 5ebe d4d8 0ebe ee18 a1be
00000090: 4997 643e b5e5 e53c 1c48 05bc 7141 833e
000000a0: e26e e2bc 2fc6 e2bd a5d6 823e 29ce ea3d
000000b0: efc6 823e 2899 3abd 8914 4ebe 4c0d 833e
000000c0: 1f8e 923e 9327 8b3e 3df7 80be 61d7 5f3e
000000d0: 0dcd 9f3c 3e21 52be 832b a9bd 6900 0a3d
000000e0: 889d 72be 8395 1cbe 2344 8ebe b595 45bd
000000f0: ac63 813e d9e4 3bbe a65e 46be 0d20 143b
00000100: 76ee 363e d969 603e 0090 08be f686 f5bd
00000110: e59e 0abe 51cb 00bd d6ee 7bbe 616c bc3d
00000120: 7dfb ce3c 96af 07be 0fa7 373e a049 153e
00000130: 0a29 0dbe a2e7 94be 1be9 c73d 1417 333e
00000140: 7174 773e e63e 81be f820 6cbe a753 66be
00000150: caeb 2e3e c9af 803e 216b 66be d38e 90be
00000160: 6046 803e 819c 903d 5e68 30be dd0a 4f3e
00000170: 2481 853e 4666 a53e 9138 aabe 5fc0 3c3e
00000180: 8246 75be 79ad 833e bf36 803e 55f9 6a3d
00000190: d986 b5bd d0d0 57bd 419b 753d 8a18 c13d
000001a0: 8038 573e 9331 97be 0dd3 363d 6367 63bc
000001b0: 9877 60be 06aa 0b3e 1bf8 4bbd 6703 843e
000001c0: d19c 933e 7ce6 82be e533 3f3e 8a2b 36be
000001d0: 7dad 81be f525 6e3d f32c 423e 0ae6 633e
000001e0: 670f 8cbe a682 dcbd afa2 1ebe a415 9b3e
000001f0: 025a 0d3e c8b7 923d fb85 92bd f1d3 743e
00000200: d3d8 f1bc 2d23 8dbe bfce 6fbe 1f3e a23d
00000210: 0f8a 593e 16cf 00be bf75 82bd 9413 93bc
00000220: 17d2 00be d40d 5dbe dfb7 8a3b 63b0 91bd
00000230: 2019 7ebc de16 2fbe 5abd 823e 0027 53be
00000240: b52a 82be b65b 51be e5ec 193e 24d7 cebc
00000250: df30 903e 7255 38be ffee f23d 99e8 c0bd
00000260: 12af 783e e6a6 913d fa13 013e 000a f93d
00000270: 28e8 9abe b4a4 8d3e 210a 57be b517 21bd
00000280: ade9 493d 22c2 d2bd a6b4 5b3e 203e 95be
00000290: 927d 5e3e eee1 dfbd 2e9d 5ebe 030e 993d
000002a0: ce49 91be 987b 59be e5f9 a73e 5db8 893e
000002b0: 4add 9ebe e33e 63bd cbdd 86be a0aa a1bd
000002c0: 898a d1bd a85e 6cbd c687 35bd 1048 173e
000002d0: 8e44 f3bc a3a9 fe3c 352f 2a3e 14d0 813e
000002e0: cce1 91be 0e71 35bc 3c42 9e3e c11f bb3d
000002f0: 7363 81be ca7c 82be 0e32 463e 8536 f8bd
00000300: 2432 82be 9ebe 503e 96d9 66bd d577 f1bd
00000310: 6eb2 513e 00b2 9b3e fe3a 9a3e 9cf9 6bbe
00000320: 6481 4cbd 57b8 96be cdb4 27bc 63bf ccbc
00000330: dd4b f43c 47e4 30be 1bd0 a33e 92a8 523e
00000340: 049e 76bd 2bf6 3ebe 0759 f93c 93c7 5dbe
00000350: 9ff2 3c3d 0fae 153e 05d7 763e 9744 0a3e
00000360: 1ce4 a0bd 69c3 d33a 881a cdbd a190 a0bd
00000370: a080 8abe 22eb 8b3d c438 b1bd e97d 45bd
00000380: 0f61 93be 71dd 523e 452e 7e3d ff27 293e
00000390: 4fb5 9f3e c37d 333e 3896 853e dfbb 293e
000003a0: 9468 30be d85c 9bbd 9b3d 673e 99f6 263e
000003b0: 675b 9f3e 2409 79be 2ee8 833e bf98 aabc
000003c0: 0b20 38be 2582 12be 404b 8f3d a842 8f3e
000003d0: 9ea6 533e c5f8 583e f8cb 67be 2651 193d
000003e0: 3361 91bd 6d5a 2c3e 72d5 1fbe 4bb9 09be
000003f0: 2be2 00be f82a b4bd 9fdf df3d 9630 d5bd

weight f4 [300, 400]
-0.013003134 0.028980102 0.011114161 -0.015245685 -0.036494043 -0.0059648794 -0.029509835 -0.03486032
0.059824098 0.03252566 0.015082302 0.042263076 0.024759745 0.008127757 0.015352742 0.048771046
0.094540335 0.001701806 -0.06623467 0.010283564 -0.03607797 -0.0014300285 -0.016162336 -0.027125789
0.037131384 0.033017363 0.03644298 0.0068517267 0.024316829 -0.01059884 -0.011304527 0.023847712
-0.006525518 -0.045369223 0.018387418 0.00089266314 0.01362893 0.022100596 -0.016538858 0.04454552
0.018299263 -0.058992904 0.021729056 0.009690259 0.029793426 0.043192644 0.013854442 0.04104801
0.023116227 -0.0015579178 0.035600998 0.029159885 0.04152167 -0.03251641 -0.029356357 0.007816943
0.019570965 -0.012670712 -0.0012781711 -0.022719461 -0.006005898 0.050100643 -0.031023797 0.01882716
-0.011557656 -0.028081948 0.009232263 -0.045286443 -0.04715157 0.03510771 -0.0125602875 0.01812105
0.037761237 -0.011871731 0.0076289573 -0.027371617 0.06359212 -0.0068340246 -0.022146551 -0.011911823
-0.02129184 -0.020798037 -0.029098943 -0.0095922565 0.02908329 0.053789612 -0.008577101 0.026270675
0.06295248 -0.0683906 0.001125207 -0.013162255 0.03271125 -0.0410534 0.0019122938 -0.04229644
-0.0108734835 0.04559883 -0.028660085 0.032918353 -0.032548916 -0.02716269 -0.022917356 0.057253323
0.04420051 0.02438385 -0.015850315 -0.029929733 0.060834967 -0.038956426 0.0016823157 0.06462791
-0.018751916 -0.040321443 0.032305874 -0.037182532 0.018120414 -0.045787487 0.03103595 0.007806407
-0.03869351 -0.011572282 0.042599037 0.011866812 0.042512197 0.06369961 -0.08345171 0.036099017
0.060850147 -0.04110622 0.054470066 0.012650067 -0.013474255 -0.026143294 0.04918402 0.052796356
-0.022720743 -0.058397636 0.028134998 -0.02341486 0.01973584 0.050845325 -0.00081336166 0.027160194
0.015263304 -0.005469429 -0.037304807 0.007801455 -0.02580293 -0.034382503 -0.042828094 0.027000144
-0.027908068 -0.046749923 -0.032105625 0.046683215 -0.019048132 0.046103235 0.00070848403 0.03471065
-0.04451361 0.011269264 0.008078815 0.054221585 0.073573425 -0.006885739 0.015440185 0.006360232
0.010000875 0.054264057 -0.01482483 0.017814556 0.036008347 -0.042592566 0.031903896 0.029404901
0.033957012 0.03337244 0.017238732 0.0021149188 0.029997667 0.037318897 0.049728513 0.073622644
0.039400462 0.013811204 -0.019646453 0.010272441 0.012811986 0.06605901 -0.061956413 0.00948235
0.03466325 0.03956877 -0.02001687 0.0012058639 -0.027664104 0.05133586 -0.023036659 -0.013233903
0.018209092 0.03636552 0.02272842 0.010019021 0.00068706565 -0.040026117 0.018171662 0.07144941
0.05638618 -0.04524236 0.045813207 0.05091111 0.025552446 0.017459717 -0.03807007 -0.063785255
-0.048627887 -0.0012098071 -0.0049668495 0.0010802778 0.0073668603 -0.005597528 0.02657111 0.013497873
-0.06559896 -0.030442543 -0.024905808 -0.0084467195 -0.036637366 0.04784519 -0.020035088 0.047000233
0.034192957 -0.002953663 0.044363983 -0.053445026 0.032700885 -0.07538963 -0.0220566 -0.05631779
-0.024058027 -0.0070206407 -0.031882405 -0.0043338723 -0.053672202 0.0516044 -0.001104242 -0.022572272
0.028090067 -0.046242382 0.02717076 0.04143527 0.023585748 0.0053365156 0.059946954 -0.020652719
00000000: 190b 55bc ae67 ed3c 2c18 363c 0ac9 79bc
00000010: c77a 15bd 0975 c3bb 9cbe f1bc b2c9 0ebd
00000020: 1d0a 753d a039 053d c21b 773c 0c1c 2d3d
00000030: f3d4 ca3c 492a 053c 118a 7b3c 26c4 473d
00000040: 5d9e c13d 220f df3a 0ba6 87bd 657c 283c
00000050: 7ec6 13bd cb6f bbba e066 84bc e736 debc
00000060: 1417 183d 373d 073d 3c45 153d 7384 e03b
00000070: 1634 c73c c2a6 2dbc 9f36 39bc 475c c33c
00000080: 03d4 d5bb 14d5 39bd 36a1 963c 9c01 6a3a
00000090: e04b 5f3c 4f0c b53c 807c 87bc 5d75 363d
000000a0: 56e8 953c 8ba2 71bd 2201 b23c e4c3 1e3c
000000b0: 5811 f43c c5ea 303d befd 623c f521 283d
000000c0: 3e5e bd3c 0c33 ccba 5ad2 113d b6e0 ee3c
000000d0: a012 2a3d ed2f 05bd be7c f0bc a312 003c
000000e0: 4a53 a03c d198 4fbc 4e88 a7ba 2a1e babc
000000f0: 20cd c4bb 5536 4d3d 9e25 febc 6b3b 9a3c
00000100: 535c 3dbc 1d0c e6bc eb42 173c 477e 39bd
00000110: 0122 41bd 1acd 0f3d aac9 4dbc 9972 943c
00000120: 87ab 1a3d a681 42bc 55fc f93b 713a e0bc
00000130: 963c 823d f4ef dfbb af6c b5bc cf29 43bc
00000140: 3a6c aebc a560 aabc e860 eebc d728 1dbc
00000150: 1440 ee3c 7f52 5c3d f886 0cbc 9935 d73c
00000160: 3bed 803d 5f10 8cbd af7b 933a 80a6 57bc
00000170: 3bfc 053d 9c27 28bd efa5 fa3a 083f 2dbd
00000180: b226 32bc d7c5 3a3d 8ec8 eabc 65d5 063d
00000190: 0352 05bd 4a84 debc 2ebd bbbc 7682 6a3d
000001a0: 980b 353d a4c0 c73c 85d8 81bc 332f f5bc
000001b0: 162e 793d c690 1fbd 2681 dc3a a35b 843d
000001c0: 9e9d 99bc 1928 25bd 2a53 043d b64c 18bd
000001d0: 4371 943c a98b 3bbd 1b3f fe3c e3cc ff3b
000001e0: 167d 1ebd ab99 3dbc 547c 2e3d 046d 423c
000001f0: 4521 2e3d f174 823d bbe8 aabd 90dc 133d
00000200: 013e 793d ff5e 28bd 011c 5f3d 3a42 4f3c
00000210: 1fc3 5cbc 762a d6bc 2f75 493d fe40 583d
00000220: da20 babc 5c32 6fbd 5e7b e63c 85d0 bfbc
00000230: 0ead a13c 3043 503d c737 55ba 0e7f de3c
00000240: f012 7a3c e538 b3bb edcc 18bd 59a3 ff3b
00000250: ab60 d3bc abd4 0cbd 836c 2fbd 682f dd3c
00000260: 769f e4bc d97c 3fbd 3081 03bd e636 3f3d
00000270: d40a 9cbc bfd6 3c3d 8fb9 393a c12c 0e3d
00000280: e753 36bd b8a2 383c 025d 043c 7417 5e3d
00000290: aaad 963d c4a1 e1bb d4f8 7c3c 7e69 d03b
000002a0: b6da 233c fd43 5e3d d8e3 72bc d5ef 913c
000002b0: 7d7d 133d 8b75 2ebd a9ad 023d 8ce2 f03c
000002c0: 8216 0b3d 8ab1 083d 3e38 8d3c 739a 0a3b
000002d0: abbd f53c b3db 183d 20b0 4b3d 78c7 963d
000002e0: 6162 213d 6348 623c 99f1 a0bc be4d 283c
000002f0: 5de9 513c f249 873d 02c6 7dbd dc5b 1b3c
00000300: 0dfb 0d3d dd12 223d 6bfa a3bc 140e 9e3a
00000310: d59f e2bc 8d45 523d 60b7 bcbc 03d3 58bc
00000320: 3c2b 953c 03f4 143d f430 ba3c d226 243c
00000330: 321c 343a 6df2 23bd bddc 943c 1154 923d
00000340: 32f5 663d 0e50 39bd a1a6 3b3d 2b88 503d
00000350: 5d53 d13c ae07 8f3c 5def 1bbd d8a1 82bd
00000360: 092e 47bd 6492 9eba f4c0 a2bb 1c98 8d3a
00000370: b465 f13b 786b b7bb a8ab d93c 2f26 5d3c
00000380: bf58 86bd a462 f9bc 4407 ccbc 1c64 0abc
00000390: 1011 16bd 51f9 433d a020 a4bc 5183 403d
000003a0: ea0d 0c3d 3e92 41bb 02b7 353d 2ce9 5abd
000003b0: 5df1 053d e165 9abd 0bb0 b4bc 7cad 66bd
000003c0: 5715 c5bc 670d e6bb 2097 02bd 2803 8ebb
000003d0: 62d7 5bbd 235f 533d 37bc 90ba 7ce9 b8bc
000003e0: 241d e63c a768 3dbd 3795 de3c 08b8 293d
000003f0: e636 c13c f0dd ae3b f08a 753d e42f a9bc

bias f4 [300]
-0.043693658 -0.0027973237 -0.019820498 0.006069155 -0.002952237 0.020874081 -0.0348119 0.04920076
-0.011940213 -0.011815664 0.047158934 0.04927219 0.027209897 1.2911124e-05 -0.00082825846 0.014402452
-0.019651588 -0.011854107 -0.021256316 -0.023807844 -0.03536723 -0.010531566 -0.03638439 0.00048163946
-0.016726177 0.042095467 0.015193843 -0.022534793 -0.035977386 0.019236207 -0.048010297 -0.023202434
-0.02925118 0.058344666 -0.047885183 -0.046063412 0.05188062 0.049950514 0.020481229 -0.03969131
0.004723652 0.04399249 0.00012448576 0.045753602 -0.00051886897 0.02371566 0.032102894 0.027616737
0.022258488 0.0064531267 -0.012978564 0.009443075 0.057028238 0.054332916 -0.008625625 -0.021114955
0.04085693 0.032282308 -0.02754721 0.0323378 -0.006290112 0.022443537 -0.030314201 0.004747157
-0.037534796 0.04756189 0.020116732 0.04420858 -0.050187897 -0.0320057 -0.001551431 -0.047933802
-0.022906858 -0.04253346 0.053456653 0.04726325 0.03589847 0.050241105 -0.015641827 0.040106814
-0.04107912 0.05256227 -0.024004048 0.043843664 -0.029193241 0.0031776885 0.015583098 0.025132973
-0.039598063 -0.0326188 0.009646521 -0.02673803 0.020672845 0.014762457 -0.02246943 -0.044800933
-0.040869545 -0.016726295 0.017975485 0.043466564 0.0006863923 0.05865073 0.01846675 -0.0034871346
0.049611136 -0.012029363 0.0042558433 0.028053159 0.033655576 0.004067827 -0.0061534652 0.040371403
-0.015933853 0.016698623 -0.042263635 0.036041547 0.03135014 0.060286578 0.00666631 -0.00985681
-0.047872644 0.016704414 -0.0171833 0.047520302 0.022197405 0.030163623 -0.038688835 0.015868977
0.025146 4.484429e-05 -0.0027675643 0.014833454 0.020194497 -0.04676394 0.0069537354 0.04521004
0.029805763 0.006185255 0.05496734 0.052837953 -0.029164474 0.020471495 -0.0378513 -0.042404495
0.048091378 0.018413676 0.0133148255 0.008163669 -0.04315713 0.0527082 -0.033584263 -0.0013286066
0.0052368003 0.044994894 0.018356951 0.016915116 -0.022705112 -0.015052451 0.0114273755 -0.0065577556
0.012188131 0.01675622 -0.02921321 -0.020074679 0.057368636 0.02378614 0.05877674 0.03595998
-0.010408997 0.033476867 -0.025234867 0.002515789 0.03352289 0.038506642 0.058143932 0.049861103
0.019919427 0.044994585 0.030825084 0.024565104 -0.017516838 -0.034707345 0.020626148 -0.053136684
0.0142932525 0.031352792 0.012610493 0.0070870533 -0.0335525 0.015118367 0.02252172 0.016833333
0.052969415 -0.03523649 0.017237542 -0.010884967 0.0409029 -0.024369042 -0.03954318 0.029653212
0.051552124 0.0019100569 -0.029106686 0.04477076 -0.021917975 0.009454093 -0.011531793 -0.03690184
-0.011091197 0.049969137 -0.028030911 -0.020004917 -0.010711276 0.005973572 0.043086357 0.0058345613
0.028859213 0.026692439 0.00871526 0.03357834 -0.04861537 0.033440668 0.019560596 0.034174312
-0.037982255 -0.02114454 0.018359857 -0.022147512 0.043947026 0.007015127 -0.032328837 -0.04749422
0.0038677368 -0.026572026 -0.030657923 -0.0088083735 0.0009125946 -0.02597501 0.030790621 0.022610439
-0.038455393 -0.028847158 -0.028778 0.043748636 0.03389554 -0.034715023 -0.009618641 -0.0035326397
0.014464387 -0.007897393 0.024727339 -0.036369115 0.022508029 0.03767551 0.036048975 0.041312877
00000000: 1ff8 32bd 4e53 37bb 995e a2bc c3df c63b
00000010: 517a 41bb 1f00 ab3c ec96 0ebd bc86 493d
00000020: e2a0 43bc 7d96 41bc ba29 413d a3d1 493d
00000030: 4ae7 de3c db9c 5837 7c1f 59ba 43f8 6b3c
00000040: 5efc a0bc ba37 42bc ba21 aebc ab08 c3bc
00000050: 3bdd 10bd 978c 2cbc cc07 15bd 8e84 fc39
00000060: 5605 89bc 4c6c 2c3d 99ef 783c e39a b8bc
00000070: 065d 13bd 4095 9d3c 72a6 44bd 0813 bebc
00000080: 2ca0 efbc d1fa 6e3d 4123 44bd fdac 3cbd
00000090: c680 543d e998 4c3d 40c8 a73c 5b93 22bd
000000a0: ddc8 9a3b 7831 343d 6488 0239 2168 3b3d
000000b0: b504 08ba 5847 c23c 537e 033d 7f3c e23c
000000c0: 6f57 b63c c074 d33b 0ba4 54bc 21b7 1a3c
000000d0: 7196 693d 318c 5e3d 7e52 0dbc 45f9 acbc
000000e0: 9959 273d 743a 043d b0aa e1bc a474 043d
000000f0: 491d cebb 82db b73c 7d55 f8bc 0a8e 9b3b
00000100: 16be 19bd 42d0 423d d8cb a43c 0e14 353d
00000110: d391 4dbd 6918 03bd 6359 cbba 3c56 44bd
00000120: 2aa7 bbbc 9137 2ebd 5df5 5a3d 1c97 413d
00000130: 460a 133d 9ec9 4d3d 4a23 80bc 0b47 243d
00000140: 9442 28bd 894b 573d 23a4 c4bc 6a95 333d
00000150: aa26 efbc c440 503b 4050 7f3c aae3 cd3c
00000160: 9431 22bd 4a9b 05bd 710c 1e3c b709 dbbc
00000170: 195a a93c 3cde 713c cf11 b8bc 2f81 37bd
00000180: d366 27bd 9505 89bc 5341 933c ff09 323d
00000190: 02ef 333a bf3b 703d 9547 973c 6988 64bb
000001a0: 0c35 4b3d ce16 45bc 9a74 8b3b bdcf e53c
000001b0: 6eda 093d 684b 853b 02a3 c9bb 7c5c 253d
000001c0: b687 82bc 8dcb 883c a21c 2dbd 4da0 133d
000001d0: 0169 003d 0fef 763d 1071 da3b 757e 21bc
000001e0: 1b16 44bd b2d7 883c fec3 8cbc a6a4 423d
000001f0: 55d7 b53c b419 f73c 2f78 1ebd a8ff 813c
00000200: fcfe cd3c 3117 3c38 0660 35bb 0408 733c
00000210: ee6e a53c 8c8b 3fbd 29dc e33b 2a2e 393d
00000220: 372b f43c aead ca3b 6f25 613d 9c6c 583d
00000230: 56ea eebc d6b3 a73c f709 1bbd 56b0 2dbd
00000240: 77fb 443d 47d8 963c 6d26 5a3c e9c0 053c
00000250: 88c5 30bd 8ee4 573d a78f 09bd a424 aeba
00000260: 7799 ab3b 914c 383d 5161 963c 9291 8a3c
00000270: 1200 babc 8e9e 76bc e339 3b3c 71e2 d6bb
00000280: bab0 473c 5744 893c 8b50 efbc a773 a4bc
00000290: 60fb 6a3d 27db c23c e1bf 703d c64a 133d
000002a0: 7f8a 2abc 0a1f 093d 5ab9 cebc efdf 243b
000002b0: 4c4f 093d 24b9 1d3d 5528 6e3d 283b 4c3d
000002c0: 112e a33c 3e4c 383d e384 fc3c c23c c93c
000002d0: 797f 8fbc 4a29 0ebd 2bf8 a83c daa5 59bd
000002e0: 3f2e 6a3c c96b 003d 3e9c 4e3c 833a e83b
000002f0: 596e 09bd 07b3 773c 787f b83c 0fe6 893c
00000300: 75f6 583d 2354 10bd bf35 8d3c dc56 32bc
00000310: cd89 273d 96a1 c7bc 08f8 21bd 4beb f23c
00000320: 5228 533d e05a fa3a 2571 eebc 8b61 373d
00000330: 538d b3bc 57e5 1a3c d8ef 3cbc 6226 17bd
00000340: dab7 35bc 70ac 4c3d 15a1 e5bc 5ae1 a3bc
00000350: 597e 2fbc f4bd c33b 527b 303d d92f bf3b
00000360: 286a ec3c 1aaa da3c 73ca 0e3c 7189 093d
00000370: e920 47bd 15f9 083d 8b3d a03c 5dfa 0b3d
00000380: 4893 1bbd 5037 adbc 6967 963c b36e b5bc
00000390: cc01 343d 27df e53b 3e6b 04bd 4d89 42bd
000003a0: db79 7d3b 94ad d9bc 5326 fbbc ff50 10bc
000003b0: 303b 6f3a 8bc9 d4bc 9d3c fc3c 8739 b93c
000003c0: 6783 1dbd e050 ecbc d7bf ebbc c531 333d
000003d0: 0dd6 0a3d 5731 0ebd 8197 1dbc dc83 67bb
000003e0: 09fc 6c3c 1164 01bc fd90 ca3c c8f7 14bd
000003f0: c262 b83c a351 1a3d 17a8 133d b137 293d

weight f4 [1, 300]
0.04228894 -0.08732832 0.029195447 0.04121314 0.06817288 0.07461729 0.029081 -0.03540281
-0.087454036 -0.06037053 -0.06005533 -0.104892105 -0.08011918 0.0608484 0.035103247 -0.08608046
-0.08897674 0.069510855 -0.06153151 0.06081153 -0.09556957 -0.038237877 -0.07416789 0.086409375
-0.016202426 -0.068456024 0.052125774 -0.034237724 0.05071078 0.04579144 0.05419436 0.09021286
-0.038605053 0.042535335 0.05082396 0.07000811 -0.038015723 0.02626571 0.034259804 -0.070079185
0.042314563 0.022816334 -0.036958084 0.085912995 0.03315846 -0.030110931 -0.04602646 0.05247564
-0.050713003 -0.06603877 -0.021584462 0.0630327 -0.07172305 -0.06063519 -0.04448957 -0.03145729
-0.06290898 -0.02507991 0.07317861 -0.01526504 -0.0689191 -0.032802433 -0.13689059 -0.035701342
0.08901636 -0.066291794 0.03708685 0.04386577 -0.08687801 0.041635904 -0.07350294 0.033302628
-0.062133994 -0.05934956 0.081891894 -0.031922948 0.03330542 0.032159917 -0.020650482 0.03699669
-0.08929252 0.022021433 -0.06401636 -0.09784868 -0.043373458 0.05015834 0.068367556 0.082261786
-0.08725064 0.0044497517 0.024464095 0.15826596 0.04928675 -0.041788433 0.077146076 -0.058806416
0.033147145 -0.068317845 -0.02805158 -0.09224628 -0.041874748 -0.0753594 0.06213799 0.07621301
0.033676058 0.03393354 0.051471997 -0.048368447 0.055962145 -0.050210685 -0.030500231 0.04243585
-0.015984187 0.09484291 -0.071234874 0.030490601 0.048161935 0.08746754 -0.046275243 -0.05984223
0.113570064 0.05940645 0.05170621 -0.051012527 -0.039516676 0.067690305 -0.08115544 -0.029082732
0.054986496 -0.062167946 -0.08826395 -0.08524639 -0.034254756 -0.035573125 0.054018665 -0.039689366
0.048877105 -0.06867591 -0.032192454 0.03432816 0.03558685 -0.09229005 -0.025066897 0.087758444
-0.06938942 -0.027048418 0.056187443 0.07229826 0.08760924 -0.07821698 -0.08198574 -0.061892167
-0.07366834 0.030968906 0.059201796 -0.032221697 -0.034800496 -0.0733344 0.068401396 -0.06848345
-0.0021077266 0.08686353 -0.02992152 -0.067936294 -0.07051147 0.071814455 0.0100540845 0.03901897
-0.083814345 0.0550926 -0.06468936 -0.09745925 -0.037113924 0.0571339 -0.076009005 0.062168542
-0.041708216 -0.057239562 0.061619308 -0.027561735 -0.008708497 -0.040555898 0.08641719 0.04059723
-0.035812818 0.059162937 -0.05699215 -0.01889026 -0.021399274 0.067057334 -0.0604533 0.020682046
-0.033483185 0.031892687 -0.0780282 0.08045684 -0.04513917 -0.050059553 0.09386161 -0.06604368
0.038794324 -0.043303616 -0.13926417 0.038350094 0.08585199 -0.025920555 0.06299618 0.0658632
0.11477877 0.053939547 -0.06148085 0.05284306 0.049406763 -0.064726025 -0.04832107 0.03580327
0.03244217 -0.08431853 -0.053511944 -0.017008964 0.045321487 -0.024369014 0.06878964 -0.04037508
0.09280109 0.023835376 -0.058545273 0.036854554 -0.050032407 -0.078615084 -0.04834877 0.07529233
-0.07041176 -0.019702468 -0.06490083 -0.05877156 0.054242317 0.08222282 0.08362404 0.0015684257
0.03066082 -0.08886907 0.054540083 -0.08387455 -0.06918753 0.08108897 0.0820111 -0.086687684
-0.050047576 -0.075408936 -0.20074798 0.043414257 0.036127802 0.05869613 0.06679434 -0.07981468
00000000: 2b37 2d3d 31d9 b2bd 4a2b ef3c 1ccf 283d
00000010: 399e 8b3d f3d0 983d 473b ee3c 8902 11bd
00000020: 1a1b b3bd 1747 77bd 94fc 75bd acd1 d6bd
00000030: 8615 a4bd 2c3c 793d 6cc8 0f3d f44a b0bd
00000040: 7039 b6bd b55b 8e3d 7708 7cbd 8315 793d
00000050: fbb9 c3bd 529f 1cbd 56e5 97bd 66f7 b03d
00000060: f3ba 84bc ac32 8cbd d681 553d db3c 0cbd
00000070: 1bb6 4f3d ce8f 3b3d e8fa 5d3d 85c1 b83d
00000080: 5520 1ebd 8839 2e3d c92c 503d 6960 8f3d
00000090: 60b6 1bbd 302b d73c 0254 0c3d ad85 8fbd
000000a0: 0952 2d3d 52e9 ba3c 5c61 17bd 27f3 af3d
000000b0: 2ad1 073d 33ab f6bc 3e86 3cbd b2f0 563d
000000c0: 70b8 4fbd 563f 87bd e6d1 b0bc 4a17 813d
000000d0: 89e3 92bd 9b5c 78bd b23a 36bd 5cd9 00bd
000000e0: 6cd6 80bd 6274 cdbc abde 953d 381a 7abc
000000f0: 7525 8dbd d85b 06bd 0c2d 0cbe 923b 12bd
00000100: 364e b63d fec3 87bd 61e8 173d 98ac 333d
00000110: 19ed b1bd 698a 2a3d b688 96bd 5668 083d
00000120: 3780 7ebd 8618 73bd f0b6 a73d a3c1 02bd
00000130: 446b 083d 1eba 033d 332b a9bc d789 173d
00000140: ffde b6bd 4b66 b43c 021b 83bd e464 c8bd
00000150: 5ea8 31bd d572 4d3d 4a04 8c3d de78 a83d
00000160: 77b0 b2bd 39cf 913b ed68 c83c 7910 223e
00000170: e7e0 493d 592a 2bbd c3fe 9d3d ffde 70bd
00000180: 4dc5 073d 3aea 8bbd 6dcc e5bc 9eeb bcbd
00000190: db84 2bbd 0756 9abd 6884 7e3d 9115 9c3d
000001a0: e8ef 093d e5fd 0a3d 4dd4 523d fe1d 46bd
000001b0: 9038 653d b8a9 4dbd 9fdb f9bc 37d1 2d3d
000001c0: 45f1 82bc 003d c23d 97e3 91bd 6dc7 f93c
000001d0: 7345 453d 2e22 b33d 1c8b 3dbd 201d 75bd
000001e0: 6c97 e83d 2d54 733d e4c9 533d 83f2 50bd
000001f0: 3ddc 21bd 37a1 8a3d d334 a6bd e93e eebc
00000200: 8539 613d d1a3 7ebd bbc3 b4bd a995 aebd
00000210: b74e 0cbd 20b5 11bd ad42 5d3d 5191 22bd
00000220: 5c33 483d f5a5 8cbd 3cdc 03bd af9b 0c3d
00000230: 84c3 113d 9102 bdbd 1859 cdbc b3ba b33d
00000240: 0a1c 8ebd a594 ddbc ce24 663d 1c11 943d
00000250: 796c b33d 3930 a0bd 24e8 a7bd a482 7dbd
00000260: 6ddf 96bd 81b2 fd3c 957d 723d e6fa 03bd
00000270: f78a 0ebd 5930 96bd 0816 8c3d 0d41 8cbd
00000280: c921 0abb 82e5 b13d fa1d f5bc 2f22 8bbd
00000290: 5168 90bd 7513 933d e3b9 243c 5bd2 1f3d
000002a0: dba6 abbd c7a8 613d db7b 84bd b798 c7bd
000002b0: c504 18bd 3c05 6a3d 9caa 9bbd 71a4 7e3d
000002c0: 3cd6 2abd 0874 6abd 8764 7c3d 26c9 e1bc
000002d0: 15ae 0ebc f11d 26bd 7ffb b03d 4849 263d
000002e0: 76b0 12bd d654 723d 9a70 69bd bfbf 9abc
000002f0: 884d afbc 5b55 893d e19d 77bd 656d a93c
00000300: aa25 09bd e8a1 023d 40cd 9fbd 8ec6 a43d
00000310: dae3 38bd 3f0b 4dbd 843a c03d e941 87bd
00000320: cce6 1e3d 225f 31bd 449b 0ebe fd14 1d3d
00000330: 2bd3 af3d 5857 d4bc 2404 813d 49e3 863d
00000340: 2211 eb3d b7ef 5c3d 58d3 7bbd f771 583d
00000350: bf5e 4a3d 148f 84bd 50ec 45bd 73a6 123d
00000360: 15e2 043d 32af acbd 572f 5bbd 6256 8bbc
00000370: 06a3 393d 87a1 c7bc 95e1 8c3d 5760 25bd
00000380: 7f0e be3d 6842 c33c 2bcd 6fbd cdf4 163d
00000390: c8ee 4cbd f200 a1bd 5c09 46bd dd32 9a3d
000003a0: 0a34 90bd 1267 a1bc baea 84bd 73ba 70bd
000003b0: 312d 5e3d 7064 a83d 1543 ab3d a293 cd3a
000003c0: 662c fb3c fd00 b6bd 6c65 5f3d 6cc6 abbd
000003d0: 31b2 8dbd f911 a63d 70f5 a73d 5089 b1bd
000003e0: b0fe 4cbd 0070 9abd e190 4dbe 26d3 313d
000003f0: bffa 133d 5a6b 703d 79cb 883d e175 a3bd
