DDPG/data/exp/InvertedDoublePendulum/2022-06-20-22-32-49_critic.pt (torch, 23127 bytes, 5 tensors)

weight f4 [64, 12]
0	0x3da670b1	0.08126963
1	0xbebeecd0	-0.3729005
2	0xbf1b3e9a	-0.606424
3	0xbda4d7a9	-0.080489464
4	0x3dc9eef3	0.09860029
5	0x3d99ad69	0.075037785
6	0xbf63a85b	-0.88928765
7	0xbf476ee3	-0.77903575
8	0xbe2a6413	-0.16639738
9	0xbdb5e154	-0.088808686
10	0xbbd31500	-0.0064417124
11	0xbc938f0d	-0.018012548
12	0xbdccdec6	-0.10003428
13	0xbeaac50c	-0.3335346
14	0x3f0288d8	0.50990057
15	0xbe654df4	-0.22393018
16	0xbeb1308e	-0.34607357
17	0xbe2f288c	-0.17105311
18	0xbed12e4f	-0.40855643
19	0x3ee6c5a8	0.45072675
20	0xbe25947f	-0.16169928
21	0xbcaa8940	-0.020817399
22	0xbdfe652e	-0.12421642
23	0x3e941e1d	0.28929225
24	0xbe0db7d9	-0.13839664
25	0x3e40d7d4	0.18832332
26	0x3ea3ae77	0.31969044
27	0xbeaea998	-0.34113765
28	0xbb245a4d	-0.0025078238
29	0xbf24768c	-0.6424339
30	0xbda23f37	-0.079222135
31	0x3f1703a7	0.5898995
32	0xbe3fcf90	-0.18731523
33	0xbe624062	-0.22094873
34	0xbdb4bc12	-0.08824934
35	0x3e1f5f1a	0.15563622
36	0xbd6f781e	-0.058464162
37	0x3f20fd2b	0.62886304
38	0xbe81e75b	-0.25371823
39	0x3d831fba	0.06402536
40	0x3de57be9	0.112052746
41	0x3f263bd6	0.6493505
42	0x3ee37149	0.44422367
43	0x3e769d94	0.24083549
44	0xbe19da69	-0.15024723
45	0xbe5e4e66	-0.21709594
46	0xbe7461a8	-0.23865378
47	0x3c0c1b1c	0.008551385
48	0xbe0862cc	-0.13318938
49	0x3eb49ff2	0.3527828
50	0xbf504841	-0.8136025
51	0x3d857449	0.0651632
52	0x3cd73f3e	0.026275273
53	0x3ef7a509	0.483681
54	0xbe73615b	-0.23767607
55	0xbf1ec87a	-0.6202465
56	0xbe8e4ff8	-0.27795386
57	0x3e318c9c	0.17338794
58	0x3e4ef84e	0.20211908
59	0x3af0e72f	0.0018379445
60	0xbdb145e9	-0.086559124
61	0x3e58bef2	0.2116659
62	0x3f461164	0.77370286
63	0xbec90974	-0.39265025
64	0xbe9cf4bd	-0.3065547
65	0xbef49cf4	-0.47775996
66	0x3edcd903	0.43134317
67	0x3f2b9863	0.670294
68	0x3dc95de0	0.09832358
69	0xbc177860	-0.009245008
70	0xbd925eaa	-0.07146962
71	0xbe341a9a	-0.17588273
72	0xbd92421c	-0.071415156
73	0xbe212caa	-0.15739694
74	0xbf39a102	-0.72511303
75	0xbd6ed0f8	-0.058304757
76	0x3e8581bf	0.2607555
77	0xbf03728f	-0.5134668
78	0xbf2a934e	-0.6663102
79	0xbf22d162	-0.6360074
80	0xbda97642	-0.08274509
81	0x3de09894	0.10966602
82	0x3cc5f960	0.024166763
83	0xbe81e5ac	-0.25370538
84	0x3dec94e1	0.11551834
85	0x3eaf6c39	0.34262255
86	0x3e26b6b6	0.16280636
87	0xbe045b50	-0.12925458
88	0xbea72b69	-0.32650307
89	0x3f431192	0.76198685
90	0x3f13531f	0.5754871
91	0xbd599b01	-0.05312634
92	0xbe724742	-0.23659995
93	0x3e931fc0	0.2873516
94	0xbe8b4836	-0.2720353
95	0x3e87aaec	0.2649759
96	0xbe227c16	-0.15867648
97	0x3ecf6d0e	0.4051289
98	0x3f1a79ae	0.6034192
99	0xbed937ac	-0.42425287
100	0xbecb6792	-0.39727455
101	0xbe10ab2b	-0.14127795
102	0x3f249ff2	0.6430656
103	0x3e5f0618	0.21779668
104	0xbdccc652	-0.09998764
105	0xbdfd7300	-0.1237545
106	0x3dadb304	0.0848141
107	0xbefa373c	-0.48870265
108	0x3e8d6455	0.2761561
109	0xbe81eae5	-0.25374523
110	0xbf025bb7	-0.50921196
111	0xbea93ef0	-0.3305583
112	0xbea9254b	-0.33036265
113	0x3e8b478e	0.2720303
114	0xbe317578	-0.17329967
115	0xbe4553d7	-0.19270264
116	0xbde2a3a4	-0.11066368
117	0xbdc33222	-0.095310465
118	0x3d5deaf0	0.054179132
119	0x3dba216c	0.09088406
120	0x3d672851	0.056434933
121	0x3f1473d8	0.57989264
122	0x3e5236d2	0.20528725
123	0x3ebb70dd	0.36609545
124	0x3eb61557	0.35563156
125	0x3d21cc72	0.039501615
126	0x3f31b476	0.69415987
127	0x3e03c787	0.12869082
128	0xbe783d04	-0.24242026
129	0xbe92b491	-0.28653386
130	0xbce0d710	-0.0274463
131	0xbdb58505	-0.08863262
132	0xbe22b880	-0.15890694
133	0xbf0842f3	-0.53227156
134	0xbf8d2911	-1.1028157
135	0x3bed0772	0.0072335536
136	0xbd73fe32	-0.05956859
137	0x3e06c596	0.1316131
138	0xbf5831fb	-0.84451264
139	0xbf943dff	-1.158142
140	0x3e8ecc28	0.27890134
141	0x3ceec210	0.02914527
142	0x3e5f1bec	0.21787995
143	0xbe218860	-0.15774679
144	0x3e17e73c	0.14834303
145	0x3e90651f	0.2820215
146	0x3f86441f	1.0489539
147	0x3bf63f1f	0.007514849
148	0xbe8935e3	-0.26798925
149	0x3e69b7b2	0.2282398
150	0x3eee96e5	0.46599498
151	0x3f314112	0.69239914
152	0x3e8d037c	0.2754172
153	0xbe64c907	-0.22342311
154	0x3e61c450	0.22047544
155	0x3e1b9236	0.15192494
156	0xbe8b43ef	-0.27200267
157	0x3e93358a	0.28751785
158	0x3f2bfcbd	0.67182523
159	0xbe8c030f	-0.27346084
160	0x3b783ae7	0.0037876905
161	0xbe01e99b	-0.1268677
162	0x3f308f43	0.689686
163	0x3f1f127f	0.621376
164	0xbdff4aae	-0.12465416
165	0xbe0029d0	-0.1251595
166	0x3d60f0f0	0.054917276
167	0x3da5af75	0.080901064
168	0xbe15c5b9	-0.14626206
169	0x3e9ea2c5	0.30983558
170	0x3f3b8423	0.732485
171	0x3dc95cb8	0.09832138
172	0x3e32f2a1	0.17475368
173	0xbe343d54	-0.1760152
174	0x3f0e005a	0.55469286
175	0x3f1d524e	0.6145371
176	0xbd534584	-0.051579967
177	0xbe61ba90	-0.22043824
178	0xbe759e94	-0.23986274
179	0xbe58ed13	-0.21184187
180	0x3d1e5b9d	0.038661588
181	0x3e1ab0d4	0.15106517
182	0x3d944c1e	0.07241081
183	0xbcd0b5f2	-0.025477383
184	0xbca416be	-0.020030376
185	0x3f466494	0.7749722
186	0x3f15aade	0.5846385
187	0xbe894fb2	-0.26818615
188	0x3e134c52	0.14384583
189	0xbe5078d8	-0.20358598
190	0x3e8b0164	0.27149498
191	0x3da72031	0.08160437
192	0x3e2a04e8	0.16603434
193	0x3f1ec72f	0.6202268
194	0x3e4a21c4	0.19739443
195	0x3e953c06	0.29147357
196	0x3e6f7461	0.23384239
197	0x3e6dbc84	0.23216444
198	0x3f4d69d2	0.80239594
199	0x3e94469d	0.28960124
200	0xbdf6e0ba	-0.12054582
201	0x3e188ea8	0.14898169
202	0xbe13336b	-0.14375083
203	0xbe956e7b	-0.29185852
204	0x3d3820a9	0.044953022
205	0x3ecdbcf9	0.40183237
206	0x3f3dab74	0.7408974
207	0xbe489790	-0.19589067
208	0x3e3822f2	0.1798208
209	0x3d879b8d	0.06621466
210	0x3f731ffa	0.9497067
211	0x3f24ca7a	0.64371455
212	0xbe2dcb12	-0.16971996
213	0x3c7dbc60	0.015486807
214	0xbe4d7d21	-0.20067264
215	0x3e1aecf8	0.15129459
216	0xbb1101a3	-0.002212622
217	0x3ef97351	0.48720792
218	0x3f1f973e	0.6234015
219	0xbba95cad	-0.0051685185
220	0xbe461b6d	-0.193464
221	0x3dc7f4f7	0.0976352
222	0x3f4bdfeb	0.79638547
223	0x3e8a2d9c	0.26987922
224	0xbe92b68f	-0.28654906
225	0xbc969880	-0.018383265
226	0xbe850b42	-0.25985152
227	0xbe950d3c	-0.2911166
228	0x3dd53322	0.104101434
229	0xbc9a25b6	-0.01881681
230	0x3f75eb95	0.96062595
231	0x3e4f15b6	0.20223126
232	0x3e93c169	0.28858498
233	0x3f2631b5	0.64919597
234	0x3f297934	0.66200566
235	0x3f54095a	0.8282677
236	0xbda11eee	-0.078672275
237	0x3d08c508	0.03339103
238	0xbd81a57d	-0.063303925
239	0x3ea97a22	0.33100992
240	0xbd61ef23	-0.0551597
241	0xbd260748	-0.040534288
242	0x3f510b7f	0.81658167
243	0x3e96dba5	0.2946445
244	0x3e70b900	0.23508072
245	0xbd8a6757	-0.06757992
246	0xbea02d1f	-0.31284425
247	0x3e8ab787	0.27093145
248	0xbe8f063b	-0.2793444
249	0xbe83871c	-0.25689018
250	0x3e1eaf16	0.15496477
251	0x3d6630ba	0.056198813
252	0xbe27655c	-0.1634726
253	0x3ee6fde1	0.4511557
254	0x3efe5709	0.49675778
255	0xbef92038	-0.48657393

bias f4 [64]
0	0x3ea9c3e1	0.33157256
1	0xbe175721	-0.14779331
2	0xbed8822e	-0.4228682
3	0xbe68ab9c	-0.22721714
4	0x3e8afff8	0.27148414
5	0xbd4e18b7	-0.05031654
6	0x3c56ea1b	0.0131173385
7	0xbcec1951	-0.028820666
8	0xbe469f67	-0.19396745
9	0x3ddba99b	0.10725709
10	0x3e030a3f	0.12796877
11	0xbd539fc5	-0.05166604
12	0x3d8bc332	0.0682434
13	0x3e3d4f5d	0.18487306
14	0x3e92088a	0.2852214
15	0xbe42ed34	-0.19035798
16	0x3e142b1c	0.1446957
17	0xbdb30e1c	-0.087429255
18	0x3d23c1d4	0.03997977
19	0x3e6e18e0	0.23251677
20	0x3dab970d	0.0837842
21	0xbed08daf	-0.40733096
22	0x3e25bf53	0.16186266
23	0xbe88d9fb	-0.26728806
24	0xbe894207	-0.26808187
25	0xbd7766d1	-0.060400788
26	0xbd4bf4fa	-0.049794175
27	0xbde9b678	-0.11411756
28	0xbd997b3b	-0.074942075
29	0xbe2f76be	-0.1713514
30	0x3eb2bd94	0.34910262
31	0x3daec70d	0.0853406
32	0x3d44d558	0.048055023
33	0xbde027d1	-0.109450944
34	0xbe56b124	-0.20966011
35	0x3d6a98ac	0.057274505
36	0xbdbcc554	-0.09217325
37	0xbe19d6c6	-0.15023336
38	0xbc488653	-0.012239057
39	0xbe315aa4	-0.17319733
40	0xbe2ce864	-0.16885525
41	0xbdc9269c	-0.09821817
42	0xbdc2f27a	-0.09518905
43	0xbe91bfaf	-0.28466555
44	0xbddfd9ab	-0.10930189
45	0x3da432b4	0.08017483
46	0x3e398ff9	0.18121327
47	0xbe1a1d4f	-0.15050243
48	0xbe3a7d86	-0.18211946
49	0xbe3c36d6	-0.18380293
50	0xbe28e1fc	-0.16492456
51	0x3d81ea84	0.063435584
52	0xbd9d44fe	-0.07679175
53	0x3e0f21b3	0.13977699
54	0xbe68a644	-0.22719675
55	0xbd6973c1	-0.056995157
56	0x3e18ff2b	0.14941089
57	0x3d763146	0.060105585
58	0xbe64c548	-0.22340882
59	0xbe6fb762	-0.23409799
60	0x3d9a8720	0.07545304
61	0x3e2b9a4d	0.1675808
62	0x3a8229a5	0.0009930624
63	0xbe8a9e04	-0.2707368

weight f4 [64, 64]
0	0xbdaba2ff	-0.083806984
1	0x3f48daf6	0.7845911
2	0x3ee7869d	0.4521989
3	0xbd986e30	-0.074428916
4	0xbe861a2f	-0.26191851
5	0x3ea6853e	0.3252353
6	0xbe50095c	-0.2031607
7	0x3d7f97a3	0.06240047
8	0x3e0652ff	0.13117598
9	0x3e419e19	0.18907966
10	0xbe79d87e	-0.24398991
11	0xbee1c3a8	-0.44094586
12	0x3e9c3d48	0.30515504
13	0xbdf85118	-0.121248424
14	0x3ce8b241	0.02840531
15	0xbda4bd1b	-0.080438815
16	0xbe3f1661	-0.1866088
17	0x3e90bcc9	0.28269032
18	0x3c1fa575	0.009744038
19	0xbe164056	-0.1467298
20	0x3de30927	0.1108573
21	0x3ebcc7fc	0.36871326
22	0xbdf6bb25	-0.12047414
23	0x3dc7d881	0.09758092
24	0xbe0dce5c	-0.13848251
25	0x3c95519f	0.018227397
26	0x3d6e471a	0.058173276
27	0xbc5e62ea	-0.013573388
28	0x3f0ea348	0.557179
29	0x3c26ac30	0.010172889
30	0xbe9b950e	-0.30387157
31	0x3df9c8d3	0.12196507
32	0x3ddd7d16	0.10814874
33	0x3ead31da	0.33827096
34	0x3eb1deea	0.34740382
35	0x3edd95f6	0.43278474
36	0x3e083c27	0.13304196
37	0xbcc7d518	-0.024393603
38	0x3e90f3e1	0.28311065
39	0xbe2ce53f	-0.16884325
40	0x3eac1fec	0.33618104
41	0x3ee853da	0.45376474
42	0xbd584cce	-0.05280762
43	0x3e015737	0.12630926
44	0x3e1ff2b2	0.15619925
45	0x3f0bdd1d	0.5463427
46	0xbe6d5252	-0.23175934
47	0xbd0b95ef	-0.034078535
48	0x3e3fe573	0.18739872
49	0xbe188106	-0.14892969
50	0xbc087803	-0.008329394
51	0x3e945d6b	0.28977522
52	0xbe8078d0	-0.25092173
53	0xbf19ea37	-0.6012301
54	0xbea2e9dc	-0.31819046
55	0x3e3ed036	0.18634114
56	0x3e72a557	0.23695885
57	0x3e7c925f	0.24665211
58	0x3e82dab7	0.2555749
59	0xbe8354c6	-0.25650615
60	0xbe14ffec	-0.14550751
61	0xbe802417	-0.25027534
62	0xbe6d7b52	-0.23191574
63	0x3cee3e70	0.029082507
64	0xbe95e329	-0.29274872
65	0xbe328233	-0.1743248
66	0x3d758f09	0.059950862
67	0x3ea0a8a9	0.31378677
68	0x3ea3ee3a	0.3201769
69	0x3e808e5e	0.25108618
70	0xbf20adab	-0.62764996
71	0x3f33ee84	0.7028582
72	0x3ec2162a	0.37907535
73	0x3e689536	0.2271317
74	0x3d9e8839	0.07740826
75	0xbca3d033	-0.019996738
76	0x3da42308	0.08014494
77	0x3e781504	0.24226767
78	0x3d9c94f9	0.07645602
79	0x3ec4fe45	0.38475242
80	0x3d8a177f	0.06742763
81	0x3eed9e68	0.46409917
82	0x3f1b9e1d	0.60788137
83	0xbdca2f13	-0.0987226
84	0xbefef12c	-0.49793375
85	0x3eddd57a	0.43326932
86	0xbeffc4ff	-0.49954984
87	0xbe8973b6	-0.26846093
88	0x3eaa6268	0.33278203
89	0x3ef96dea	0.4871667
90	0xbe49773e	-0.19674394
91	0xbec637c6	-0.38714427
92	0xbe004a65	-0.1252838
93	0xbe1d1e1a	-0.15343514
94	0xbe51c34e	-0.20484659
95	0x3d43a10c	0.04776101
96	0xbed83acc	-0.42232358
97	0xbe8ec7ea	-0.27886897
98	0xbec38b12	-0.3819204
99	0x3d229fb8	0.0397031
100	0xbd14292d	-0.03617208
101	0x3dcaee60	0.09908748
102	0xbe89853a	-0.26859456
103	0x3f42c380	0.7607956
104	0x3ef4a63b	0.47783074
105	0xbe9e2c05	-0.3089296
106	0xbed0ed79	-0.40806177
107	0xbe19d446	-0.15022382
108	0x3ec39267	0.38197634
109	0xbedda97f	-0.43293378
110	0x3f00d4c5	0.5032466
111	0x3e99fb27	0.30074427
112	0x3ed7f890	0.42181826
113	0x3de58a48	0.11208016
114	0xbe813dcd	-0.25242463
115	0x3e5841e0	0.2111888
116	0x3f318a9d	0.6935213
117	0x3e548518	0.20753896
118	0x3ec33d48	0.3813269
119	0xbdea4d1a	-0.11440487
120	0xbf0d7d50	-0.55269337
121	0xbee28cdb	-0.4424809
122	0x3f006422	0.5015279
123	0xbede3516	-0.43399876
124	0xbe6ad070	-0.22931075
125	0xbe3fb0ce	-0.1871979
126	0x3d217ef9	0.03942773
127	0x3f05ea22	0.52310383
128	0x3d8b227c	0.06793687
129	0x3cdfec08	0.027334228
130	0xbe0d9caa	-0.13829294
131	0xba4fa097	-0.0007920353
132	0xbe7dd29f	-0.24787377
133	0xbe8109b3	-0.25202712
134	0xbccb9c73	-0.024854874
135	0xbda53731	-0.080671676
136	0xbf0badbf	-0.5456199
137	0xbe8e4e89	-0.27794293
138	0x3e2f3bd6	0.1711267
139	0xbeaf02d5	-0.34181848
140	0x3e80915f	0.2511091
141	0x3c897444	0.016779073
142	0x3e2aa0a5	0.16662844
143	0x3dc9d0e0	0.09854293
144	0x3dbbda48	0.09172493
145	0x3d627924	0.05529131
146	0xbe86b1a7	-0.26307413
147	0x3ef134ca	0.47110587
148	0x3eb6f010	0.35730028
149	0xbee89653	-0.45427188
150	0x3ec8d6b1	0.39226297
151	0xbd37aef8	-0.044844598
152	0xbe502d10	-0.2032969
153	0xbf31f5c6	-0.69515646
154	0x3e50a8d0	0.20376897
155	0x3ea31442	0.31851393
156	0x3e613483	0.21992688
157	0x3e22a3ce	0.15882799
158	0x3dad85d8	0.08472794
159	0x3e449ea6	0.19201145
160	0x3ef8fec9	0.48631886
161	0x3cab9416	0.020944636
162	0x3ea19494	0.3155867
163	0xbe049c43	-0.12950234
164	0xbe64112e	-0.22272179
165	0xbdcac1bb	-0.099002324
166	0x3ef7b3ab	0.48379263
167	0xbf141825	-0.5784934
168	0xbebb46f0	-0.3657756
169	0x3e167507	0.1469308
170	0x3e9b6f5a	0.30358392
171	0x3e779cc3	0.24180894
172	0xbd732097	-0.059357252
173	0x3e5e8a17	0.21732365
174	0x3d598a54	0.053110436
175	0xbeab1d0e	-0.33420604
176	0x3e840b8b	0.25790057
177	0xbe9cf8b9	-0.3065851
178	0x3ef1b29f	0.4720659
179	0x3e8ad421	0.27114967
180	0xbea19060	-0.31555462
181	0x3e2df84c	0.16989249
182	0xbea4dc28	-0.32199216
183	0x3ef1c326	0.472192
184	0xbea156ef	-0.31511638
185	0x3f18f84e	0.5975388
186	0xbe90c247	-0.28273222
187	0xbe8c67c2	-0.2742291
188	0x3d276cd8	0.040875286
189	0x3ef6cc84	0.48202908
190	0xbe42b510	-0.19014382
191	0xbd6f3245	-0.05839755
192	0xbe81e62e	-0.25370926
193	0x3e015a2b	0.12632053
194	0x3eb2cb84	0.34920895
195	0xbe9f52e9	-0.31117943
196	0xbf196255	-0.5991567
197	0x3e44ed2b	0.19231097
198	0x3eb3fbd2	0.3515306
199	0xbee65107	-0.44983694
200	0x3e0186f5	0.12649138
201	0xbe454630	-0.19265056
202	0xbe6c5073	-0.23077564
203	0x3ce4d035	0.027931312
204	0xbe1d9170	-0.15387511
205	0xbda31140	-0.079622746
206	0xbdca4e8a	-0.098782614
207	0xbf0bef0e	-0.54661644
208	0xbe854eef	-0.26036784
209	0xbe02075d	-0.12698121
210	0xbdf152fa	-0.11783405
211	0xbebee404	-0.37283337
212	0xbd8b5c94	-0.06804767
213	0x3e94f5dc	0.29093826
214	0x3e3abc3b	0.18235867
215	0x3ecf9c7c	0.40549076
216	0x3e953d7c	0.2914847
217	0x3e5444ba	0.20729342
218	0xbe3f142c	-0.18660039
219	0xbde29f87	-0.11065584
220	0x3e47134e	0.19440958
221	0x3d7e93b5	0.062152583
222	0x3de4906d	0.111603595
223	0xbe952e81	-0.29137042
224	0xbdd1371f	-0.10215592
225	0x3ef77e43	0.48338518
226	0x3e9897f9	0.29803446
227	0x3dc6fee9	0.09716589
228	0x3c8b47dd	0.01700204
229	0xbd4d2fad	-0.050094295
230	0xbe0974d8	-0.13423479
231	0xbe2dac29	-0.16960205
232	0x3e7ada0e	0.24497244
233	0x3eb11c86	0.34592074
234	0x3da3d86f	0.08000266
235	0x3ee77df4	0.45213282
236	0x3da5bc5d	0.08092568
237	0x3e804fff	0.25061032
238	0xbedcf9c9	-0.4315932
239	0x3eb2a038	0.34887862
240	0xbe20206b	-0.15637366
241	0x3ebaa375	0.36452833
242	0xbd2476a8	-0.040152222
243	0xbd924313	-0.071417
244	0xbebb20e0	-0.3654852
245	0xbebb06bf	-0.36528584
246	0x3dbb231e	0.091375574
247	0xbddd7cf6	-0.1081485
248	0x3ef35d01	0.47531894
249	0x3e018c2c	0.12651128
250	0xbea7e56c	-0.32792222
251	0x3ecc6047	0.39917204
252	0x3e40be0b	0.18822496
253	0xbea4cef8	-0.32189155
254	0x3e9d4a4a	0.3072074
255	0xbef958b4	-0.48700488

bias f4 [64]
0	0xbcf97b9c	-0.03045445
1	0x3df4313a	0.11923452
2	0x3d8811a2	0.06643988
3	0xbe066428	-0.13124144
4	0xbe19e5f2	-0.15029123
5	0xbdd9085b	-0.10597297
6	0xbdad885d	-0.08473275
7	0x3e271746	0.16317472
8	0x3daed9fc	0.08537671
9	0x3e157309	0.14594664
10	0x3d8fa55c	0.07013962
11	0xbe5a3b9d	-0.21311803
12	0x3df773ec	0.12082657
13	0xbdd71420	-0.105018854
14	0x3c346584	0.011010531
15	0xbd9955c9	-0.07487065
16	0x3d27644e	0.040867142
17	0x3df5e193	0.120059155
18	0xbd963ef2	-0.073362246
19	0x3e47dcf7	0.19517885
20	0x3cbd08e6	0.023075532
21	0xbc3e862e	-0.011628671
22	0xbdacff08	-0.08447081
23	0x3e63384a	0.22189441
24	0xbe09c49a	-0.13453904
25	0xbc8edf8a	-0.017440576
26	0x3de177f4	0.11009207
27	0xbe7134d9	-0.23555316
28	0x3e098381	0.13429071
29	0xbe448978	-0.19193065
30	0x3d6678c5	0.05626752
31	0xbe0f0f9a	-0.13970795
32	0x3e68088e	0.22659513
33	0xbe68b051	-0.2272351
34	0xbc9be9c0	-0.01903236
35	0xbe43c080	-0.19116402
36	0x3d3784da	0.04480443
37	0xbe4fda10	-0.20298028
38	0xbdbc23a5	-0.09186486
39	0x3d630663	0.055426013
40	0x3d6c7c27	0.05773559
41	0x3e1fa9c4	0.15592104
42	0xbdff4319	-0.1246397
43	0xbdb1c0b8	-0.08679336
44	0x3e028903	0.12747578
45	0x3d944107	0.072389655
46	0x3e1b8a13	0.1518939
47	0xbdf75bbc	-0.12078044
48	0xbdf4029f	-0.119145624
49	0x3d60669b	0.054785352
50	0x3d7c9f89	0.061675582
51	0x3e0b43d6	0.13600096
52	0xbd98a61a	-0.07453556
53	0x3e093a6d	0.13401194
54	0x3e3971d0	0.18109822
55	0xbd4e539b	-0.0503727
56	0x3de2077d	0.110365845
57	0xbd504e91	-0.050856177
58	0xbe70e5b8	-0.23525131
59	0x3c06ad30	0.008220002
60	0x3e44c691	0.19216372
61	0xbdfc9f70	-0.12335098
62	0x3dd35164	0.103182584
63	0xbcc7f61b	-0.024409344

weight f4 [1, 64]
0	0xbf189acd	-0.5961121
1	0xbf5cf331	-0.8630858
2	0x3f7f8f1e	0.99827754
3	0x3f3125c1	0.6919823
4	0xbf65412a	-0.8955256
5	0x3f85e28d	1.0459763
6	0xbf7719b8	-0.9652362
7	0x3f0bf10e	0.54664695
8	0xbf226532	-0.6343566
9	0xbf30725d	-0.68924505
10	0xbf9ef53a	-1.2418587
11	0xbf5f644e	-0.8726243
12	0x3f96c98e	1.178026
13	0xbf969d41	-1.176674
14	0xbf97bfe9	-1.1855441
15	0x3f8c4916	1.0959804
16	0xbf6c3a33	-0.92276305
17	0xbf599e61	-0.8500729
18	0xbf8fc3a5	-1.1231581
19	0x3f55f627	0.83578724
20	0xbf3a5c19	-0.7279678
21	0x3f9ba278	1.2158957
22	0x3f4d4b4e	0.8019303
23	0x3f98427e	1.1895292
24	0xbf705b54	-0.93889356
25	0x3f658008	0.89648485
26	0xbf85fefb	-1.0468439
27	0xbf7a2d99	-0.97725827
28	0x3f2d0d8b	0.6759879
29	0xbf925e82	-1.1435091
30	0xbf93828f	-1.1524218
31	0xbf84c72e	-1.0373285
32	0x3f34fcfc	0.70698524
33	0xbf9012b0	-1.1255703
34	0x3f11b8de	0.5692271
35	0xbf8139fb	-1.0095819
36	0x3f7d0ad2	0.98844635
37	0xbf6928f2	-0.910781
38	0x3f40d7fb	0.7532956
39	0x3f1f7a86	0.6229633
40	0x3f61dd1e	0.88228023
41	0x3fb526a3	1.4152416
42	0x3f41c155	0.75685626
43	0xbf870558	-1.0548506
44	0x3f5b9b57	0.85783905
45	0xbfae406e	-1.3613412
46	0x3fac1f91	1.3447133
47	0xbf88fd86	-1.0702369
48	0x3f20e809	0.6285406
49	0xbf74321a	-0.9538895
50	0x3f231e34	0.6371796
51	0x3f5ff9ec	0.87490726
52	0x3f716d1c	0.9430711
53	0x3f9dbffe	1.2324216
54	0x3f4c1b72	0.7972938
55	0x3f29c6ad	0.6631878
56	0x3f0ab7fd	0.54186994
57	0xbf9bc599	-1.2169677
58	0xbf07bf75	-0.53026515
59	0x3f6b1777	0.9183268
60	0x3fa10886	1.2580726
61	0x3f52bc9a	0.82319033
62	0x3f59eccf	0.85126966
63	0x3f98db0e	1.194185
