DDPG/data/exp/InvertedDoublePendulum/2022-07-06-11-42-28_actor.pt (torch, 23127 bytes, 5 tensors)

weight f4 [64, 11]
00000000: 5487 913e f42b b3bd b5a3 973d b791 c8be
00000010: 1bb8 3c3e 321b b1be 8b22 a8be 4ad7 be3c
00000020: a365 193e 66b1 dabd 4420 b73d 6463 4a3e
00000030: 2931 583e 2d43 0f3f 8ef9 fbbd 59b1 673e
00000040: 39fb 09be 5229 773e 1544 8f3e 6e34 adbd
00000050: 45b4 873e 7e03 2e3e c2a4 c53e 39f8 6cbe
00000060: 0eea 16bf d5f8 f6bd 3f32 0c3e 8bfb 093e
00000070: 737d 89be 0671 03bd 0564 8abd 1094 323e
00000080: 0ba6 41be 8312 223d 3048 173e 4b0a cd3f
00000090: bd6a 21bf d169 3abf d4f6 b73e c1ef b7be
000000a0: a85d 513f 7d52 903e 95d8 07be 84fe 133e
000000b0: b6a0 c5bc f77b 32bd 4816 a63e 29ef fb3d
000000c0: 1dd5 a9bd 9a2c 99be 2e7f 6dbd 2894 b83e
000000d0: c908 953e f04f c73d e418 0e3e f10a 933c
000000e0: f74a 94be 6c70 1bbf 60ed 813d 2f8f 373e
000000f0: 0e80 b1bd a382 30bc afc5 c7bd f3ec 86be
00000100: 104c 3d3e 6971 4dbc 1f9e babd f7cf 743e
00000110: 7b0d 33be 0614 893e df59 6dbc fcf4 b33d
00000120: 0add 26be e0a5 b1be 050d 2c3e 7873 0ebe
00000130: e2fb 8a3e 8944 b1be bf4b c5be 909e 25bf
00000140: f3ba 31be 2d38 af3e f071 7ebf ca74 e4be
00000150: 6468 953d ca3c 7dbe 7cec 79bd 1264 59be
00000160: c37e c3bd e3ab c0be 1673 ddbe a2d9 a83e
00000170: 4cb2 8a3e 6759 173e 293d 37be fd34 16bf
00000180: 9bda aebe 40c5 eabb 447f fcbd 8ec4 313d
00000190: 5d89 a6be 3c63 a7bd 1fc7 373e 69bc 423e
000001a0: 0d70 263e db96 a53d 1283 e8be 070c 8fbc
000001b0: d38e 78be 105b 103d 9a93 3fbe 6317 063e
000001c0: 94f3 70be 7fa2 94be e1e7 093e b9c7 b83d
000001d0: 1d9b 273d b10e 19bd 1049 cdbc a006 9ebd
000001e0: 526f b9bd 0c4e 8d3e a3ef 1b3f 9d1c 7fbf
000001f0: ebad 9bbd 9c67 ee3d 3d44 d33e 68d4 b83e
00000200: e9bd 75be 045e 213d f8ac a93d 7467 733e
00000210: 0903 10bd 1619 dbbe eed7 153f 6cf8 73be
00000220: 7ad4 3e3d bdf1 26bf 404a 07bf 8b5d 753e
00000230: ee07 683c 9768 82be 8be9 79be 0992 15be
00000240: cc77 09be 996d d7be 5602 58be d3c9 68be
00000250: f9fe 4bbe 0158 943d 19f5 47be 615f 2cbe
00000260: 30a8 18be 52f9 1cbe 8ea3 ae3d c59a 5abe
00000270: f538 ff3d 7399 753d 2697 803d dd0c 7dbe
00000280: 65f7 1b3f 25c3 81be 3e56 373e 4246 1a3e
00000290: 7bac 81be adfe b83d f6b4 2abe a218 f9be
000002a0: fef4 45be 753c 3fbd 5264 8f3d 4268 083c
000002b0: 7376 9dbe 4207 863e f845 38be e6d4 333e
000002c0: a75d 21be 7772 debd c6da 20bd ca3f 813e
000002d0: 42ae edbb 2c21 2ebd c457 acbe a291 d0be
000002e0: e4ce 723d 00b4 5b3b 6842 993e fe41 f6bd
000002f0: ca6a 79bc e57d a5be 0f2e 763e 3042 3f3e
00000300: 29ed 0abe 5aec a1bc f4a0 263d c6ce d43d
00000310: 2a3b 323e d086 0b3e 5016 cfbe ae64 34bf
00000320: 0dd9 e5be 1a53 be3e 362f ee3e 03b7 c0be
00000330: 4310 b0be 5f8a e6be ccdb 89be 483c 4fbd
00000340: 6ea3 81bd d2c1 87bd 3c8f a7be 9f70 0c3f
00000350: 9dcb 82bd d62c 98be 2a28 be3e 442b 093e
00000360: aa1e a63e 5df4 d93d 00ca 98bc b835 b1bd
00000370: 6792 4cbe e19a 1e3e 16a4 f13e e764 19bb
00000380: 5089 113d c7a6 0cbe 6781 193e 242e c33e
00000390: 8bb8 b3bc cf17 22be 48b7 eebd 3b1f 343e
000003a0: 7438 d0be 48d0 bbbe 0e40 3fbe 00e6 8bbe
000003b0: d37a 95bd 6b3f 89be f117 e7be 069c 55bc
000003c0: 00ed 9c3b 7831 303d f4bf 5e3c 0aab 93be
000003d0: b113 e83e 5d3e 9e3e bf9b 983d 0b3b d3bd
000003e0: 7973 9d3e 4ef0 d63e ec6d f63c 80e2 573b
000003f0: f084 5f3e 9a73 8ebe eebb 173e 7ef7 223d
0.2842356 -0.08748618 0.074042715 -0.39173672 0.18429606 -0.3459106 -0.32838854 0.023296017
0.14980178 -0.10678367 0.08941701 0.19764477 0.21112503 0.5596188 -0.12303458 0.22626247
-0.1347474 0.24136856 0.2798163 -0.08457266 0.26504722 0.1699352 0.38602263 -0.23141564
-0.5895089 -0.1205918 0.13691042 0.13474862 -0.26853523 -0.03209021 -0.067573585 0.17439294
-0.18910997 0.039568435 0.14773631 1.6018766 -0.63053495 -0.72817713 0.35930502 -0.35925105
0.81783533 0.28187934 -0.13266213 0.14452559 -0.024124485 -0.043575253 0.32438874 0.123014756
-0.08292601 -0.2991684 -0.057982616 0.36050534 0.29108265 0.09732044 0.13876683 0.017949553
-0.28963444 -0.6071842 0.06344104 0.17925714 -0.086670026 -0.010773334 -0.09754502 -0.26352653
0.18486047 -0.012539246 -0.091121905 0.23907457 -0.17485611 0.2677309 -0.014486759 0.087869614
-0.16295257 -0.34696865 0.16801842 -0.13911235 0.27145296 -0.346226 -0.38534352 -0.6469507
-0.17356472 0.34222546 -0.99392605 -0.44620353 0.072953016 -0.2473022 -0.061016545 -0.2122958
-0.09545662 -0.3763114 -0.43251866 0.3297854 0.27089155 0.14780198 -0.17894424 -0.58674604
-0.34151158 -0.0071646273 -0.123289615 0.04340034 -0.32526675 -0.08173224 0.17947052 0.19017185
0.16253681 0.08085414 -0.454125 -0.01746179 -0.24273233 0.035243094 -0.1870865 0.13094859
-0.23530418 -0.29030225 0.13467361 0.09022469 0.040919412 -0.037367526 -0.025059253 -0.07716107
-0.09054436 0.27598608 0.6091253 -0.99653035 -0.076015316 0.11640856 0.41263 0.36099553
-0.23998226 0.0393963 0.08284944 0.23769933 -0.035159145 -0.42792577 0.5853261 -0.23825234
0.046589352 -0.65212613 -0.5284767 0.23961465 0.014162047 -0.2547042 -0.24405496 -0.14606489
-0.13424605 -0.42075804 -0.21094641 -0.2273324 -0.19921483 0.07243348 -0.19527091 -0.16833259
-0.14907908 -0.15329483 0.08527289 -0.21348102 0.124620356 0.059960794 0.06278829 -0.24711938
0.6092437 -0.25344196 0.17903993 0.15065864 -0.25326905 0.090329506 -0.16670594 -0.48651606
-0.19331738 -0.046688516 0.070015565 0.008325638 -0.30754432 0.26177412 -0.17995441 0.17561683
-0.15758382 -0.10861676 -0.03927114 0.2524398 -0.007253439 -0.042512104 -0.3366071 -0.4073611
0.059279338 0.0033524036 0.29933476 -0.12024306 -0.015223214 -0.32322612 0.24041007 0.18677592
-0.13567032 -0.019766022 0.04068084 0.103910014 0.17405382 0.13625646 -0.4044671 -0.70466125
-0.4489216 0.37172776 0.46520394 -0.37639627 -0.34387407 -0.45027444 -0.26925504 -0.050594598
-0.0633 -0.06628765 -0.32726467 0.54859346 -0.063864924 -0.29721707 0.37140018 0.13395411
0.3244527 0.10642312 -0.018651009 -0.08652824 -0.19977723 0.15488769 0.471955 -0.002340609
0.035531342 -0.13735496 0.1499077 0.3812114 -0.021938583 -0.15829395 -0.11656052 0.17590038
-0.4066807 -0.36682343 -0.18676779 -0.27323914 -0.072988175 -0.26806197 -0.45135453 -0.013037687
0.004788995 0.043015927 0.01359557 -0.2884143 0.45327523 0.30906954 0.07451581 -0.10313996
0.3075216 0.41980213 0.030081712 0.00329414 0.21828055 -0.27822572 0.14817783 0.03978681

bias f4 [64]
00000000: a777 dcbd ddcd 1dbe 712b f23d e4ab fdbe
00000010: 39a3 e3bd 3781 20be 5946 acbd 37d8 8dbe
00000020: c901 893e 0d05 093e 83c8 51bc b495 88be
00000030: 7dcd 153e d52b 71be a3d5 3b3e 543d 643d
00000040: 18c3 fbbd f329 1fbe c68a 5c3e 870c 9fbe
00000050: 110a b33e 0449 37be 7466 17bc c639 2f3e
00000060: 495f 853e 5bbd 36be fb9f 843d 2aa8 87be
00000070: 3a14 bebe b2b4 25be 924b 1f3e 758c bdbe
00000080: 1b86 6abe 95b7 c7bd 48e8 3dbe 7d0a 9bbd
00000090: f44d 66be e32d 61be 4bbf cabd f61b 173d
000000a0: 3379 8f3e f734 b13e 916b 4b3e 2d76 203e
000000b0: 6306 ccbd 48a6 1cbd 4a26 7f3e f3a3 5bbe
000000c0: efd3 4c3c e454 8a3e 5247 5d3e 78e3 8ebd
000000d0: 6c6b c53d 41b6 9e3e 930c a7bc fa1e 4c3d
000000e0: deba 2abe fba7 a53e 4e93 263e a5a4 913e
000000f0: 208e cd3c 2cb9 f0bd a675 8dbe bf22 a6bd
-0.107650094 -0.15410562 0.11824692 -0.49545205 -0.111151166 -0.15674292 -0.08411855 -0.2770402
0.26759174 0.13380833 -0.012804153 -0.26676714 0.14629169 -0.23551877 0.18343215 0.05572255
-0.122930706 -0.15543346 0.21537313 -0.31064245 0.34968618 -0.17898947 -0.009240735 0.17111883
0.2604926 -0.17845671 0.06475826 -0.26495486 -0.37124807 -0.16182211 0.15556172 -0.37021223
-0.2290272 -0.09751812 -0.1854564 -0.0757036 -0.22490674 -0.2199016 -0.098997675 0.0368919
0.28022155 0.3461072 0.19865252 0.1567008 -0.09962156 -0.038244516 0.2491695 -0.2144926
0.012501701 0.2701789 0.21609238 -0.0697698 0.0963963 0.30998424 -0.020391738 0.04983423
-0.16672847 0.3235472 0.1626713 0.28445926 0.025092185 -0.11754069 -0.2762882 -0.08112096

weight f4 [64, 64]
00000000: 27ae 06be e091 03bf 5595 c43d 9f5d 253e
00000010: f38f f6be 0fe0 933e 706a 1b3f 76f7 f2bb
00000020: 02a4 193e 0e8c 1d3e 3e3c c53e b404 89bd
00000030: fab1 62be ca39 da3e cff5 35be 5d22 f03e
00000040: 79a0 3e3f 1620 613e d37a 46bd 1162 353d
00000050: d195 40be 2d0b 903e 8894 e1be 5647 cebc
00000060: 487e 523e 3cbb 2d3e 1b3b cf3d 1d5d e9be
00000070: 4249 a43e f856 a43e 80a3 a93e 5668 733e
00000080: 9b29 42bd 604f 5fbe 9e1b 543f 8a8e 293b
00000090: 24dc a03e 6acc bf3c 6e75 e73c fba5 6c3e
000000a0: 6d5a 8abe 66b4 7bbe bd12 8b3e 65ed 1fbe
000000b0: 6c58 8fbc 867b 4fbe 58ef 40be 5f29 45bd
000000c0: b05e a0be 6ea6 d83e 98a0 be3d e3f4 b83e
000000d0: 9f80 e0be 8922 cebe 6985 8abe d2ed d53d
000000e0: 3d6e fc3c ca01 2fbe b5d2 8c3e f23f 2bbe
000000f0: 7f7c 0d3f 9818 e83e d1d9 323f 828e 693f
00000100: 688d cfbd 9899 b93c 3cb5 ca3d 2ef9 273d
00000110: eb75 bd3d ce6a 77be 9068 28bd a39f afbc
00000120: cc79 25be 0716 74bd fd03 1abe 5534 363e
00000130: f388 03be e6f6 0cbe 727a c03d 7cf0 1bbd
00000140: cd36 67be f7d0 b23c bbfb fcbc d8b8 24bd
00000150: 65bd 323d a225 5d3d 8e2a f93c 49e6 a3bd
00000160: 9497 89bd 5134 9bbb 69b8 133c d626 373d
00000170: b55c d93c d2b8 f8bc 2d1f 1bbe 3af9 cbbd
00000180: d1ba 3abd 6f94 da3c f65b 17be 08f0 ed3d
00000190: 06a5 37bc eecf 2d3e 1ef0 8bbd 7adb a43d
000001a0: 9e07 93bc 3521 93bc 79fb 19bd e98c 883d
000001b0: 72d2 203e 463d 64bd fcee 5c3d 4509 60bd
000001c0: eb64 54bd 77d3 f9bd feb2 abbd 6af9 273e
000001d0: 6779 b7bd 38d8 77bd 0f90 a2bd 1074 f9bc
000001e0: 0594 003e c4c2 c4bd a295 a5bd 120b 793d
000001f0: efda 30bc 4b26 f0bd 8b52 b1bc 8b32 fcbd
00000200: 63f3 ca3d 30fb 42bd 5c48 523e 0ed0 6dbe
00000210: 6e7c 85be cb00 163e 5c0a af3c e3ef d9be
00000220: f049 a93d f400 5c3e 5079 03be 2e68 7c3d
00000230: b839 cfbd e2de 81be 626a 743d b274 213e
00000240: 6ff3 f7bd 5226 debd d1b9 f33c 943e e8bd
00000250: be18 39bd 5177 81bc 7ce5 86bc 628a ddbd
00000260: a266 1f3e ab3d 27bf d328 9dbc a736 263d
00000270: 843a 6ebe 87ff f7be 9e67 7f3d 8d3a 44be
00000280: 1dbe e43d 68ff 4fbd 5a17 93ba 3b9c e6bd
00000290: ca10 c63d 1dd2 00be c53c 763e 200a ee3c
000002a0: 3c61 233e 4c1b 673e c43d c2bc 46fb 61be
000002b0: c308 a03c 8f5d a7bd f51b 503e 7d91 44be
000002c0: 3c20 85bd 0f4f 79be d453 903d c62e 1e3d
000002d0: 3564 ea3e feb2 443e d98a 3d3d bb48 513e
000002e0: 8e31 2dbe 3a94 c6bd 7e7c 9a3d 9ebf 6ebd
000002f0: cf99 febd a148 a5bd 0b8e 21be 5aab 53bd
00000300: 28fe a13d 4478 fabd c284 efbd ae2b 3b3d
00000310: 3ed0 dabb ed4e fd3d 3da3 833e 6aa6 04be
00000320: b679 083e e49d 1bbd 423c 9cbd 3b72 e13d
00000330: 70fa 483d 4584 273e f992 163d 5e32 9d3d
00000340: c5ff e13d 4707 7a3d e280 91bd 291a 90bd
00000350: c284 70be c52f 5b3e 9e18 90be fad5 69bc
00000360: f623 8b3d d276 733d c1c6 4a3e 0433 c73c
00000370: 7182 833d ffbb df3d 3a6a aa3d 2653 00bc
00000380: 79bc 223d 4f71 15be fde8 8e3d 6d4f a93d
00000390: 06dd e43d 09c2 9d3d cb90 18bc 3826 4a3e
000003a0: eaa4 abbd a2b9 20bd cb98 5e3e 51f0 183c
000003b0: 4d99 14be 1789 4f3c ab81 69bd ee2e 79bd
000003c0: cce9 233d 7b57 113c 3489 093e 0b96 033e
000003d0: 8a46 793d 4c4f 80bd d1f9 d6bc 73db 1c3e
000003e0: b06f 0a3e 9088 32be a1b8 813e b8b2 fbbd
000003f0: b7a4 563d 42ae 9c3d 35aa 683e b441 c93e
-0.13152371 -0.5139446 0.09598795 0.16148995 -0.481567 0.2888188 0.60709286 -0.0074147535
0.1500397 0.15385458 0.38522524 -0.0669035 -0.22138205 0.42622215 -0.1776955 0.46901217
0.7446361 0.21984896 -0.048456978 0.044282977 -0.1880715 0.28133526 -0.44058633 -0.0251805
0.20555985 0.16965955 0.10118695 -0.45578852 0.3208714 0.32097602 0.33132553 0.2377027
-0.04740296 -0.21807623 0.8285464 0.0025872313 0.31417954 0.023412902 0.028254237 0.23110192
-0.27022114 -0.24580535 0.27162734 -0.15617903 -0.017498218 -0.20261964 -0.18841302 -0.048135158
-0.3132224 0.42314476 0.093079746 0.36124334 -0.4384813 -0.40260723 -0.2705491 0.10445751
0.030814284 -0.17090526 0.27504507 -0.16723612 0.5526809 0.45331264 0.6986361 0.91233075
-0.10134393 0.022656247 0.09897849 0.04100912 0.09251007 -0.24161837 -0.041115344 -0.021438425
-0.16159743 -0.05959132 -0.15040584 0.177934 -0.1284521 -0.1376606 0.093983546 -0.03807114
-0.22579499 0.021828158 -0.030881753 -0.040215343 0.043637652 0.053990968 0.0304158 -0.08002908
-0.06718364 -0.004736461 0.009016135 0.04471477 0.026533464 -0.030361567 -0.15148611 -0.099596456
-0.04558832 0.026682107 -0.14781174 0.11618048 -0.011208778 0.1697385 -0.06832908 0.08049674
-0.017947968 -0.01796017 -0.03759334 0.066675015 0.15705279 -0.055722497 0.05393885 -0.05469634
-0.051854055 -0.12198537 -0.083837494 0.16403738 -0.089587025 -0.060508937 -0.07937633 -0.03045085
0.12556465 -0.09607461 -0.08085181 0.060801573 -0.010794385 -0.11726054 -0.021645805 -0.12314328
0.099097036 -0.047602832 0.20535415 -0.23223898 -0.26071495 0.1464874 0.021367244 -0.42565832
0.082660556 0.21484739 -0.12839246 0.06162279 -0.10118431 -0.2536536 0.059671767 0.15767172
-0.12106978 -0.10847153 0.02975169 -0.11340061 -0.04518961 -0.015803965 -0.016466849 -0.1081741
0.15566495 -0.6532847 -0.019184506 0.040579464 -0.2326451 -0.4843714 0.062354676 -0.1916296
0.11169074 -0.050780684 -0.0011222169 -0.11260267 0.09671171 -0.12580152 0.24046619 0.029057562
0.1595506 0.22569007 -0.023711093 -0.2206851 0.019535428 -0.08172142 0.20323165 -0.19196124
-0.06500289 -0.24346565 0.07047239 0.038618825 0.45779577 0.19208905 0.046274994 0.204379
-0.16913435 -0.09696241 0.07543276 -0.05828821 -0.124316804 -0.080704935 -0.15776841 -0.051677085
0.079098046 -0.1222997 -0.116952434 0.045695953 -0.0066776564 0.123685695 0.25710478 -0.12954107
0.13327679 -0.037992373 -0.07628681 0.11008116 0.04906696 0.1635905 0.036761258 0.076756224
0.11035112 0.061042096 -0.071046606 -0.0703624 -0.23488143 0.21404941 -0.2814378 -0.014272207
0.067939684 0.059439488 0.19802381 0.024316318 0.06421364 0.10924529 0.08321042 -0.007832324
0.039730523 -0.14594005 0.06978033 0.082671024 0.111749694 0.07703025 -0.009311865 0.19741142
-0.08381064 -0.039239533 0.21737973 0.00933464 -0.14511605 0.012666962 -0.057008427 -0.06083577
0.040017888 0.008870955 0.13431245 0.12850206 0.060858287 -0.06265125 -0.026242169 0.15318088
0.13519168 -0.17434907 0.25336173 -0.12289947 0.052403178 0.076504245 0.22721179 0.3930794

bias f4 [64]
00000000: f96b 1abe b9e8 5bbc cbe9 853b 361a 20be
00000010: b14a f8bd 13d4 8dbd 024f 95bd 2928 3dbd
00000020: bb83 2fbd 0db6 eebd 3bf9 ddbd 508b f2bd
00000030: fcd8 843d ec33 04be be8e a53d 0025 393e
00000040: b6f9 09be 0f2c c1bc e6e5 b1ba 2675 913d
00000050: ae37 2dbd 0111 cbba d289 7dbc 4808 d9bb
00000060: a065 c0bc 42fd 483c 63a8 37bc af02 ba3d
00000070: 3393 233d 6d4f 04be 48b5 0bbe 3ae3 013e
00000080: df5f 203b 4057 60bc e4e9 0cbe d785 a2bd
00000090: bb08 f93d 3a91 14be af42 8d3d 26e8 edbc
000000a0: 1609 1e3e 5d5d 393d 990b 263d cb2a cabd
000000b0: 3a76 233e 2831 163e b9f6 96bd 7818 8b3d
000000c0: 169e e13d 53ae 053e 5549 883c 265f f9bb
000000d0: a5b4 4b3e a0c3 febd c197 04bd c19d f43d
000000e0: f565 d63c c050 203e 2a50 1dbd 2725 d7bd
000000f0: b962 63bd ee3f a83d 464c 833d 5201 8dbd
-0.15080251 -0.013422185 0.004086708 -0.15634999 -0.12123621 -0.069252156 -0.0729046 -0.046180878
-0.042850237 -0.11655817 -0.108385526 -0.11842978 0.06486699 -0.12910432 0.080838665 0.1808052
-0.13474163 -0.02358058 -0.0013572543 0.071024224 -0.04228943 -0.0015492738 -0.015474753 -0.0066233017
-0.023485959 0.012267413 -0.01120958 0.09082543 0.039935302 -0.12920924 -0.13643372 0.12684336
0.0024471206 -0.013692677 -0.13761097 -0.07935684 0.12159868 -0.14508525 0.068974845 -0.029041361
0.15433154 0.045255054 0.040538404 -0.09871443 0.15963069 0.14667189 -0.07371277 0.067917764
0.110164806 0.1305478 0.01663653 -0.0076102195 0.19893129 -0.12439656 -0.032371286 0.11944152
0.026171664 0.15655804 -0.03840653 -0.10505133 -0.05551407 0.082153186 0.064110324 -0.068850175

weight f4 [1, 64]
00000000: 25d8 5a3e 794f 8fbe f53e 473e 426c 083e
00000010: ba7b eebd 06ac 12be 2c6f babe 3e4c a9be
00000020: eb50 61be fa9c 51be 730a 7e3e a500 86be
00000030: 4d78 9ebe a9c8 fbbd 6657 d0be cb8d 84be
00000040: 441a 77be 40bb 81be 0684 d93e 9571 933e
00000050: 49d6 723e 4322 913e 4f3d 93be abee 58be
00000060: df79 55be ab6c 443e c315 44be 1546 893e
00000070: ff7d 81be 6b6e 18be f04c edbe 5aed 92be
00000080: cde5 4b3e d03f 283e 03b0 9abe e00b 18be
00000090: 571c 2fbe 4edf 9f3d 61db 543e 16c2 92be
000000a0: 43e5 8c3e 44bd 42be ffaf 4fbe da90 823e
000000b0: 6039 87be 0c57 4fbe d9e2 9ebd 2b2b 56be
000000c0: 8138 7a3e 9c9b b83e 15f3 0abe 23db 80be
000000d0: a46f 86be bc23 0f3e e9b6 59be b79f 2a3e
000000e0: fb12 713e e882 413e 9eac f03d 8694 82be
000000f0: 0e20 89be 2d25 973e 79ab 34be 2b9e 073e
0.21371515 -0.2799032 0.1945761 0.13322547 -0.11644693 -0.14323434 -0.36412942 -0.3306598
-0.22003524 -0.20470038 0.24808674 -0.26172367 -0.30951157 -0.12294132 -0.4069168 -0.2588943
-0.24131113 -0.25338173 0.42483538 0.28797594 0.23714556 0.28346452 -0.28757712 -0.21184795
-0.20847271 0.19182079 -0.19148926 0.2681128 -0.2529144 -0.14885871 -0.4634776 -0.2869671
0.19911881 0.16430593 -0.3021241 -0.1484828 -0.17100655 0.07806264 0.20786811 -0.286637
0.27518663 -0.19017512 -0.20281981 0.25501138 -0.2641096 -0.2024805 -0.077581115 -0.20914905
0.24435617 0.3605622 -0.13569291 -0.25167188 -0.2625705 0.13978475 -0.21261181 0.16662489
0.23542397 0.18897593 0.11751674 -0.2550394 -0.26782268 0.2952055 -0.17643537 0.1324393
