DDPG/data/exp/InvertedDoublePendulum/2022-07-06-11-42-28_critic.pt (torch, 23319 bytes, 5 tensors)

weight f4 [64, 12]
0.08581595 0.3044142 0.089618884 0.3777148 0.64512694 -0.0035923095 -0.0942753 0.16234426
-0.025691718 -0.06536095 -0.017962366 -0.037158933 0.15067756 0.54630303 0.10911909 0.27517813
0.0030699074 0.53150135 0.91432154 -0.06302744 -0.45107958 0.17527103 0.008850098 -0.27864534
0.115708426 -0.24366088 0.60442907 0.31525388 0.32515758 -0.13647266 -0.04442211 0.50410324
-0.06638034 0.2860465 -0.22169971 0.2615585 0.11072624 0.3550257 -0.039674245 0.3270317
0.36953026 0.007996559 0.28416514 0.23483548 -0.19531079 -0.059067473 -0.27513048 0.16214842
0.012161216 0.2863766 1.107406 0.30701146 -0.078134604 0.15590747 0.6784082 0.89013827
0.009324742 0.14548224 0.099441946 0.29656905 -0.06879912 -0.21705583 0.38445613 0.19743605
0.52759343 -0.17751564 0.33799973 0.20388916 -0.33782935 0.14685464 0.2642852 -0.101897284
-0.084205925 0.08196634 0.03365633 0.51562935 0.42944574 0.26880702 0.12481647 0.12957366
0.088915326 -0.13653743 0.24711621 -0.042482257 0.044594612 0.0060253763 -0.007200318 0.5628689
0.4034102 0.025745982 0.04897604 0.16562752 -0.41375855 -0.21297869 0.1808163 -0.21694966
-0.003830825 0.046723396 0.9383878 0.27397949 0.2586085 -0.19440453 -0.2456516 0.5426164
0.15493605 0.06999874 0.2549972 0.50691605 -0.041191332 0.34833384 0.25262833 0.19973682
0.5124625 0.23276147 -0.22359005 -0.21737179 0.17523187 -0.039558113 -0.07216644 0.08014169
0.19042347 0.29547608 -0.75651944 -0.33370072 -0.44955 0.69619614 0.56028724 -0.43852952
-0.00321703 -0.16832787 -0.060980573 -0.23136173 0.02602288 0.23557158 -0.06879724 -0.07617504
0.14385971 -0.14205228 0.110047236 0.022878189 -0.33363396 -0.17547733 0.22423863 -0.449548
-0.0557152 -0.07392162 0.829608 0.098090045 -0.18684855 -0.20301707 0.23412654 0.42033643
0.14385766 -0.23450914 -0.09122506 -0.10835932 0.007173231 0.056039236 1.3618457 -0.21284223
-0.21209563 -0.1627587 0.14010686 0.9243957 -0.093384214 -0.19194493 -0.0648471 0.3178312
-0.02697831 -0.23731448 -0.665814 -0.011376373 -0.10596799 -0.35153824 -1.3596791 -1.054943
-0.15176614 -0.16200587 0.06496656 -0.11270813 0.06154954 0.43771937 0.8651379 0.35244477
-0.06269222 0.34415406 1.1069679 0.8669512 -0.55306995 0.28723305 0.06483501 0.12006898
-0.14533497 -0.19588 0.10915405 0.45161262 0.3528068 -0.09614221 0.42070484 0.123410635
-0.32733777 0.08386126 0.1811203 -0.3884066 -0.028273256 -0.26774418 0.89360434 -0.12405744
-0.1782103 0.27609226 -0.012562245 -0.12874582 -0.45211458 0.019793361 -0.11658037 0.09176737
-0.0043724854 0.028569257 0.32974884 0.3866995 0.5877358 0.08789247 0.0061637796 0.1747859
-0.047469053 0.052211113 -0.2550586 0.2782942 0.117033236 0.042992815 0.23203595 0.44440594
0.6092101 0.101796724 -0.046644077 0.1901145 -0.3372111 -0.13373682 0.0830363 0.12682554
0.022048885 -0.78812337 -0.61543995 -0.20610943 -0.23219937 -0.42716894 -0.45646405 -0.21891414
-0.2820468 -0.044372216 0.27344197 -0.16989635 -0.030518563 0.007473713 -0.10226334 0.3302294
00000000: 46c0 af3d 2edc 9b3e 1b8a b73d d663 c13e
00000010: 0a27 253f f46c 6bbb 6913 c1bd 933d 263e
00000020: 7077 d2bc f6db 85bd d025 93bc f733 18bd
00000030: 384b 1a3e 84da 0b3f d479 df3d 26e4 8c3e
00000040: 8030 493b 7910 083f fa10 6a3f 8814 81bd
00000050: e7f3 e6be 407a 333e 0000 113c 9aaa 8ebe
00000060: 8af8 ec3d 3d82 79be ddbb 1a3f f568 a13e
00000070: 0e7b a63e 7dbf 0bbe f5f3 35bd e90c 013f
00000080: 6af2 87bd b074 923e 4005 63be ffea 853e
00000090: 70c4 e23d eec5 b53e 7681 22bd b370 a73e
000000a0: 1233 bd3e 0004 033c 187e 913e b678 703e
000000b0: 8dff 47be bcf0 71bd e7dd 8cbe 3c0a 263e
000000c0: d63f 473c f49f 923e 7bbf 8d3f 9b30 9d3e
000000d0: 0905 a0bd 35a6 1f3e 29ac 2d3f 1ae0 633f
000000e0: cdc6 183c 4cf9 143e 38a8 cb3d e6d7 973e
000000f0: 8ee6 8cbd e243 5ebe 6fd7 c43e ad2c 4a3e
00000100: 5d10 073f a9c6 35be 4d0e ad3e 52c8 503e
00000110: f8f7 acbe 1061 163e 6450 873e 86af d0bd
00000120: 2874 acbd f8dd a73d 38db 093d 4900 043f
00000130: 50e0 db3e 13a1 893e c79f ff3d f5ae 043e
00000140: 3d19 b63d 78d0 0bbe 080c 7d3e e001 2ebd
00000150: d7a8 363d 8570 c53b a5f0 ebbb 2d18 103f
00000160: c88b ce3e 3de9 d23c 1a9b 483d 439a 293e
00000170: 29d8 d3be 1617 5abe e827 393e 0d28 5ebe
00000180: 940e 7bbb 0861 3f3d 2f3a 703f 0a47 8c3e
00000190: 5568 843e fb11 47be 188c 7bbe e9e8 0a3f
000001a0: 8ea7 1e3e 805b 8f3d fe8e 823e 40c5 013f
000001b0: 3eb8 28bd d058 b23e 8058 813e cf87 4c3e
000001c0: be30 033f 0659 6e3e caf4 64be b696 5ebe
000001d0: fc6f 333e b007 22bd 00cc 93bd 5421 a43d
000001e0: 5ffe 423e a448 973e 42ab 41bf d2da aabe
000001f0: 6b2b e6be e939 323f fc6e 0f3f f186 e0be
00000200: cfd4 52bb 245e 2cbe c4c6 79bd 17ea 6cbe
00000210: ef2d d53c ad39 713e 91e5 8cbd a901 9cbd
00000220: f64f 133e 2776 11be 7260 e13d 0a6b bb3c
00000230: 12d2 aabe 54b0 33be d09e 653e 282b e6be
00000240: 9f35 64bd 3864 97bd 3161 543f 6fe3 c83d
00000250: 3a55 3fbe b5e3 4fbe debe 6f3e 5636 d73e
00000260: 6c4f 133e 2a23 70be 34d4 babd 7eeb ddbd
00000270: 6c0d eb3b 6689 653d f650 ae3f 50f3 59be
00000280: 992f 59be 37aa 26be 2c78 0f3e 32a5 6c3f
00000290: 3940 bfbd 368d 44be 8ece 84bd c5ba a23e
000002a0: 9e01 ddbc 9102 73be c972 2abf f763 3abc
000002b0: bf05 d9bd d2fc b3be f709 aebf 5f08 87bf
000002c0: 9568 1bbe dee4 25be 300d 853d 85d3 e6bd
000002d0: 5f1b 7c3d c11c e03e ad79 5d3f a473 b43e
000002e0: c764 80bd f634 b03e 20b1 8d3f 84f0 5d3f
000002f0: fe95 0dbf 3610 933e 38c8 843d bae6 f53d
00000300: b1d2 14be c494 48be 298c df3d c539 e73e
00000310: 18a3 b43e 35e6 c4bd a066 d73e b7be fc3d
00000320: d198 a7be 74bf ab3d 9a77 393e 3bdd c6be
00000330: 519d e7bc c415 89be 41c3 643f d411 febd
00000340: c37c 36be f75b 8d3e e0d1 4dbc f2d5 03be
00000350: 907b e7be b025 a23c b0c1 eebd 88f0 bb3d
00000360: 1147 8fbb 130a ea3c d7d4 a83e 7afd c53e
00000370: da75 163f f800 b43d 88f9 c93b 13fb 323e
00000380: e96e 42bd 52db 553d 0a97 82be 947c 8e3e
00000390: 1faf ef3d 3c19 303d d59a 6d3e 2d89 e33e
000003a0: 31f5 1b3f cd7a d03d dc0d 3fbd 60ad 423e
000003b0: efa6 acbe 4ef2 08be f00e aa3d 8ede 013e
000003c0: dd9f b43c 74c2 49bf 798d 1dbf 5a0e 53be
000003d0: acc5 6dbe e3b5 dabe a8b5 e9be 072b 60be
000003e0: 7068 90be a4bf 35bd 9600 8c3e 4ff9 2dbe
000003f0: 1102 fabc 0ce6 f43b 716f d1bd d413 a93e

bias f4 [64]
0.10634633 0.25459942 0.2661946 0.32931444 0.08750615 0.4127192 0.1860273 0.15049091
-0.035581723 0.02780078 -0.25066397 0.555431 0.509036 -0.33432996 0.2206424 0.030805884
0.3929457 0.3698515 0.018817639 0.3841514 -0.041354433 0.23850383 -0.104008265 0.37650543
0.09684773 0.11367495 0.30299696 0.131479 -0.0778715 -0.013360858 0.45862502 0.4498061
0.33397657 0.24288452 0.22371745 0.34578592 0.3566293 0.14462534 -0.13516481 0.30427507
-0.06471423 0.01083025 0.29801053 0.04791036 0.030969972 0.021427708 0.07047001 -0.08313943
0.3152859 0.06746319 0.16889314 0.23918267 -0.13646965 -0.18669997 0.42978153 0.276412
0.1491103 0.50176543 0.27476197 -0.19334449 0.04432147 0.4841067 0.1593592 0.22250174
00000000: 1bcc d93d db5a 823e a94a 883e e79b a83e
00000010: 6d36 b33d ee4f d33e f17d 3e3e 4a1a 1a3e
00000020: 24be 11bd 76be e33c 0757 80be ba30 0e3f
00000030: 2f50 023f 4c2d abbe 15f0 613e 9f5c fc3c
00000040: 2e30 c93e 2d5d bd3e 7327 9a3c 7eaf c43e
00000050: 4463 29bd 593a 743e 4902 d5bd 52c5 c03e
00000060: 1a58 c63d 6ace e83d 6b22 9b3e 6ea2 063e
00000070: 187b 9fbd 80e7 5abc e6d0 ea3e fc4c e63e
00000080: fafe aa3e b8b6 783e 3016 653e da0a b13e
00000090: 1e98 b63e aa18 143e a568 0abe f1c9 9b3e
000000a0: e588 84bd 5c71 313c d694 983e a73d 443d
000000b0: bdb4 fd3c 2989 af3c 9552 903d 0145 aabd
000000c0: 276d a13e 242a 8a3d 53f2 2c3e 4dec 743e
000000d0: b3be 0bbe 472e 3fbe 530c dc3e e085 8d3e
000000e0: 5fb0 183e b373 003f 9aad 8c3e 19fc 45be
000000f0: 6e8a 353d d5dc f73e 0f2f 233e 7fd7 633e

weight f4 [64, 64]
0.20665315 -0.66542315 0.25094044 0.27037272 -2.1692054 0.21392892 0.37042615 0.047121458
-0.8778219 0.41086274 -1.5399088 0.029044876 0.071863905 -1.9199616 -1.7790589 -2.8175006
0.0660303 -0.07124628 0.33547348 0.31484586 -0.7257449 0.34172624 -0.67742825 -1.7763298
0.37782297 0.3355522 0.17678341 0.043168776 -2.774504 -1.6295878 0.35341838 0.060430318
0.33781847 0.28757954 0.09453163 0.13047123 -0.67395425 -0.9481578 -0.42712128 0.2514197
-1.3043497 -1.7008227 -0.22685339 0.17115733 -0.10297033 0.21912755 -0.022224793 -2.1304026
0.2934929 -2.5374088 -0.5874057 0.21446294 0.009981316 -2.193311 -0.16193223 0.1463557
0.1437495 0.20730886 -0.06699556 -2.3849273 0.24101393 -0.4003894 0.22437409 0.076551825
0.20548423 -0.82751673 0.1587545 0.15549766 -2.2342937 0.19520773 0.11608517 0.14448623
-0.8817415 0.24040663 -1.42069 0.21498087 0.2792923 -2.3180285 -1.901311 -2.7130268
0.10130163 0.12740898 0.29062173 0.3556879 -0.12956901 0.18850355 -0.86736226 -1.5304338
0.15039016 0.3425869 0.24065797 0.2604621 -2.6378868 -1.4804786 0.15895236 0.17560159
0.17146213 0.16794467 0.04139084 0.20411387 -0.6520119 -1.026877 -0.5528471 0.22852752
-0.81587297 -1.3791939 -0.35195798 0.35776943 0.016132304 0.10281658 -0.105169915 -2.0568268
0.20634048 -2.8346336 -0.41586202 0.24877773 -0.0045651076 -2.2711494 -0.18550313 0.08754605
0.17050393 0.2919672 0.048588622 -2.4936678 0.37480336 -0.45512894 0.3025937 0.17773004
0.040372677 0.13867721 0.06801947 0.060886074 0.34373862 0.10792794 0.0949272 -0.06657385
0.1054846 -0.07482062 0.11461807 -0.2070947 -0.42260364 0.33447045 0.057348743 -0.0033933378
-0.016661065 0.028011559 0.17001237 0.16023831 -0.007162038 0.122698635 -0.23603752 0.18066427
0.14014395 0.08520353 0.01632472 0.029454507 0.44181147 0.055646643 -0.2695283 -0.15462254
0.041001085 -0.049219795 0.21388061 -0.26994687 -0.059977874 -0.0207819 -0.040158607 -0.02100913
0.01077834 0.23192142 -0.30589092 0.12727574 0.16996299 -0.12643266 0.17516221 0.55649537
0.09154248 0.116997905 -0.17720555 0.04396255 0.072005786 -0.01091879 -0.1164937 -0.042549714
0.11253327 -0.12648128 0.09372179 0.19815616 0.07349854 -0.119175285 -0.07883317 0.0028108677
0.28696725 -0.82681483 0.2865703 0.23643453 -2.3781416 0.13192494 0.1693954 0.14882821
-1.0587397 0.39240852 -1.4008368 0.15644494 0.10694854 -2.027188 -2.032292 -2.7880154
0.31664386 0.22579263 0.2118449 0.20117028 -0.13408925 0.1579876 -0.76702374 -1.678089
0.13221815 0.2330591 0.258745 0.25334248 -2.8789525 -1.6330696 0.19071849 0.2843122
0.113481015 0.22427987 0.13279349 0.08156692 -0.77304995 -1.0056318 -0.4638392 0.22760227
-1.1890268 -1.5814954 -0.26487842 0.17362526 -0.0060983524 0.2710924 -0.006008842 -2.2771816
0.3037207 -3.001458 -0.41775283 0.30874 0.052335426 -2.1702173 -0.24280411 0.18106578
0.1522194 0.13365842 0.12008289 -2.4473672 0.3839671 -0.5529798 0.23541103 0.25132844
00000000: e29c 533e 2c59 2abf 447b 803e 4b6e 8a3e
00000010: 43d4 0ac0 2f10 5b3e 7fa8 bd3e 6e02 413d
00000020: f0b8 60bf 9a5c d23e bb1b c5bf 85ef ed3c
00000030: 622d 933d 4dc1 f5bf 34b8 e3bf ee51 34c0
00000040: e53a 873d 92e9 91bd 2ec3 ab3e 7a33 a13e
00000050: 6bca 39bf bef6 ae3e f06b 2dbf c65e e3bf
00000060: 0372 c13e 7fcd ab3e b606 353e bed1 303d
00000070: 7991 31c0 5596 d0bf 41f3 b43e c885 773d
00000080: 8bf6 ac3e a03d 933e cd99 c13d 409a 053e
00000090: 4488 2cbf 78ba 72bf a4af dabe 15ba 803e
000000a0: eef4 a6bf 8fb4 d9bf 414c 68be de43 2f3e
000000b0: 1ce2 d2bd f962 603e c510 b6bc 8458 08c0
000000c0: b444 963e e864 22c0 3860 16bf 2c9c 5b3e
000000d0: ac88 233c 355f 0cc0 90d1 25be 45de 153e
000000e0: 1233 133e c648 543e f834 89bd a6a2 18c0
000000f0: 5bcc 763e d7ff ccbe 52c2 653e 34c7 9c3d
00000100: 756a 523e 23d8 53bf 8a90 223e c73a 1f3e
00000110: abfe 0ec0 89e4 473e 10be ed3d 33f4 133e
00000120: d0b9 61bf 282d 763e 2bd9 b5bf f223 5c3e
00000130: 66ff 8e3e 945a 14c0 295e f3bf 3ba2 2dc0
00000140: 3b77 cf3d 8077 023e 5fcc 943e b91c b63e
00000150: bdad 04be 1307 413e 740b 5ebf 41e5 c3bf
00000160: e1ff 193e 8d67 af3e 0b6f 763e 4a5b 853e
00000170: 23d3 28c0 5380 bdbf 68c4 223e e7d0 333e
00000180: c593 2f3e b0f9 2b3e 7189 293d 3a03 513e
00000190: 40ea 26bf b570 83bf 6387 0dbf 1e03 6a3e
000001a0: 0ddd 50bf 6d89 b0bf d633 b4be 8e2d b73e
000001b0: e527 843c 8091 d23d 5363 d7bd 0da3 03c0
000001c0: eb4a 533e a36a 35c0 deeb d4be 97bf 7e3e
000001d0: e696 95bb 835a 11c0 88f4 3dbe 584b b33d
000001e0: 9598 2e3e ba7c 953e dd04 473d 4198 1fc0
000001f0: 3ae6 bf3e a906 e9be 90ed 9a3e ddfe 353e
00000200: d25d 253d 6601 0e3e cb4d 8b3d ad63 793d
00000210: 82fe af3e 5309 dd3d 3169 c23d df57 88bd
00000220: 4f08 d83d 8e3b 99bd e1bc ea3d a210 54be
00000230: 815f d8be b63f ab3e 84e6 6a3d c362 5ebb
00000240: c97c 88bc 7f78 e53c b917 2e3e 8315 243e
00000250: 87af eabb 6c49 fb3d d2b3 71be 0e00 393e
00000260: e581 0f3e 307f ae3d 6bbb 853c 944a f13c
00000270: 1d35 e23e bced 633d 9dff 89be 5f55 1ebe
00000280: c1f0 273d b29a 49bd 8503 5b3e 7a36 8abe
00000290: 5cab 75bd ce3e aabc 5a7d 24bd 571b acbc
000002a0: a297 303c cf7c 6d3e bc9d 9cbe 9254 023e
000002b0: c70a 2e3e 9077 01be b95d 333e 7b76 0e3f
000002c0: a07a bb3d 999c ef3d 5f75 35be 1312 343d
000002d0: c577 933d b9e4 32bc 4094 eebd 9c48 2ebd
000002e0: d877 e63d 4f84 01be 36f1 bf3d 73e9 4a3e
000002f0: 6786 963d 2c12 f4bd 4973 a1bd 8936 383b
00000300: 5fed 923e 23aa 53bf 58b9 923e e51b 723e
00000310: 7933 18c0 5517 073e fd75 2d3e 6c66 183e
00000320: c884 87bf c5e9 c83e 9f4e b3bf 1a33 203e
00000330: d607 db3d 73bd 01c0 1211 02c0 d86e 32c0
00000340: 251f a23e 2f36 673e dfed 583e 95ff 4d3e
00000350: b14e 09be 80c7 213e ab5b 44bf 9fcb d6bf
00000360: 3264 073e 0ba7 6e3e 3a7a 843e 1bb6 813e
00000370: c240 38c0 6d08 d1bf b54b 433e 5e91 913e
00000380: bc68 e83d 9fa9 653e 04fb 073e 8f0c a73d
00000390: 9ae6 45bf 8bb8 80bf 557c edbe 9210 693e
000003a0: 0832 98bf 716e cabf 259e 87be d2ca 313e
000003b0: b0d4 c7bb a0cc 8a3e d2e5 c4bb 58bd 11c0
000003c0: 4881 9b3e e317 40c0 b3e3 d5be 2b13 9e3e
000003d0: ac5d 563d d7e4 0ac0 a4a1 78be 4f69 393e
000003e0: 67df 1b3e c1dd 083e 05ee f53d aaa1 1cc0
000003f0: 5697 c43e 1690 0dbf 970f 713e 1fae 803e

bias f4 [64]
0.09917203 0.2387287 -0.024484916 0.18079564 0.09288292 0.10941627 -0.06733507 0.33451313
0.043146245 -0.18297657 0.33059725 -0.16457607 0.16661398 0.058879327 0.27975935 0.07599237
0.19636932 0.13073614 0.0037789764 0.09815909 0.11396733 0.10049903 0.14154315 0.13007914
0.033427544 0.08751938 0.38132018 -0.0062400484 -0.14411284 0.30299345 0.13764967 0.11028935
0.22621989 0.114775084 -0.027017415 0.32750967 0.055858474 0.19029267 0.1960717 0.1707546
0.30174896 0.024505556 0.14737168 0.24138059 -0.01947539 0.15516803 0.08389381 0.06625124
0.008103332 0.06904159 0.07838211 0.21385346 0.16885391 0.016169075 0.05155153 -0.16620453
0.221805 0.04884266 0.25140455 0.07519117 -0.07735016 0.27376845 0.02721514 0.045978565
00000000: b51a cb3d 4c75 743e 9794 c8bc 7e22 393e
00000010: 6639 be3d a315 e03d f8e6 89bd 4e45 ab3e
00000020: 1eba 303d 365e 3bbe 0b44 a93e a186 28be
00000030: db9c 2a3e 732b 713d 9e3c 8f3e e3a1 9b3d
00000040: 0a15 493e b2df 053e b4a8 773b a207 c93d
00000050: b467 e93d 6fd2 cd3d b0f0 103e 7733 053e
00000060: 52eb 083d 5c3d b33d 663c c33e 5279 ccbb
00000070: 5192 13be f521 9b3e 09f4 0c3e 62df e13d
00000080: 30a6 673e 330f eb3d a053 ddbc 59af a73e
00000090: dbcb 643d 15dc 423e 05c7 483e 4bda 2e3e
000000a0: d77e 9a3e e0bf c83c 9ae8 163e 792c 773e
000000b0: da8a 9fbc 5ee4 1e3e 85d0 ab3d bbae 873d
000000c0: d6c3 043c ad65 8d3d cd86 a03d 67fc 5a3e
000000d0: 0ae8 2c3e 0275 843c b227 533d 8531 2abe
000000e0: da20 633e 3e0f 483d 19b8 803e d4fd 993d
000000f0: c369 9ebd 612b 8c3e 49f2 de3c 0554 3c3d

weight f4 [1, 64]
2.6370451 2.7542603 -0.59600484 2.844877 2.7377717 2.9056282 -0.35059965 0.32593536
-0.7150495 -0.9654588 0.82322925 -0.44321385 2.784472 1.7789469 0.4003497 2.35553
0.952793 -0.51900446 2.8109934 2.7474644 3.3212347 0.6813039 2.086078 2.7489245
-0.39055902 3.16995 -1.1700535 2.8350914 -0.5491783 0.46585247 2.6163862 2.749644
1.3350855 -0.8366105 -0.75501496 0.5114694 -0.39620766 2.6819825 1.2723538 2.8118713
1.6891594 -0.7139115 -1.6627129 2.714394 -0.46028927 2.7948916 3.2185228 -0.3441256
-0.53653675 -0.49223915 2.2852967 -0.67392755 2.735486 -1.3161156 2.1858542 -1.1236637
0.5203752 -0.5195915 2.21291 2.5517764 -1.0096703 0.38198385 2.6786819 2.5539465
00000000: 59c5 2840 cd45 3040 c693 18bf 7712 3640
00000010: a737 2f40 d0f5 3940 cc81 b3be 00e1 a63e
00000020: 7c0d 37bf 4f28 77bf 27bf 523f edec e2be
00000030: ca34 3240 88b4 e33f a3fa cc3e 01c1 1640
00000040: 3eea 733f 7add 04bf 51e7 3340 75d6 2f40
00000050: 1c8f 5440 ef69 2e3f 4d82 0540 61ee 2f40
00000060: 5af7 c7be 76e0 4a40 50c4 95bf 2372 3540
00000070: f396 0cbf 3784 ee3e df72 2740 2bfa 2f40
00000080: 15e4 aa3f 1b2c 56bf a948 41bf a9ef 023f
00000090: bbdb cabe 9aa5 2b40 7ddc a23f b3f5 3340
000000a0: 6036 d83f e7c2 36bf c7d3 d4bf a2b8 2d40
000000b0: 09ab ebbe 81df 3240 47fc 4d40 3b31 b0be
000000c0: 795a 09bf c506 fcbe 4d42 1240 8486 2cbf
000000d0: 3412 2f40 7a76 a8bf 09e5 0b40 36d4 8fbf
000000e0: 4f37 053f f303 05bf 51a0 0d40 4e50 2340
000000f0: e03c 81bf 6393 c33e 866f 2b40 dc73 2340
