DDPG/data/exp/InvertedDoublePendulum/2022-06-20-22-32-49_actor.pt (torch, 23255 bytes, 5 tensors)

weight f4 [64, 11]
0	0xbce455a1	-0.027872862
1	0x3ef5893f	0.47956273
2	0xbf125919	-0.571672
3	0x3e6b4902	0.22977069
4	0xbdd2eddc	-0.10299274
5	0xbe638e67	-0.22222291
6	0x3f2cf4be	0.67560947
7	0xbe2312d4	-0.15925151
8	0x3d309380	0.043109417
9	0x3e90f882	0.28314596
10	0x3e7eab84	0.24870116
11	0xbc51d9c4	-0.012808267
12	0x3e1a9a6c	0.1509797
13	0xbe96ea1b	-0.29475483
14	0xbd7f98dd	-0.06240164
15	0x3e9b6416	0.30349797
16	0xbdd9d2fc	-0.10635945
17	0xbefc6264	-0.49293816
18	0x3e68eec0	0.22747326
19	0xbe6078f9	-0.21921147
20	0xbe4df3e1	-0.20112564
21	0xbe576372	-0.21034029
22	0xbe108d7a	-0.14116469
23	0xbda8f732	-0.08250274
24	0x3e8b1a27	0.2716839
25	0xbe760408	-0.24024975
26	0x3c6bd754	0.0143946
27	0xbe88efcf	-0.2674546
28	0xbe2c7016	-0.16839632
29	0x3ed12359	0.4084728
30	0x3e3aba66	0.18235168
31	0xbe8a067c	-0.26958072
32	0xbe6b6f7c	-0.22991747
33	0xbe392851	-0.18081786
34	0xbc21b72d	-0.009870333
35	0x3ebb8d5f	0.36631295
36	0xbec31ed3	-0.38109455
37	0xbe89f142	-0.26941878
38	0x3ea553fb	0.32290635
39	0xbe0ad41b	-0.13557474
40	0x3ef30d7e	0.4747123
41	0x3d3bda88	0.045862705
42	0x3e10f882	0.14157298
43	0x3dc67c80	0.09691715
44	0x3d55de43	0.05221392
45	0x3e913043	0.28357133
46	0x3f37bf79	0.7177654
47	0xbe3a4a8d	-0.18192501
48	0xbe7ddaab	-0.24790446
49	0xbdf3d878	-0.119065225
50	0x3c682c15	0.014170666
51	0x3ee162a4	0.4402057
52	0xbe2bc554	-0.16774493
53	0x3dba6244	0.09100774
54	0xbdfdf3e6	-0.124000356
55	0xbd4fec74	-0.05076261
56	0xbe3858e0	-0.18002653
57	0xbc3c981f	-0.011510878
58	0x3ec52765	0.38506618
59	0xbe33050b	-0.17482392
60	0xbe30503d	-0.17218108
61	0xbdcfe1c7	-0.101504855
62	0x3e76a4d5	0.24086316
63	0x3e97d0f0	0.29651594
64	0xbe8f03e8	-0.27932668
65	0x3e825afa	0.25460035
66	0xbd98c85a	-0.07460089
67	0x3e8aadce	0.27085727
68	0xbe5a2e33	-0.21306686
69	0xbe0ed4d4	-0.13948375
70	0xbebf4c5a	-0.3736294
71	0xbec0cbd0	-0.37655497
72	0x3e3dc66e	0.18532726
73	0xbee8d1cc	-0.45472562
74	0xbe617edd	-0.22021051
75	0xbe576a50	-0.21036649
76	0xbe7afe5c	-0.24511093
77	0x3e75c9c2	0.24002746
78	0x3e358815	0.17727692
79	0xbed8ed3d	-0.42368498
80	0xbe7a7a54	-0.24460727
81	0xbdeb2f00	-0.11483574
82	0x3f6d29c6	0.92641866
83	0xbe91332b	-0.2835935
84	0x3e737ee7	0.23778878
85	0xbe8fdaec	-0.28096712
86	0xbd4c8d49	-0.049939428
87	0xbe8b0b22	-0.2715693
88	0xbe520749	-0.20510592
89	0xbe92ca2a	-0.28669864
90	0x3e495389	0.19660772
91	0xbe25b1c8	-0.161811
92	0xbe09cedb	-0.13457815
93	0x3d40c369	0.047061358
94	0x3eb00609	0.34379604
95	0x3e605475	0.21907218
96	0xbd5394ac	-0.051655456
97	0x3dac7698	0.084210575
98	0x3e76e40c	0.2411043
99	0x3e4d8030	0.20068431
100	0xbe6cb9e2	-0.23117784
101	0xbea988b2	-0.33112103
102	0xbd1b6802	-0.037940986
103	0xbe041c12	-0.12901333
104	0x3e3be106	0.18347558
105	0x3e862aa4	0.26204407
106	0x3ea7255c	0.3264569
107	0x3dc8d5ac	0.0980638
108	0x3d50fca0	0.051022172
109	0xbe321252	-0.17389801
110	0xbe7a2e4f	-0.24431728
111	0xbf3689a9	-0.713038
112	0xbe5a54ee	-0.2132146
113	0x3b8aa26c	0.004230788
114	0xbe84d047	-0.25940153
115	0x3be56db7	0.0070016044
116	0xbf360bc2	-0.7111169
117	0x3e0e831c	0.13917202
118	0xbe640eac	-0.22271222
119	0xbe837497	-0.25674888
120	0xbe664993	-0.22489004
121	0x3df63393	0.12021556
122	0x3e4631f8	0.19354999
123	0x3d18e9a6	0.0373322
124	0x3ccadcb5	0.024763444
125	0xbdf88d6a	-0.121363476
126	0xbe95b711	-0.2924123
127	0xbe210fb0	-0.1572864
128	0xbe1a9630	-0.15096354
129	0x3e5d0140	0.21582508
130	0xbe91614c	-0.28394544
131	0x3e75488c	0.23953456
132	0x3e438afc	0.19095987
133	0x3c9b787b	0.018978348
134	0xbeae987c	-0.3410071
135	0xbe836bf6	-0.25668305
136	0x3d9d7e25	0.07690076
137	0xbde77984	-0.11302474
138	0x3e517b71	0.20457245
139	0x3e506b84	0.20353514
140	0x3dba5adc	0.09099361
141	0xbdc13e7e	-0.094357476
142	0xbe84dd9a	-0.2595032
143	0x3c9d994d	0.019238139
144	0xbdd19ca9	-0.10234959
145	0xbe6f2473	-0.23353748
146	0x3e61721a	0.22016183
147	0xbe88f0fd	-0.2674636
148	0xbe6d4757	-0.23171745
149	0xbe78bfbd	-0.24291892
150	0x3e97818d	0.29591027
151	0x3c6d22b3	0.014473605
152	0x3db27ec4	0.08715585
153	0xbe8fa47b	-0.28055176
154	0xbdf6795c	-0.12034866
155	0x3db88052	0.0900885
156	0x3d7c89b6	0.06165477
157	0xbd943954	-0.07237497
158	0x3d1e4bcc	0.038646504
159	0xbe4071c6	-0.18793401
160	0xbd76205e	-0.06008946
161	0x3eb7e040	0.35913277
162	0x3cbdc140	0.023163438
163	0x3e977990	0.29584932
164	0x3e8e695c	0.27814758
165	0x3d6ef61c	0.058340177
166	0x3d67c3a8	0.056583077
167	0x3e99441e	0.29934782
168	0x3cae6e8b	0.021292945
169	0x3e509ffa	0.20373526
170	0x3e025f18	0.12731588
171	0x3e8c086c	0.27350175
172	0xbe2033af	-0.15644716
173	0x3e51ef54	0.20501453
174	0x3dcfcd51	0.10146583
175	0x3cb871e0	0.022515237
176	0xbcf0e7b6	-0.029407363
177	0xbf0669b2	-0.5250503
178	0x3e8d84f2	0.27640492
179	0xbe962ede	-0.29332632
180	0x3e5f1ba4	0.21787888
181	0xbd61d968	-0.055138975
182	0xbda87fc6	-0.08227496
183	0x3e5a528b	0.2132055
184	0xbe4dd32a	-0.20100084
185	0xbd4a8751	-0.049445454
186	0x3dd45e40	0.10369539
187	0xbc02e213	-0.007988471
188	0xbead41cf	-0.3383927
189	0xbeb41db7	-0.3517892
190	0xbd7dc613	-0.061956476
191	0xbe8f3121	-0.2796717
192	0xbdb46952	-0.08809151
193	0xbeba03ca	-0.36331016
194	0x3bc339db	0.0059578246
195	0xbe92a7e1	-0.28643706
196	0xbccb2b61	-0.024800958
197	0xbca1b1d0	-0.019738108
198	0xbdb7dbb8	-0.08977455
199	0xbd58ae33	-0.052900504
200	0x3ebbe05c	0.3669461
201	0xbdf5ff9e	-0.12011646
202	0xbe845e48	-0.2585318
203	0xbea3a585	-0.3196222
204	0xbe1d4429	-0.15358032
205	0x3e9dd122	0.30823618
206	0x3d6cf8e0	0.057854533
207	0x3e85c5a8	0.26127362
208	0x3e5eacd8	0.21745622
209	0xbe79669a	-0.24355546
210	0xbda4c0ca	-0.08044584
211	0xbf1e511d	-0.6184252
212	0xbdded645	-0.108807124
213	0xbdbf3213	-0.09335723
214	0x3cc96d33	0.024588203
215	0xbe97e26f	-0.29664943
216	0xbe638c1e	-0.22221419
217	0x3d6793a8	0.0565373
218	0xbce69fd0	-0.028152376
219	0xbe1ee84a	-0.15518299
220	0x3c1cceae	0.009570761
221	0xbf04378e	-0.5164727
222	0xbf3dce40	-0.7414284
223	0x3e8ad22d	0.27113476
224	0x3c8c3285	0.017113933
225	0xbebcf0e6	-0.3690254
226	0xbe3671fe	-0.17816922
227	0xbe8dc565	-0.27689663
228	0x3e3878fa	0.18014899
229	0xbe979060	-0.29602337
230	0xbe633716	-0.22188982
231	0xbe91a917	-0.28449318
232	0xbe6607c3	-0.22463898
233	0xbf16e374	-0.58940816
234	0x3de0ea63	0.10982206
235	0x3e813656	0.25236768
236	0xbdb2e7fc	-0.08735654
237	0xbedf14cf	-0.43570563
238	0xbe8c01a1	-0.27344993
239	0x3e802162	0.2502547
240	0xbb8aa800	-0.004231453
241	0x3dc19bd8	0.09453553
242	0xbe829e6b	-0.25511488
243	0x3deaa449	0.11457116
244	0xbfb47b4d	-1.4100128
245	0xbe493d62	-0.19652322
246	0x3b7accb2	0.003826898
247	0xbe96d3e0	-0.29458523
248	0x3c00ff57	0.007873378
249	0xbf2da77a	-0.67833674
250	0xbe49153e	-0.1963701
251	0x3e49ada4	0.19695145
252	0x3e1a95de	0.15096232
253	0x3e486658	0.19570291
254	0xbec9f1c1	-0.39442256
255	0xbe2fd97f	-0.17172812

bias f4 [64]
0	0xbe22b0ac	-0.15887707
1	0xbe9adf78	-0.30248618
2	0xbe46fb17	-0.1943172
3	0xbe875787	-0.26433966
4	0xbe300c44	-0.17192179
5	0xbde660b1	-0.11248911
6	0xbea40ce2	-0.3204108
7	0xbe8708fb	-0.2637404
8	0x3e1dfbbb	0.15428059
9	0x3e6b092a	0.22952715
10	0xbe93d65b	-0.28874478
11	0xbe8a8f1c	-0.2706231
12	0xbe834b5f	-0.2564344
13	0xbbb48c19	-0.005509865
14	0x3d82e047	0.06390434
15	0x3dbf63bd	0.093451954
16	0xbe31f0f8	-0.17377079
17	0xbe654e25	-0.22393091
18	0x3e440cac	0.19145459
19	0xbcd6bd21	-0.02621323
20	0xbb0581f4	-0.0020371648
21	0x3d4c6bae	0.04990738
22	0x3e3fa3af	0.18714784
23	0xbd5598ac	-0.052147552
24	0x3e2c762a	0.16841951
25	0x3d093a37	0.033502784
26	0xbde58b46	-0.11208205
27	0x3e567aaa	0.2094523
28	0x3e73112a	0.23737016
29	0xbd9b7d23	-0.07592227
30	0x3e36f847	0.17868148
31	0x3d05b6a4	0.032644883
32	0x3ef3581f	0.4752817
33	0x3e86227f	0.26198193
34	0x3e6e0feb	0.2324826
35	0xbe9917cd	-0.2990097
36	0xbe900854	-0.28131354
37	0x3d8e6277	0.069523744
38	0x3ea070b8	0.31335998
39	0x3e360df3	0.17778759
40	0x3e907646	0.28215235
41	0x3e6d3ca5	0.23167665
42	0x3e41e735	0.18935855
43	0xbd9fc129	-0.07800514
44	0x3e769c76	0.24083123
45	0xbeaa4074	-0.332523
46	0xbe045025	-0.12921198
47	0xbe8ed937	-0.27900097
48	0x3d06171b	0.03273688
49	0xbe56aac4	-0.2096358
50	0xbe9b495b	-0.30329403
51	0x3deddcc0	0.1161437
52	0x3e4c1bc1	0.19932462
53	0xbe26e521	-0.16298343
54	0xbe6bfed5	-0.2304643
55	0x3e23999a	0.15976563
56	0x3e0e0991	0.13870837
57	0xbea19bcd	-0.3156418
58	0x3e63b896	0.22238383
59	0x3e1e1785	0.1543866
60	0x3d060b23	0.032725465
61	0xbec23dea	-0.37937862
62	0x3d4f228c	0.050570056
63	0xbe78b409	-0.24287428

weight f4 [64, 64]
0	0xbd835ca0	-0.06414151
1	0xbdbd8d07	-0.092554145
2	0x3c5d6bec	0.0135145
3	0x3ddfcee1	0.10928131
4	0xbda6302e	-0.08114658
5	0x3db67296	0.08908574
6	0xbe0f0ef8	-0.13970554
7	0x3e0dd42d	0.1385047
8	0x3b01228f	0.0019704436
9	0x3da1508c	0.07876691
10	0xbdde57f0	-0.108566165
11	0xbca5f1cd	-0.020256901
12	0x3cedfc93	0.0290511
13	0x3deb0270	0.11475074
14	0x3d9316c9	0.0718208
15	0x3d679b47	0.05654457
16	0x3ddaf7ff	0.10691833
17	0x3df2e08f	0.118592374
18	0xbd35bc00	-0.044368744
19	0x3d253034	0.040329173
20	0xbb83d33b	-0.0040229834
21	0xbdca152e	-0.09867321
22	0x3d4e499f	0.05036318
23	0x3c0eb53d	0.008710203
24	0xbdb79f00	-0.08965874
25	0x3e224227	0.15845548
26	0xbde96397	-0.113959484
27	0x3dd1f90c	0.1025258
28	0xbda3d2c4	-0.07999185
29	0xbddd1a4c	-0.10796031
30	0x3d9c8abb	0.07643648
31	0x3d185513	0.037190508
32	0x3d9aa76d	0.07551465
33	0x3dcb4b58	0.0992648
34	0x3dae48c3	0.08509972
35	0xbdcadbc4	-0.09905198
36	0x3cbffc0f	0.02343562
37	0x3e311b5a	0.1729559
38	0x3db6f8a9	0.08934147
39	0xbc812859	-0.01576631
40	0x3e02154b	0.12703435
41	0xbd96d195	-0.07364193
42	0xbdad2511	-0.084543355
43	0x3d4c8d18	0.049939245
44	0x3e03f8d7	0.12887894
45	0xbcdcec00	-0.026968002
46	0x3c236159	0.00997194
47	0xbe0ba659	-0.13637675
48	0xbd9f4595	-0.077769436
49	0xbc80f4ab	-0.015741667
50	0xbd8aa750	-0.067701936
51	0x3c54791d	0.012968329
52	0xbdcb05f6	-0.09913246
53	0xbc85da44	-0.016339429
54	0xbdb8fbc4	-0.090323955
55	0x3df746de	0.12074064
56	0xbd9f07a3	-0.077651285
57	0x3dc1d3a9	0.09464199
58	0xbd5612b4	-0.05226393
59	0xbd229ebb	-0.03970216
60	0x3d7c166a	0.061544813
61	0x3cb90da0	0.022589505
62	0xbe4677b9	-0.19381608
63	0x3dc91e25	0.09820203
64	0x3d624047	0.05523708
65	0xbdad285c	-0.084549636
66	0x3e676c36	0.22599873
67	0x3d54ae3d	0.05192398
68	0x3e4388ee	0.19095203
69	0x3e67e60f	0.22646354
70	0x3e0feb31	0.14054562
71	0xbdef5d1e	-0.116876826
72	0x3e326fd4	0.17425472
73	0x3d96c863	0.073624395
74	0x3d8ef889	0.06980998
75	0xbd7765c1	-0.060399774
76	0x3dd78e13	0.105251454
77	0x3e3d849d	0.18507619
78	0x3e27287c	0.16324037
79	0x3c7ccda4	0.015429888
80	0x3e7be99f	0.24600838
81	0xbdf190f7	-0.11795228
82	0x3e79942f	0.24372934
83	0x3cc467f7	0.023975356
84	0x3ddac9e8	0.10683042
85	0x3a84b4a7	0.0010124639
86	0xbdf337a4	-0.11875847
87	0x3de43f0d	0.111448385
88	0xbe259cee	-0.16173145
89	0x3db080fc	0.08618352
90	0xbd98f7d5	-0.07469145
91	0x3e44a9a0	0.19205332
92	0xbd5d6971	-0.054055635
93	0xbd31c142	-0.043397196
94	0xbd41f70f	-0.047354754
95	0x3d54353d	0.051808584
96	0x3d0964c2	0.033543356
97	0x3e4d3006	0.2003785
98	0xbdcde529	-0.100534745
99	0xbd86d8f8	-0.06584352
100	0xbda2bad9	-0.079457946
101	0x3defaa7a	0.11702438
102	0x3e520764	0.20510632
103	0x3c867c20	0.01641661
104	0x3bf771b3	0.007551396
105	0x3d4d5a7c	0.05013512
106	0xbe1ed9f6	-0.15512833
107	0xbe0baf88	-0.13641179
108	0x3ce3c805	0.027805338
109	0xbce1cbd9	-0.027563022
110	0x3e9d27a2	0.306943
111	0xbe31d384	-0.17365843
112	0x3d8fce39	0.07021756
113	0x3e71eb2a	0.23624864
114	0xbd1bfd7d	-0.038083542
115	0x3e29fa21	0.16599323
116	0x3b19f7ea	0.0023493716
117	0xbcaaa8f9	-0.020832526
118	0xbd348d57	-0.044080105
119	0xbe1ee986	-0.1551877
120	0xbe5be898	-0.21475446
121	0x3e3cce24	0.18438011
122	0x3dabaaf4	0.08382216
123	0xbdd1c272	-0.102421656
124	0xbd834b4f	-0.06410848
125	0x3e215c6b	0.15757911
126	0xbd4115a1	-0.047139768
127	0xbcf68923	-0.030094689
128	0xbd36a54c	-0.044591233
129	0x3e54b087	0.20770465
130	0xbe05b3ea	-0.13056913
131	0xbdc775ca	-0.09739263
132	0x3d27ea41	0.040994886
133	0xbdb68c65	-0.08913497
134	0x3e05823a	0.13037959
135	0xbafe8360	-0.0019417815
136	0xbcf62642	-0.03004754
137	0xbe4f7c95	-0.20262368
138	0xbadb349a	-0.001672405
139	0x3d454c4e	0.048168473
140	0xbd04ba56	-0.032404266
141	0xbd357780	-0.044303417
142	0x3d1f28bd	0.03885721
143	0x3e1a10af	0.15045427
144	0xbdc14a74	-0.09438029
145	0x3db0f4f8	0.08640474
146	0xbdb006ab	-0.08595022
147	0xbd9f4e47	-0.07778602
148	0xbda3782e	-0.07981907
149	0x3c35247e	0.011056064
150	0x3d897442	0.067116275
151	0xbe1b3d08	-0.1516
152	0xbae819c7	-0.0017707878
153	0xbd3b9686	-0.045797847
154	0x3de59ba3	0.11211326
155	0xbdd4153f	-0.10355615
156	0xbda35e2e	-0.07976948
157	0x3c4c0a2a	0.012453595
158	0x3d94b6fe	0.072614655
159	0xbe1a851a	-0.15089837
160	0xbdda90d7	-0.10672157
161	0xbde25264	-0.11050871
162	0x3db4c38b	0.08826359
163	0xbd821b62	-0.06352879
164	0xbdc830e4	-0.0977495
165	0xbd650844	-0.055916086
166	0xbe2df5bf	-0.16988276
167	0x3dc838bd	0.09776447
168	0x3d1714ca	0.03688506
169	0x3d283db1	0.04107446
170	0x3d1a5728	0.037680775
171	0x3d3407ec	0.043952867
172	0xbdff0601	-0.12452317
173	0x3da19aa8	0.078908265
174	0xbe5786fd	-0.21047588
175	0x3e67f46f	0.22651838
176	0x3cce6823	0.02519614
177	0xbe1a5ffb	-0.15075676
178	0xbe1c109b	-0.1524071
179	0xbe278d69	-0.16362537
180	0xbbfa3ead	-0.007636866
181	0x3dd3409f	0.1031506
182	0xbdb44980	-0.088030815
183	0x3d45385b	0.048149448
184	0x3e194702	0.14968494
185	0xbd9f6f32	-0.07784881
186	0x3d483b86	0.04888489
187	0xbc3a4c58	-0.011370741
188	0x3d96899a	0.07350464
189	0x3d7c009d	0.061524022
190	0x3ded10a1	0.11575437
191	0xbd426736	-0.04746171
192	0x3e5a42ab	0.21314494
193	0xbe000d58	-0.1250509
194	0x3e12543b	0.14289944
195	0xbc425847	-0.011861867
196	0x3d83f19f	0.0644257
197	0x3d57b0ee	0.052658968
198	0x3d0aa17d	0.033845413
199	0xbc2a3e70	-0.010390863
200	0x3e3f445a	0.18678418
201	0xbc160789	-0.00915707
202	0xbdabfa0f	-0.08397304
203	0xbddab54d	-0.10679112
204	0xbd10858b	-0.035283606
205	0x3e04523c	0.12921995
206	0x3e0c288c	0.13687342
207	0x3c8cbc4f	0.017179636
208	0x3bb602dd	0.0055545405
209	0xbc0feedc	-0.008784976
210	0x3e64e80a	0.22354141
211	0xbda8db57	-0.08244961
212	0xbd430a07	-0.047616985
213	0xbe12383b	-0.14279263
214	0x3d68ac9c	0.056805238
215	0x3e1412ec	0.14460343
216	0xbd7a2d46	-0.061078332
217	0xbd49b016	-0.049240194
218	0x3ad065bd	0.0015899461
219	0x3e4a699b	0.19766848
220	0x3d90421f	0.070438616
221	0x3dae1996	0.08500974
222	0xbcfe4e33	-0.031043148
223	0x3e4126ea	0.18862501
224	0x3d28f97e	0.04125356
225	0x3d4ebb27	0.05047145
226	0xbb94ad7b	-0.004537282
227	0xbc46f36e	-0.012142999
228	0x3ca00304	0.019532688
229	0x3e60e4c0	0.21962261
230	0x3e9ac84a	0.30230933
231	0xbdb42eba	-0.08797975
232	0x3e09bf4e	0.13451883
233	0x3c77b312	0.015118377
234	0x3e037aed	0.12839861
235	0xbe29a826	-0.1656805
236	0x3dae7bf0	0.08519733
237	0x3d2dbc5f	0.042415973
238	0x3e4343d9	0.1906885
239	0xbe89b891	-0.26898625
240	0x3d639244	0.05555941
241	0xbc282de7	-0.01026485
242	0xbda512d7	-0.08060234
243	0x3ccefec6	0.02526797
244	0x3dd0a42b	0.101875626
245	0xbe46d317	-0.19416462
246	0xbd8b9dc4	-0.06817201
247	0x3d17df2c	0.037078068
248	0x3d9b6ce7	0.07589131
249	0x3dad5a8d	0.08464537
250	0x3c47e41b	0.012200381
251	0x3cdabd66	0.02670164
252	0x3a533f84	0.0008058476
253	0x3b2c497c	0.0026288917
254	0xbb4aa3d5	-0.0030920405
255	0x3de957e2	0.113937154

bias f4 [64]
0	0xbcde65e8	-0.027148202
1	0xbdf17fc9	-0.11791951
2	0x3c401244	0.011723105
3	0xbb8a2db0	-0.004216872
4	0xbd3bbb9c	-0.045833215
5	0xbd0ee38a	-0.034884967
6	0x3c33c14f	0.010971381
7	0xbd907d20	-0.07055116
8	0x3cd82405	0.026384363
9	0xbc7f4b5a	-0.01558193
10	0x3dc8658e	0.09784995
11	0x3cb87db1	0.022520872
12	0xbcf80f6c	-0.030280791
13	0x3c6921ec	0.014229279
14	0xbe8296aa	-0.25505573
15	0x3d8bf0b2	0.06833018
16	0xbd08bc3f	-0.03338265
17	0x3d7ee399	0.062228773
18	0x3c3e19c9	0.011602827
19	0x3d54195a	0.05178199
20	0x3cb26852	0.02177826
21	0xbdabdd08	-0.08391768
22	0x3e95bd43	0.29245958
23	0x3c685d54	0.014182407
24	0xbea155a1	-0.31510642
25	0xbe533b14	-0.20628005
26	0x3dc93dd1	0.09826244
27	0x3e4030cc	0.18768615
28	0x3e2b6f62	0.16741708
29	0xbdb88421	-0.090095766
30	0xbdf69d60	-0.12041736
31	0xbe105794	-0.14095908
32	0x3dd420d8	0.10357827
33	0x3c42606f	0.011863812
34	0x3d824aa7	0.06361895
35	0xbdad74b6	-0.084695265
36	0x3e224f94	0.15850669
37	0xbdcc0054	-0.09961
38	0xbd85a137	-0.0652489
39	0xbd932b50	-0.071859956
40	0xbdd47cc7	-0.10375362
41	0xbd774348	-0.0603669
42	0xbd7045c1	-0.058660273
43	0xbcf2927a	-0.029610861
44	0x3efaf6f3	0.49016532
45	0x3b0e6480	0.0021727383
46	0x3d811caa	0.06304295
47	0x3dee2920	0.11628938
48	0xbd40a676	-0.04703375
49	0xbd9a05a7	-0.07520609
50	0xbd742ec0	-0.059614897
51	0xbed79968	-0.42109227
52	0xbcf05993	-0.029339587
53	0xbe0aba3e	-0.13547608
54	0xbd41d9fe	-0.047327034
55	0xbd679193	-0.056535315
56	0x3c4f17c2	0.012639942
57	0xbd8a9fa3	-0.067687295
58	0x3e3ad613	0.18245725
59	0xbdffdcb7	-0.1249327
60	0xbde17f36	-0.11010592
61	0x3e17f1f1	0.14838387
62	0xbc6a7027	-0.014308966
63	0x3d6d3037	0.05790731

weight f4 [1, 64]
0	0xbe7d6dae	-0.2474887
1	0xbe91cbb9	-0.2847574
2	0x3eb2200f	0.34790084
3	0xbe942431	-0.28933862
4	0x3ec714ec	0.3888315
5	0x3ea17b18	0.31539226
6	0x3e4ecad0	0.20194554
7	0x3e9332e4	0.28749764
8	0x3e909031	0.2823501
9	0x3ea81ac3	0.32832918
10	0x3de6adc7	0.11263614
11	0x3e4ba065	0.19885404
12	0xbe8485b0	-0.25883245
13	0x3db6851e	0.08912109
14	0x3e98b5d0	0.29826212
15	0x3e86b647	0.26310942
16	0xbe580608	-0.2109605
17	0x3e8be4be	0.27322954
18	0x3eb74552	0.35795075
19	0x3e50aaf6	0.20377716
20	0xbea94ef0	-0.33068037
21	0x3d9ae792	0.075637
22	0xbeb7946a	-0.35855418
23	0x3e4a412d	0.19751425
24	0x3e9bf8fe	0.30463403
25	0x3e241e50	0.16027188
26	0xbe467af5	-0.19382842
27	0xbe2ed435	-0.17073138
28	0xbe4685c3	-0.19386964
29	0x3ea7fcb9	0.3281
30	0x3df488f0	0.11940181
31	0x3e3945c7	0.18093024
32	0xbe7bae93	-0.24578314
33	0xbe75d44b	-0.24006765
34	0xbed29b8b	-0.41134295
35	0x3e86315f	0.26209542
36	0xbe22ae78	-0.15886867
37	0xbdef75dc	-0.11692402
38	0x3eb07046	0.34460658
39	0xbe885c0d	-0.2663273
40	0x3ea101c4	0.3144666
41	0x3e9f70dc	0.31140792
42	0x3e3a8052	0.18213013
43	0x3eb7bc21	0.35885718
44	0x3ee43706	0.4457323
45	0x3e5d737e	0.21626088
46	0xbe72bfb5	-0.23705943
47	0x3ed3f210	0.41395617
48	0xbe3ad70c	-0.18246096
49	0x3e69a210	0.22815728
50	0x3e473157	0.19452415
51	0xbef0e4f4	-0.47049677
52	0x3f0e6c91	0.5563441
53	0x3e3f8150	0.18701673
54	0xbf090dd2	-0.53536713
55	0x3e9013fb	0.28140244
56	0x3e9c0144	0.30469716
57	0x3e1d7e1c	0.15380138
58	0x3e60ddd1	0.21959616
59	0x3e1300cb	0.14355771
60	0xbe822a65	-0.2542297
61	0xbe27c5aa	-0.16383997
62	0xbe6997e7	-0.22811852
63	0xbe61cc19	-0.22050513
