SAC/data/exp/InvertedDoublePendulum-v2/2022-07-05-16-45-05_actor.pt (torch, 281103 bytes, 6 tensors)

weight f4 [256, 11]
0	0xc09d54ee	-4.9166174
1	0xc02a0cee	-2.6570392
2	0x41242c7b	10.2608595
3	0xbecb5950	-0.39716578
4	0xbec16b38	-0.37777114
5	0x3f15fa52	0.58585083
6	0x3fbd6971	1.4797803
7	0x4014067e	2.3128963
8	0x3e9fe12f	0.3122649
9	0x3e71ca54	0.23612338
10	0x3e748290	0.2387793
11	0x400158ea	2.021052
12	0xbfa646d4	-1.2990365
13	0x41499c33	12.600635
14	0xbee9efe4	-0.45690835
15	0xbe8c65ff	-0.27421567
16	0x3f119d75	0.56880885
17	0x3ed9cec4	0.42540562
18	0xbee155ac	-0.44010675
19	0x3e272138	0.16321266
20	0xbd528388	-0.05139497
21	0x3e928f06	0.28624743
22	0x3d5fa777	0.054603066
23	0x3d7f4cc3	0.062329065
24	0x3ea8ad2a	0.32944614
25	0xbf2a59b6	-0.6654314
26	0xbf523f2a	-0.8212763
27	0xbe089423	-0.1333776
28	0xbdb6238f	-0.08893501
29	0x3c99e9ad	0.018788183
30	0xbda8a5be	-0.08234738
31	0xbd9ba6c2	-0.07600166
32	0x3e3b5a88	0.18296254
33	0xbcbe1337	-0.023202522
34	0x3dce2014	0.10064712
35	0xbe84fa16	-0.2597205
36	0xbed43ad0	-0.4145112
37	0xbf161e23	-0.58639735
38	0xbdf2b4a1	-0.118508585
39	0xbd849643	-0.06473973
40	0xbc54b3a6	-0.012982285
41	0x3c23f0e7	0.010006166
42	0x3dc38e98	0.09548682
43	0xbe2d1f1e	-0.16906402
44	0x3eb091b1	0.34486154
45	0xbc8a555f	-0.016886411
46	0x3da02eca	0.07821424
47	0xbed37e9d	-0.41307536
48	0xbf090a2c	-0.53531146
49	0xbdba2dd5	-0.09090773
50	0xbdb9f2a7	-0.090794854
51	0xbd52db6f	-0.0514788
52	0xbc997298	-0.0187314
53	0xbde5c920	-0.11220002
54	0xbe49b6da	-0.19698659
55	0x3d51b37b	0.051196557
56	0x3d90d00f	0.07070934
57	0x3e750a58	0.23929727
58	0xbee931af	-0.45545718
59	0xbe731337	-0.23737799
60	0x3d53e4b0	0.051731765
61	0x3b676ba4	0.0035311962
62	0x3d256578	0.04037997
63	0xbc33d8be	-0.010976968
64	0x3df83cfc	0.12121007
65	0xbd8fedee	-0.07027803
66	0x40338280	2.80484
67	0x4100f2c9	8.059274
68	0xc03668f7	-2.8501565
69	0xbe67879e	-0.22610328
70	0x3e8a7bb3	0.270475
71	0xbf9947eb	-1.1975073
72	0xbf764a7e	-0.96207416
73	0xbe2b8a12	-0.16751888
74	0x3f434530	0.76277447
75	0xbdd9f81a	-0.10643025
76	0x3e009576	0.12557015
77	0xbe882c7d	-0.26596442
78	0x3ef7b876	0.4838292
79	0x3e196f89	0.14983954
80	0xbea332e3	-0.3187476
81	0xbf303bc6	-0.6884121
82	0x3d7e84a3	0.06213821
83	0xbc84fe4f	-0.016234545
84	0x3d3cb9f6	0.046075784
85	0xbdb07f51	-0.08618034
86	0x3e9710bc	0.29504955
87	0xbdf9b15a	-0.1219203
88	0x3f0ca5b8	0.54940367
89	0xbfca5bc6	-1.5809257
90	0x3f4092ab	0.752238
91	0xbee77fa9	-0.45214584
92	0xbf25ffbb	-0.6484334
93	0xbe8f76a0	-0.2802019
94	0x3e057f9b	0.13036959
95	0x3f7aacd2	0.9791995
96	0x3fced590	1.6158924
97	0xbdcf499a	-0.1012146
98	0xbdfcbaf2	-0.123403445
99	0x402c981c	2.696784
100	0x3ec0c5e1	0.3765097
101	0xc021b7f6	-2.526853
102	0xc0050de1	-2.078972
103	0xbfff3df6	-1.9940784
104	0x3eb1bb63	0.34713277
105	0xbdf5bca2	-0.119988695
106	0xbf7bd774	-0.9837563
107	0x3fbd0ebd	1.4770123
108	0xbd7380ac	-0.059448883
109	0xbe8e9458	-0.27847552
110	0xbeb76d8a	-0.3582576
111	0xbd9afd1b	-0.07567807
112	0x3d67653c	0.05649303
113	0xbee164c6	-0.44022197
114	0xbef642e9	-0.48097923
115	0xbd98d8f9	-0.07463259
116	0xbd6b400a	-0.05743412
117	0x3b2ffb96	0.0026852838
118	0xbdd01925	-0.10161046
119	0xbe245b99	-0.16050567
120	0xbde897ba	-0.113570645
121	0x3d604172	0.054749914
122	0xc08db5c0	-4.4284363
123	0x406e8bc5	3.7272809
124	0xc00261cb	-2.0372188
125	0xbfc46b8a	-1.5345318
126	0x3f9cd17b	1.2251428
127	0xbf4bffc6	-0.79687154
128	0x3f4951e5	0.78640586
129	0xbf9c1adb	-1.2195696
130	0x3da11894	0.07866016
131	0xbe260995	-0.16214593
132	0x3ff73e14	1.931582
133	0xbeb44702	-0.35210425
134	0x40e75463	7.229051
135	0xbfa79ade	-1.3094137
136	0xbf60ff55	-0.87889606
137	0xbfb2140c	-1.3912368
138	0xbe06f4aa	-0.1317927
139	0x3fafe3b7	1.3741368
140	0xbe72c8eb	-0.23709457
141	0xbe9a558b	-0.3014339
142	0x3d0db1b0	0.034593284
143	0x3f971da2	1.1805918
144	0xbf7e8675	-0.99423915
145	0x3f04e2ad	0.5190838
146	0xc01f5b74	-2.4899569
147	0xc01884f9	-2.383116
148	0x3d943410	0.07236493
149	0xbe7a72d4	-0.24457866
150	0x3dbc2e68	0.09188539
151	0x3e8dfd8e	0.2773251
152	0x3cab02f0	0.020875424
153	0x3e0d80aa	0.13818613
154	0xbbc7338f	-0.0060791443
155	0xbe319508	-0.17342007
156	0x3eb351fa	0.3502348
157	0xbecfa45a	-0.40555078
158	0xbf33b9ff	-0.7020568
159	0x3cb45f4c	0.022018097
160	0xbd8289d2	-0.063739434
161	0xbe0d3dff	-0.13793181
162	0x3d3ae45f	0.045627948
163	0xbcb151b0	-0.021645397
164	0xbe38dd70	-0.18053222
165	0x3fc05b46	1.5027854
166	0x401536d4	2.3314714
167	0xbf83db53	-1.0301307
168	0xc0681f43	-3.626908
169	0xc061c57a	-3.527678
170	0x3ed17ee3	0.4091712
171	0x3f7d3a8b	0.98917454
172	0x3e12fffd	0.14355464
173	0x3fac83ad	1.3477684
174	0x3c612aa0	0.013743073
175	0x3e888506	0.2666399
176	0x3e7ecfea	0.24884
177	0xbe574ecf	-0.21026157
178	0xbec4a225	-0.38404956
179	0xbeaa6bb2	-0.3328529
180	0xbebb0e4f	-0.36534354
181	0x3d0f1ef8	0.034941643
182	0x3dba394f	0.09092962
183	0x3dd2a715	0.102857746
184	0x3c72fe4a	0.014831135
185	0x3e3d105a	0.18463269
186	0xbdad84ea	-0.08472617
187	0xbe1355c4	-0.14388186
188	0xbd47f8d8	-0.0488213
189	0xbde0ddb1	-0.10979784
190	0xbeff8f7e	-0.49914163
191	0xbe6a97e8	-0.2290951
192	0xbdda3f1f	-0.10656571
193	0xbde317aa	-0.11088498
194	0xbd2a7751	-0.041617695
195	0xbc96fc7a	-0.018430937
196	0xbe3518f1	-0.17685296
197	0xbe987655	-0.2977778
198	0x3cd5565c	0.026042156
199	0x3c307215	0.010769387
200	0xbd88eb4c	-0.06685504
201	0xbecd07b1	-0.4004493
202	0xbe0417d7	-0.12899719
203	0xbcf2abd9	-0.029622959
204	0xbd4d58b5	-0.050133426
205	0xbce2619f	-0.02763444
206	0xbc124ced	-0.008929473
207	0xbde183c0	-0.110114574
208	0x3e8ce7d0	0.2752061
209	0x4059611f	3.3965528
210	0xc0b29343	-5.5804763
211	0xbf84114b	-1.0317777
212	0xbe1cb4a6	-0.15303287
213	0xbd111511	-0.03542048
214	0xc031cf20	-2.778267
215	0xbf81d222	-1.0142252
216	0x3ea88877	0.32916614
217	0x3fe44cad	1.78359
218	0xbe41c23a	-0.18921748
219	0xbd384250	-0.044985116
220	0x3f37c599	0.71785885
221	0x40b6e235	5.715113
222	0x4035517d	2.8330986
223	0xbebb7265	-0.36610714
224	0x3ddd721a	0.10812779
225	0x4038e16f	2.8887594
226	0x3fc8772e	1.5661371
227	0x3e8f37b5	0.2797219
228	0xbe871e5d	-0.26390353
229	0xbe2f45f8	-0.17116535
230	0xbd34ead8	-0.044169277
231	0xc0027cb6	-2.0388618
232	0x3e5f1e4d	0.21788903
233	0x3fd346c3	1.650597
234	0xbf881538	-1.0631475
235	0xbf971d05	-1.1805731
236	0xbf37e40b	-0.7183234
237	0x3f1f10bb	0.62134904
238	0x3f0f8cd3	0.56074256
239	0xbf05291a	-0.5201584
240	0xbe1d16f6	-0.1534079
241	0xbe0944e5	-0.13405187
242	0x3e9fdb84	0.31222165
243	0xbd9277e9	-0.07151777
244	0xbd06b8d5	-0.032891113
245	0xbeddb3f3	-0.43301353
246	0xbede97ce	-0.43475193
247	0x3bf8d6c7	0.007593963
248	0xbcc8186a	-0.024425704
249	0xbd6db627	-0.058035042
250	0x3db9f1e1	0.09079338
251	0xba9d5000	-0.0012001991
252	0x3e721e8c	0.23644465
253	0xbf0b70c5	-0.5446895
254	0x3ee86dcb	0.45396265
255	0xbf70a9ed	-0.94009286

bias f4 [256]
0	0xbf73c94b	-0.95229024
1	0xbf49789a	-0.7869965
2	0xbebf010f	-0.37305495
3	0xbebaa4ac	-0.3645376
4	0xbd2d6f1b	-0.042342287
5	0xbe6308d0	-0.2217133
6	0xbe7f4227	-0.24927579
7	0xbe90a2a8	-0.28249097
8	0xbf1da0aa	-0.6157328
9	0xc01c5edd	-2.44329
10	0xbef5addc	-0.47984207
11	0xc0149c58	-2.3220425
12	0xbf6973ff	-0.9119262
13	0xc01ff39e	-2.4992442
14	0xbea0d610	-0.31413317
15	0xc05d6efe	-3.4598994
16	0xbeae8801	-0.34088138
17	0xbe8f8f80	-0.2803917
18	0xbd85d9be	-0.06535672
19	0xbeaa8a57	-0.3330867
20	0x3b69b7ee	0.003566261
21	0xbf9f210d	-1.2431961
22	0xbecb5ea6	-0.3972065
23	0xbf2feac6	-0.6871761
24	0xbfb99fb9	-1.4501868
25	0xbf948ad8	-1.1604872
26	0xbf09da10	-0.5384836
27	0xbf85cc81	-1.0453035
28	0xbfae76b8	-1.362998
29	0xc0101558	-2.2513027
30	0xbf9e7fce	-1.2382753
31	0xbf08590f	-0.5326089
32	0xbec5feec	-0.38671052
33	0xbef9c1c9	-0.4878066
34	0xbf77ca3f	-0.9679298
35	0xbf8da805	-1.10669
36	0xbf9f3dd3	-1.2440742
37	0xc038fda9	-2.8904822
38	0x3d644ebb	0.055739146
39	0xbef53cdc	-0.47897995
40	0xbf45e431	-0.7730132
41	0xbe99b64b	-0.3002189
42	0xbf8626f0	-1.0480633
43	0xbf489727	-0.7835564
44	0xbeb81626	-0.35954398
45	0xbfd69c96	-1.6766536
46	0xbf289b39	-0.6586185
47	0xbf872e91	-1.0561086
48	0xbf0fddef	-0.5619802
49	0xbdb4f7e6	-0.088363454
50	0xbf10d54e	-0.5657548
51	0xbfbda537	-1.4816045
52	0xbf6e72ad	-0.9314373
53	0xbffca6ba	-1.9738381
54	0xbf05bead	-0.52244073
55	0xbf56b180	-0.83864594
56	0xbecc8e58	-0.3995235
57	0xc01d8840	-2.461441
58	0xbe80ccec	-0.25156343
59	0xbecfbc26	-0.40573233
60	0xbfa50687	-1.2892617
61	0xbe8378f9	-0.25678232
62	0xbf0c07cd	-0.54699403
63	0xbe61af02	-0.22039416
64	0xbf1b4cf4	-0.60664296
65	0xbf96b8c4	-1.1775136
66	0xbf7ef97d	-0.9959944
67	0xbf3d2c0d	-0.7389534
68	0xbeebc1f5	-0.46046415
69	0xbeeefe9a	-0.4667862
70	0xbf8bb8bb	-1.091575
71	0xbf849159	-1.0356857
72	0xbf6431c3	-0.8913843
73	0xbf61c383	-0.8818895
74	0xbf57454f	-0.8409013
75	0xbe70a6a4	-0.23501068
76	0xbf877f38	-1.0585699
77	0xbf1af198	-0.6052489
78	0xbecb6b21	-0.3973017
79	0x3d9d57e5	0.0768278
80	0xbec0973f	-0.37615392
81	0xbf2f0154	-0.683614
82	0xbed03da3	-0.40672025
83	0xbf3b5ab0	-0.73185253
84	0xbea81531	-0.32828668
85	0xbedc637c	-0.4304465
86	0xbfdd62be	-1.7295759
87	0xbfcca30c	-1.5987258
88	0xbf7b045e	-0.9805354
89	0xbf8639be	-1.0486372
90	0xbf2a92e8	-0.6663041
91	0x3d0ec287	0.034853484
92	0xbf90d55d	-1.1315113
93	0xbf0702aa	-0.5273844
94	0xc0197c24	-2.398202
95	0x3d98682f	0.074417464
96	0xbf82f698	-1.0231504
97	0xbf942284	-1.1573033
98	0xbf295e46	-0.66159475
99	0xc0006988	-2.006441
100	0xbf21222b	-0.6294276
101	0xbe7746bc	-0.24148077
102	0xbf3b5efa	-0.731918
103	0xbf74bca2	-0.9560033
104	0xc03a2aa3	-2.9088523
105	0xbf082708	-0.53184557
106	0x3d06983f	0.032860037
107	0xbeda0de4	-0.42588723
108	0xbf4825b3	-0.78182524
109	0xbda21389	-0.07913882
110	0xbe81a997	-0.253247
111	0xbede828c	-0.43458974
112	0xbf6d4fca	-0.92699873
113	0xbfb58e71	-1.4184095
114	0xbf0fb1e2	-0.561308
115	0xbf0bc18d	-0.5459221
116	0xbf0bc79c	-0.54601455
117	0xbfc604da	-1.547023
118	0xbfee7aae	-1.8631189
119	0xbfdfa5ad	-1.7472435
120	0xbf530dbc	-0.8244283
121	0xbf272fef	-0.65307516
122	0xbed42e7f	-0.41441724
123	0xbeba4a3b	-0.36384758
124	0xbfd0a2c9	-1.6299678
125	0xbf1d5249	-0.6145368
126	0xbf9e38ec	-1.2361121
127	0xbf00e5f6	-0.5035089
128	0xbf9a51d0	-1.2056217
129	0xbfd8c622	-1.6935465
130	0xc012e35a	-2.2951264
131	0xbf761fb7	-0.96142143
132	0xbea5e428	-0.32400632
133	0xbe5409d5	-0.20706876
134	0xbfc1caac	-1.5139976
135	0xbde21fb9	-0.11041207
136	0xbe94af10	-0.29039812
137	0xbeff7c33	-0.49899444
138	0xbe79051f	-0.2431836
139	0xc0566704	-3.3500376
140	0xbee40596	-0.44535512
141	0xbe87b475	-0.26504865
142	0xbfa5bcca	-1.2948239
143	0xbeb673a7	-0.3563511
144	0xbf5428a5	-0.8287452
145	0xbfc37f30	-1.527319
146	0xbf32f41c	-0.6990373
147	0xbfb3129c	-1.3990054
148	0xbf98eaef	-1.1946696
149	0xbfb8ca81	-1.4436799
150	0xbfc9b2bc	-1.575767
151	0xbfa6f31c	-1.3042941
152	0xbec2ce71	-0.38048127
153	0xbfa17cf3	-1.2616256
154	0xbfd327b8	-1.6496496
155	0x3dae3785	0.08506683
156	0xbfa2a9fc	-1.2708125
157	0xbfaa43d4	-1.330195
158	0xbfb9d5d5	-1.4518381
159	0xc01a8ea0	-2.4149551
160	0x3bd12ef6	0.006383772
161	0xbf52b311	-0.82304484
162	0xbfcf3c48	-1.6190271
163	0xc002e1db	-2.0450351
164	0xbf9354e2	-1.1510279
165	0xbe24fa17	-0.16111027
166	0xbe843469	-0.25821236
167	0xbf33b2db	-0.70194787
168	0xbeefc13c	-0.46827114
169	0xbf9316d4	-1.1491342
170	0xbf8aa578	-1.0831747
171	0xbfb75e69	-1.4325687
172	0xbefb6b54	-0.49105322
173	0xbf6fb009	-0.93627983
174	0x3ea5c70e	0.3237843
175	0xbf98a77d	-1.1926113
176	0xbf9de6ae	-1.2336023
177	0xbef6b5d5	-0.48185602
178	0xbfb920b5	-1.4463106
179	0xbf3af52a	-0.7303034
180	0xbf9c5fda	-1.2216752
181	0xbee4fb2b	-0.44722876
182	0xbf1ee915	-0.62074405
183	0xbf233bf0	-0.6376333
184	0xbf1a9b42	-0.60393155
185	0xbeaae602	-0.33378607
186	0xbfa9ac1e	-1.3255651
187	0xbfc602ed	-1.5469643
188	0xc057625b	-3.3653781
189	0xbec95533	-0.39322814
190	0xbfe8ec92	-1.8197196
191	0xbeaa3b94	-0.3324858
192	0xc006be6b	-2.1053722
193	0xbf11e737	-0.5699343
194	0xbfb37a96	-1.4021785
195	0xbf11c70b	-0.5694434
196	0xbedcff5e	-0.4316358
197	0xbf4d6b0f	-0.80241483
198	0xbedea3fc	-0.43484485
199	0xbe3536df	-0.17696713
200	0xbf06ed87	-0.5270619
201	0xbf09317f	-0.5359115
202	0xbff61151	-1.9224035
203	0xc0036ba2	-2.0534444
204	0xbf3c86ea	-0.7364336
205	0xbfdab06c	-1.708509
206	0xc000774c	-2.0072813
207	0xbf5778c6	-0.8416866
208	0xbe30acaf	-0.17253374
209	0xbf9fb281	-1.247635
210	0xbf8f34b0	-1.1187954
211	0xbf015d69	-0.5053316
212	0xbf1831f1	-0.59451205
213	0xc011f1d1	-2.2803843
214	0xbcb97e11	-0.022643121
215	0xbfaa64b0	-1.3311977
216	0xbf454e5a	-0.7707268
217	0xbf7dd4d0	-0.9915285
218	0xbff86174	-1.940474
219	0xbfbaffde	-1.4609334
220	0xbf135422	-0.5755025
221	0xbf113dea	-0.567351
222	0xbebf2032	-0.3732925
223	0xbfa15fc8	-1.2607355
224	0xbee1aaeb	-0.44075713
225	0xbfe99dee	-1.8251321
226	0xbe92f5de	-0.28703207
227	0xbed53b66	-0.4164688
228	0xbeb177f7	-0.34661838
229	0xbeeca8ab	-0.46222433
230	0xbeb65abf	-0.3561611
231	0xc011fa52	-2.2809033
232	0xbff3d2f0	-1.9048748
233	0xbeac5b8a	-0.3366359
234	0xbe94e2c1	-0.2907925
235	0xbfccfc9a	-1.6014588
236	0xbec5dcce	-0.38645023
237	0xbcefc020	-0.029266417
238	0xbed2a94c	-0.41144788
239	0xbf00b77f	-0.5027999
240	0xbf863141	-1.0483781
241	0xbf46deb4	-0.7768357
242	0xbf043724	-0.5164664
243	0xbe877074	-0.26452982
244	0xbef51315	-0.4786612
245	0xc02549d9	-2.5826323
246	0xbe6fb946	-0.2341052
247	0xbf5e31ad	-0.8679455
248	0xbd8c8561	-0.068613775
249	0xbf464e83	-0.7746355
250	0xbf9e1988	-1.2351542
251	0xbff5eaac	-1.9212241
252	0xbe1d7b23	-0.15379004
253	0xbef41c2f	-0.47677752
254	0xbe203437	-0.15644918
255	0xbe532b69	-0.20622028

weight f4 [256, 256]
0	0xbfdf0e97	-1.7426327
1	0xbdc61561	-0.096720465
2	0x3e1d2d54	0.15349323
3	0x3da549a3	0.08070686
4	0x3d4cd31a	0.05000601
5	0xbc9ad418	-0.018899962
6	0xbcbad5c5	-0.022807011
7	0x3ce16960	0.027516067
8	0xbe98cae0	-0.2984228
9	0x3f1ecf87	0.6203541
10	0xbc4d90ac	-0.0125466995
11	0xbe4a7b9a	-0.19773713
12	0x3e1716aa	0.1475474
13	0xbcb18633	-0.021670436
14	0x3d8042f7	0.062627725
15	0x3f5adcdc	0.85493255
16	0xbc917878	-0.01775764
17	0x3d62e944	0.05539824
18	0xbd903be6	-0.07042675
19	0x3ef9fd06	0.48825854
20	0xbfdd29f2	-1.7278426
21	0x3e2ac0ea	0.16675153
22	0x3c88145e	0.016611274
23	0x3df1eb76	0.11812489
24	0x3b09ea6d	0.002104427
25	0xbeb2c643	-0.34916887
26	0xbd244e7b	-0.040113907
27	0xbe8164b1	-0.25272134
28	0xbd526d55	-0.0513738
29	0xbfd211d9	-1.6411697
30	0xc0032473	-2.0490997
31	0x3c8a6acc	0.016896628
32	0xbc8c936e	-0.017160144
33	0xbfc3689e	-1.5266302
34	0xbf134bc2	-0.5753747
35	0x3f183145	0.5945018
36	0x3bbaad6a	0.005696942
37	0x3f0a1663	0.5394041
38	0xbdcc5cca	-0.099786356
39	0xbd964e75	-0.07339183
40	0xbe270308	-0.1630975
41	0xbb748614	-0.0037311362
42	0x3c59dc42	0.013297142
43	0x3aeebb94	0.0018213862
44	0x3c6792f0	0.014134154
45	0x3e8cb55e	0.27482122
46	0xc097fac7	-4.7493625
47	0xbe9a3b67	-0.30123445
48	0x3caeaa9d	0.02132159
49	0xc04369ad	-3.053325
50	0xbd8ba2c5	-0.06818155
51	0xbf5d4f65	-0.8644927
52	0x3dcf0604	0.10108569
53	0xbf732c0b	-0.9498908
54	0xbc960ee8	-0.018317655
55	0xbdcae0bc	-0.09906146
56	0xbd602676	-0.05472418
57	0xbedd2bcf	-0.43197486
58	0xbd5a119f	-0.05323946
59	0xbd3936d5	-0.045218308
60	0x3efe432c	0.49660623
61	0xc01ea1be	-2.478622
62	0x3d0fcd62	0.035107978
63	0xbd4a4cfd	-0.049389828
64	0xbf95aa01	-1.1692506
65	0xbe9d4644	-0.3071767
66	0x3e1e11c6	0.15436468
67	0xbede8227	-0.43458673
68	0xbd69d3da	-0.057086803
69	0xbf99f7d0	-1.2028751
70	0xbc9e7512	-0.019342933
71	0x3ebac8bf	0.36481282
72	0x3ec8042f	0.39065692
73	0xbe628120	-0.2211957
74	0x3d5a5e03	0.053312313
75	0x3cfc1347	0.03077091
76	0xbe8e579a	-0.2780121
77	0x3cea3ce6	0.028593492
78	0xbcde049e	-0.027101811
79	0xbeb51b3c	-0.3537234
80	0xc084b52c	-4.1471157
81	0x3ddae262	0.1068771
82	0xbe348f92	-0.17632893
83	0x3cd97437	0.026544673
84	0xbd54d636	-0.0519621
85	0xbda018d8	-0.078172386
86	0x3ea24b3c	0.31698024
87	0xbe83fab8	-0.2577722
88	0xc0481e40	-3.1268463
89	0x3d8f017e	0.069827065
90	0x3d6fcd3f	0.058545347
91	0x3cc594cd	0.024118805
92	0xbd920a05	-0.07130817
93	0x3d4c7130	0.04991263
94	0xbf99e09f	-1.2021674
95	0xbf946d8b	-1.159593
96	0xbe796ad3	-0.24357156
97	0xbf4b5aad	-0.79435235
98	0x3d719fb3	0.05899019
99	0xbe36ad00	-0.17839432
100	0x3ca12ee6	0.019675683
101	0xbcd9c9d5	-0.026585499
102	0x3ef17c39	0.47165087
103	0x3ea80ce9	0.3282235
104	0x3d74a305	0.05972578
105	0x3ca5335e	0.020166095
106	0x3ebe35d1	0.37150434
107	0x3d117a62	0.035517104
108	0xbdcbc70a	-0.09950073
109	0xc05960c7	-3.3965318
110	0x3a957049	0.0011401261
111	0xbd4adf92	-0.04952962
112	0xbc892a36	-0.01674376
113	0xbc02368e	-0.007947577
114	0xbc4b8ce7	-0.01242373
115	0xc07f4488	-3.9885578
116	0xbc286364	-0.010277603
117	0x3d9f5471	0.07779778
118	0x3dfcd94c	0.123461336
119	0x3d44e7a5	0.048072476
120	0xbe5259c3	-0.20542054
121	0xbd61454c	-0.054997727
122	0x3c638ead	0.013888997
123	0xbd9e7ebd	-0.07739017
124	0xbdb051fe	-0.08609389
125	0x3d449db5	0.048001964
126	0xbe072c72	-0.13200548
127	0x3c8efa03	0.0174532
128	0xbec1b9c6	-0.37837046
129	0xc010e0ae	-2.2637134
130	0x3ed006aa	0.40630084
131	0xbdeb931c	-0.11502668
132	0x3ca77c6c	0.020445071
133	0xbf3a89ce	-0.72866523
134	0xbd1debe1	-0.03855503
135	0x3d4a996e	0.04946273
136	0xbf5f0739	-0.87120396
137	0x3e1083f0	0.1411283
138	0x3d32bf5e	0.043639533
139	0xbe375f12	-0.1790736
140	0xbd83783d	-0.06419418
141	0xbfc73b5c	-1.556499
142	0xbc742fea	-0.014904002
143	0xbdfa2919	-0.1221487
144	0xbf340322	-0.7031728
145	0xbf4a1114	-0.7893231
146	0xbd58a298	-0.052889436
147	0xbe435e74	-0.19079
148	0xbd095cca	-0.033535756
149	0x3d526070	0.0513615
150	0xbe3ca0a1	-0.1842065
151	0x3eb290c6	0.34876078
152	0x3d554754	0.052069977
153	0x3e45b908	0.19308865
154	0x3ce7de2c	0.028304182
155	0xbf43137a	-0.76201594
156	0x3d340192	0.04394681
157	0xbf4d4bfc	-0.8019407
158	0xbedcea58	-0.4314754
159	0x3cc0e031	0.023544403
160	0xbf783db7	-0.9696917
161	0x3db49295	0.08817021
162	0x3ebee96d	0.37287465
163	0xbc92acec	-0.017904721
164	0xbf2e1cb2	-0.68012536
165	0xbfc4669e	-1.5343816
166	0xbd97d1e4	-0.0741308
167	0xbf833bde	-1.0252645
168	0xbe219822	-0.1578069
169	0xbec3e3b6	-0.38259667
170	0xc08ff43c	-4.498564
171	0x3e27b816	0.16378817
172	0xc077189c	-3.860877
173	0xbea460d0	-0.32105112
174	0xbf231d83	-0.63716906
175	0x3c8d91fc	0.017281525
176	0x3db684cc	0.08912048
177	0xbd210495	-0.03931101
178	0xc082bb64	-4.085375
179	0xbdc83bbd	-0.09777019
180	0x3de22680	0.110424995
181	0x3cca7bf1	0.024717303
182	0x3e182d3b	0.14861004
183	0x3cc10db1	0.023566099
184	0xba9466f9	-0.0011322192
185	0x3dc07dac	0.0939897
186	0x3f24e4bd	0.64411527
187	0xbff427b2	-1.9074614
188	0xbe09dd6b	-0.1346337
189	0x3c868d75	0.016424874
190	0x3d275fd2	0.040862866
191	0x3d62c81a	0.055366613
192	0x3e3fc4c6	0.18727407
193	0xbd5b35cc	-0.0535181
194	0xbcbc7c92	-0.023008619
195	0x3d371bb7	0.044704165
196	0x3d013999	0.03154907
197	0xbcbc0c23	-0.022955006
198	0x3e2238c3	0.15841965
199	0x3d325a57	0.043543186
200	0x3ca8dcad	0.020613039
201	0x3bf603f6	0.0075077964
202	0xbdbf617a	-0.09344764
203	0x3e4506ac	0.19240826
204	0x3e93bb7b	0.28853974
205	0x3eaf302e	0.34216446
206	0xbdd704bc	-0.1049895
207	0xbd013d9c	-0.031552896
208	0x3b3904c9	0.0028231612
209	0x3dd6ce0e	0.104885206
210	0x3db517bd	0.08842418
211	0x3c3cbd27	0.011519707
212	0x3d21454c	0.039372727
213	0x3e0c922e	0.13727638
214	0xbfb3c0cd	-1.4043213
215	0x3c98d147	0.018654479
216	0x3f98a547	1.1925439
217	0x3cab82af	0.020936338
218	0x3c91c194	0.0177925
219	0xbfe4f7db	-1.788814
220	0xbf128a43	-0.5724222
221	0x3c0f38af	0.008741542
222	0x3c67a972	0.01413952
223	0x3f79e09d	0.9760836
224	0xbc029323	-0.00796965
225	0xbce7e49e	-0.028307255
226	0xbd2f35ac	-0.042775795
227	0xbc8bc222	-0.017060343
228	0xbd71905c	-0.058975562
229	0x3ee500e8	0.44727254
230	0xbd7d6509	-0.061863933
231	0xbf14d03f	-0.5813026
232	0xbd859bb3	-0.06523838
233	0xbc36771b	-0.011136795
234	0xbcee94fd	-0.029123778
235	0x3e90eb41	0.28304484
236	0x3e79bdbd	0.24388786
237	0xbea52f7f	-0.322628
238	0x3e3e0658	0.18557107
239	0xbb88f50c	-0.0041796025
240	0xbe3fd9c3	-0.18735413
241	0x3e13cbce	0.14433214
242	0x3c352743	0.011056724
243	0xbbef1882	-0.0072966227
244	0xbff292b5	-1.8951021
245	0xbfa23c55	-1.2674662
246	0x3c0f7cf8	0.008757822
247	0xc04dff78	-3.2187176
248	0xc1212e46	-10.073797
249	0x3c93b282	0.018029455
250	0xbdddaba8	-0.108237565
251	0xbecf5715	-0.40496126
252	0xbf5ecc8d	-0.8703087
253	0x3ad31958	0.0016105575
254	0xbd405411	-0.046955172
255	0x3bd6f35e	0.0065597733

bias f4 [256]
0	0xbf460efb	-0.7736661
1	0xbd4aeeb3	-0.049544048
2	0xbe39a62b	-0.18129794
3	0xbd1527fd	-0.03641509
4	0xbf2a33a9	-0.6648508
5	0xbd554fd9	-0.0520781
6	0xbf6f33a0	-0.9343815
7	0xbd63a883	-0.055580627
8	0xbdf90809	-0.12159736
9	0xbd2a78d9	-0.041619156
10	0x3a9c90ff	0.0011945068
11	0xbe0cc65e	-0.13747546
12	0xbdb745ed	-0.08948884
13	0xbda88074	-0.082276255
14	0x3d4f4e20	0.050611615
15	0xbdbce5f9	-0.09223551
16	0xbd91f234	-0.07126275
17	0xbb9227d5	-0.0044603148
18	0xbdd64432	-0.10462226
19	0xbd67e978	-0.056619138
20	0xbd4367c3	-0.047706377
21	0xbdc7dfe9	-0.09759504
22	0xbb99a698	-0.004689049
23	0xbda904d3	-0.08252873
24	0xbae83526	-0.0017716035
25	0xbda2c2d1	-0.079473145
26	0xbde46a20	-0.11153054
27	0x3f1ec0c6	0.620129
28	0x3f22df8d	0.6362236
29	0xbd6ede5d	-0.05831753
30	0xbea85aeb	-0.32881865
31	0xbd73117a	-0.05934284
32	0xbddae1f6	-0.1068763
33	0xbdbb6bed	-0.091514446
34	0xbda70ad8	-0.08156365
35	0xbdd639a4	-0.10460213
36	0xbe14a566	-0.1451622
37	0xbd1eb2a0	-0.03874457
38	0xbde55c45	-0.1119924
39	0xbda0e2d7	-0.07855766
40	0xbddef768	-0.10887033
41	0xbde69259	-0.11258382
42	0xc00d539d	-2.2082283
43	0xbfbdcd57	-1.482829
44	0xbfb04a7c	-1.3772731
45	0xbd7ed37a	-0.0622134
46	0xbd8c88ca	-0.06862028
47	0xb9724b66	-0.00023107007
48	0xbe0fd671	-0.14046647
49	0xbe19fa43	-0.15036874
50	0xbdccfc74	-0.10009089
51	0xbcef2ae9	-0.029195266
52	0xbd6b4724	-0.05744089
53	0xbdcd3b75	-0.10021106
54	0xbd938736	-0.07203524
55	0x3bc1634a	0.0059017288
56	0xbdb353d5	-0.08756224
57	0xc021745c	-2.522727
58	0xbd8d274c	-0.06892261
59	0xc005fcac	-2.0935469
60	0x3ee513b1	0.44741586
61	0x3d74948a	0.05971197
62	0xbdafd6fb	-0.08585926
63	0xbcc057c8	-0.023479357
64	0xbda7b10f	-0.08188068
65	0xbee75f5f	-0.4518995
66	0xbf2fcbe3	-0.6867048
67	0x3f83c16f	1.0293406
68	0xbe28e7ad	-0.16494627
69	0xbd642748	-0.055701524
70	0xbd2e8e7d	-0.042616356
71	0xbd0c4a71	-0.03425068
72	0xbe34a7ae	-0.1764209
73	0xbdae7db8	-0.08520073
74	0x3edcdaaf	0.43135592
75	0x3ee66129	0.44996002
76	0xbfb82219	-1.4385406
77	0xbda5f510	-0.081033826
78	0xbd58220f	-0.052766856
79	0xbc0bf6f9	-0.00854277
80	0xbf8f4b6d	-1.1194893
81	0xbe2a2512	-0.16615704
82	0xbc9184e7	-0.017763568
83	0xbde2e551	-0.11078895
84	0xbe87591d	-0.26435176
85	0xbde7b310	-0.1131345
86	0xbdc39ec5	-0.09551767
87	0xbe725bff	-0.23667906
88	0xbd9671c4	-0.07345918
89	0xbe1480b7	-0.14502226
90	0xbe21a728	-0.15786421
91	0xbe0e17d0	-0.13876271
92	0xbcfba75e	-0.030719455
93	0xc0376405	-2.8654797
94	0xbe0c5c34	-0.13707048
95	0xbe2a09b9	-0.16605271
96	0xbd65018a	-0.05590967
97	0xbc9b3bf7	-0.018949492
98	0x3f2e0f39	0.6799198
99	0xbe154335	-0.14576419
100	0xbdae0e6c	-0.084988445
101	0xba4b3be8	-0.0007752762
102	0xbe4624e6	-0.19350013
103	0xbd34ebd4	-0.044170216
104	0xbd80554d	-0.0626627
105	0xbed72550	-0.42020655
106	0xbe54af5a	-0.20770016
107	0xbdf19111	-0.11795247
108	0xbda8674f	-0.082228296
109	0xbde0eef3	-0.10983076
110	0xbe50333b	-0.20332043
111	0xbee8bc70	-0.45456266
112	0xbd2d356f	-0.042287286
113	0xc02b2908	-2.6743793
114	0xbe35f48d	-0.1776907
115	0xbd4057fe	-0.046958916
116	0xbd6d10b3	-0.057877254
117	0xbd7a59e0	-0.061120868
118	0xbe005df2	-0.12535837
119	0xbda9df95	-0.08294598
120	0xbbc778ef	-0.0060874145
121	0xbd528fde	-0.051406734
122	0xbdc9090e	-0.0981618
123	0xbc45b508	-0.012067087
124	0xbdbb9bc2	-0.09160568
125	0xbd9ac2f3	-0.07556715
126	0x3ee4337e	0.44570535
127	0xbd62bf90	-0.05535847
128	0xbe2ab4d4	-0.16670543
129	0xbe1e1944	-0.15439326
130	0xbdae20a2	-0.08502318
131	0xbdbbc06f	-0.09167563
132	0xbdca0a26	-0.09865217
133	0xbd01162b	-0.03151528
134	0xbea3c09d	-0.3198289
135	0xbcfb9a1a	-0.03071313
136	0xbd0c3d76	-0.0342383
137	0xbb9564c2	-0.0045591304
138	0xbe1c09bc	-0.15238088
139	0xbcf75943	-0.03019393
140	0xbdf211ca	-0.11819799
141	0xbe71b38e	-0.23603651
142	0xbd380cd8	-0.044934124
143	0xbe19aaa2	-0.15006498
144	0xbe0e3b45	-0.13889797
145	0xbda5e4dc	-0.08100292
146	0xbdf6b3ca	-0.12046011
147	0xbead8524	-0.3389064
148	0xbdd45995	-0.10368649
149	0xbf50b711	-0.8152934
150	0xbdc8e94f	-0.09810125
151	0xbdb518fc	-0.08842656
152	0xbf53ad6e	-0.8268651
153	0xbdbf6072	-0.09344567
154	0xbd9178aa	-0.07103093
155	0xbd9d08c3	-0.07667687
156	0xbd80e545	-0.0629373
157	0xbdeb7c2c	-0.11498293
158	0xbdfbbb4a	-0.12291582
159	0xbfdf3e64	-1.7440915
160	0xbdc056f4	-0.09391585
161	0xbdd60df9	-0.10451884
162	0xbd6df89b	-0.058098417
163	0xbdb5cc1b	-0.08876821
164	0xc032df16	-2.794866
165	0xbd179c07	-0.037014034
166	0xbebfab40	-0.3743534
167	0xc0081c60	-2.1267319
168	0xbfa01000	-1.2504883
169	0xbfdbf251	-1.7183324
170	0xbb4b03b8	-0.0030977558
171	0xbdffea50	-0.124958634
172	0xbe00f2de	-0.12592646
173	0xbe418b53	-0.18900804
174	0xbd6627c0	-0.056190252
175	0xbd8d69a1	-0.06904913
176	0xbd366bd0	-0.04453641
177	0xbda47d39	-0.08031697
178	0xbdb7b513	-0.08970084
179	0xbe1a013c	-0.15039533
180	0xbd41d066	-0.047317885
181	0xbf6db214	-0.9284985
182	0xbe138ac4	-0.14408404
183	0xbd703ee1	-0.058653716
184	0xbdb4ddd6	-0.08831374
185	0xbe320e96	-0.17388377
186	0xbe38b4dc	-0.18037742
187	0xbcbb825b	-0.022889307
188	0xbd9375ef	-0.072002284
189	0xbd73d533	-0.059529494
190	0xbd2c6bd7	-0.04209503
191	0xba30df6d	-0.000674716
192	0xbe029a3c	-0.12754148
193	0xbe53433f	-0.20631121
194	0xbfeae5ac	-1.835134
195	0xbdba7df6	-0.091060564
196	0xbdbfa848	-0.09358269
197	0xbf712f93	-0.9421322
198	0xbda11dba	-0.07866998
199	0x3f48b775	0.78404933
200	0xbdb74e1c	-0.08950445
201	0xbdc8dc95	-0.09807698
202	0xbd751106	-0.059830688
203	0xbdd02e22	-0.10165049
204	0xbbdec158	-0.0067979507
205	0xbd78a4ad	-0.060703922
206	0xbcf62615	-0.030047456
207	0xbdb6bf4e	-0.08923207
208	0xbd86f947	-0.06590515
209	0xbd5ff169	-0.054673586
210	0xbdf38df2	-0.11892308
211	0xbd87b0ba	-0.06625505
212	0xbf84fee3	-1.0390285
213	0xbe2bb68a	-0.16768852
214	0xbdda1810	-0.10649121
215	0xbe3eafe3	-0.18621783
216	0x3f4bc5ec	0.7959888
217	0xbccf4278	-0.02530025
218	0xbd71312e	-0.058884792
219	0x3f8adc81	1.0848542
220	0xbdd2f849	-0.10301263
221	0xbdbedce6	-0.09319477
222	0xbfca57a3	-1.5807995
223	0xbe0a2f46	-0.13494596
224	0xbcd96edf	-0.026542125
225	0xbe088f6c	-0.13335961
226	0xc0301b36	-2.7516608
227	0xbfe34b1d	-1.7757298
228	0xbdb4647b	-0.08808228
229	0xbcece913	-0.028919732
230	0xbd7b5f86	-0.061370395
231	0xbfc576fc	-1.5426936
232	0x3f5217f3	0.82067794
233	0xbdedb70d	-0.1160718
234	0xbdb6d51f	-0.089273684
235	0xbdac6c22	-0.08419062
236	0xbd715a1f	-0.058923837
237	0xbf7d7791	-0.9901057
238	0xbd6e715f	-0.058213588
239	0xbd3c783b	-0.0460131
240	0x3c8080cb	0.015686413
241	0xbe02c696	-0.12771067
242	0xbdf2721d	-0.11838172
243	0xbcfe74ec	-0.031061612
244	0xbc9c7ef9	-0.019103514
245	0xc0131994	-2.2984362
246	0xbe0d2253	-0.13782625
247	0xbe093f20	-0.13402987
248	0xbd8ceb83	-0.06880858
249	0xbe0c60a8	-0.13708746
250	0xbe10a6a5	-0.1412607
251	0x3d15617b	0.036469918
252	0xbe889e31	-0.2668319
253	0xbdafd20f	-0.08584987
254	0xbe0a7ad0	-0.13523412
255	0xbddd6407	-0.10810094

weight f4 [1, 256]
0	0xbf8338dd	-1.0251728
1	0x3bdabe21	0.006675497
2	0xbca3be0e	-0.019988086
3	0xbb7910d8	-0.0038004424
4	0xbecacd89	-0.39609936
5	0xbb0ebdda	-0.002178064
6	0xbe089fef	-0.1334226
7	0xbc9950dd	-0.018715316
8	0xbcce90a6	-0.025215458
9	0xbeca70d7	-0.39539215
10	0xbb80adde	-0.0039269766
11	0x3cba212e	0.0227209
12	0x39c410f4	0.00037396664
13	0x3aa3d1a2	0.0012498389
14	0x3ca552f3	0.020181155
15	0xbd264555	-0.040593464
16	0xbcbbdfec	-0.022933923
17	0x3d38ffc3	0.04516579
18	0x3d2c1457	0.042011585
19	0x3c4c7c66	0.012480831
20	0x3c1da403	0.009621623
21	0xbd08aecc	-0.033369824
22	0x3b7afe32	0.0038298485
23	0xbcbad00b	-0.02280428
24	0x3ad68ae0	0.0016368292
25	0xbb93e522	-0.0045133987
26	0xbbaad42f	-0.0052132825
27	0xbd483603	-0.048879635
28	0xbda2691f	-0.079302065
29	0x3cf282ca	0.02960338
30	0x3d7ee59f	0.062230702
31	0xbcb386de	-0.021914896
32	0x3ce5308e	0.027977254
33	0xbbe80570	-0.0070807263
34	0x3b97a601	0.0046279435
35	0xbd5e5578	-0.054280728
36	0xbc7eb92e	-0.01554708
37	0x3d280745	0.041022558
38	0xbd1f5f22	-0.038909085
39	0xbd993f4b	-0.07482775
40	0x3b17aa5b	0.0023142311
41	0xbc4f19ce	-0.01264043
42	0x3d5b3c4e	0.053524308
43	0xbed5621e	-0.4167642
44	0xbe9e4f5b	-0.30919918
45	0xbcd26f19	-0.025687741
46	0xbca5d158	-0.020241424
47	0xbc8d5219	-0.017251061
48	0xbcc29352	-0.023751888
49	0xbeeb2b64	-0.45931542
50	0x3f8558d7	1.0417737
51	0x3c080ba8	0.00830356
52	0x3c12a55a	0.008950556
53	0x3d3187b0	0.043342292
54	0x3c5fb4f6	0.013653984
55	0xbd64c9bf	-0.055856463
56	0xbc830de8	-0.015997842
57	0xbda0178e	-0.07816993
58	0xbd27f95f	-0.041009303
59	0xc0016114	-2.0215502
60	0xbf84fc85	-1.0389563
61	0x3e1598b4	0.14609033
62	0xb9c5a6e5	-0.00037699114
63	0x3b2fd5c3	0.0026830293
64	0xbbe2a0e0	-0.0069161505
65	0x3c3dce12	0.0115847755
66	0xbf05ccff	-0.52265924
67	0x3dcff3de	0.10153936
68	0xbc1cb82b	-0.009565393
69	0xbd099265	-0.03358688
70	0xbceb6ff1	-0.028739901
71	0x3c55d80b	0.013051997
72	0x3baaa4e7	0.005207646
73	0x3bc74242	0.0060808966
74	0x3d744cb2	0.059643455
75	0x3dd8da70	0.10588539
76	0xbf13c28f	-0.5771875
77	0x3afedabc	0.001944385
78	0x3c5c8192	0.013458626
79	0xbc9fc008	-0.019500747
80	0xbd925ae7	-0.071462445
81	0xbc20eab4	-0.009821583
82	0xbca252e9	-0.019814925
83	0xbb4d798c	-0.0031352965
84	0x3b397624	0.0028299177
85	0xbc5b5939	-0.013387972
86	0xbd3a2427	-0.045444634
87	0x3bbf8729	0.00584497
88	0x3ce9071a	0.02844577
89	0x3bfa16a7	0.007632095
90	0xbd1c91bf	-0.03822493
91	0x3c9dcaa4	0.019261666
92	0x3c489fc3	0.012245121
93	0xbd1413e5	-0.036151785
94	0xbd381a77	-0.044947114
95	0xbce1e8b7	-0.027576787
96	0xbd03567d	-0.032064904
97	0xbbcbc035	-0.006217981
98	0x3e87980c	0.2648319
99	0x3c36bedc	0.011153903
100	0x3bc700fe	0.0060731163
101	0x3c30a92a	0.010782519
102	0xbce82ef5	-0.028342703
103	0xbc84192b	-0.016125282
104	0x3c419027	0.011814154
105	0xbae3816d	-0.0017357297
106	0xbd4b6c16	-0.049663626
107	0x3c50da01	0.012747289
108	0x3d32ada3	0.043622624
109	0xbbd8d47d	-0.0066171275
110	0xbd66fb79	-0.056392167
111	0x3dc90408	0.09815222
112	0xbc809ce3	-0.01569981
113	0x3d234488	0.03986028
114	0xbc4991c6	-0.0123028215
115	0xbd87532c	-0.06607661
116	0xbcd52625	-0.026019165
117	0x3c69e697	0.014276168
118	0x3c0cbffa	0.008590693
119	0xbcd52669	-0.026019292
120	0xbe44508e	-0.19171354
121	0x3bced809	0.0063123745
122	0xbb63bcaa	-0.0034749904
123	0xbc5edf97	-0.013603113
124	0x3bc80c37	0.0061049717
125	0xbc7f1d20	-0.015570909
126	0x3fafbb79	1.3729087
127	0x3d0fcc93	0.035107207
128	0xbc15dcc6	-0.009146875
129	0x3d225e99	0.039640997
130	0xbced3451	-0.02895561
131	0xbaebad08	-0.0017980644
132	0x3b8e9e73	0.0043523847
133	0x39ff1c6d	0.0004865857
134	0xbd361aeb	-0.044459265
135	0x3c509227	0.012730158
136	0x3c7b752d	0.015347761
137	0x3ab14d17	0.0013527003
138	0x3d0e04d7	0.034672584
139	0x3b505a84	0.0031792233
140	0x3b2d6dd2	0.0026463163
141	0xbbe82ff4	-0.0070857946
142	0xbbc6969f	-0.006060436
143	0xbd542f8e	-0.051803164
144	0x3d8a42af	0.06751
145	0xbd888104	-0.06665233
146	0xbc985527	-0.018595291
147	0x3b6d4a29	0.0036207533
148	0x3c17c272	0.009262668
149	0xbcbf642b	-0.023363193
150	0xbc92bfe5	-0.017913768
151	0xbc92f442	-0.017938737
152	0xbc9a7986	-0.018856775
153	0x3d2fea02	0.042947777
154	0x3c07ff57	0.008300624
155	0x3c674d9c	0.014117625
156	0xbd0b3721	-0.033988122
157	0xbcfaeb66	-0.030629825
158	0xbd04b4e8	-0.03239909
159	0xbcb85790	-0.02250269
160	0xbc9f4f84	-0.019447096
161	0xba51ed3b	-0.00080080674
162	0x3d8b0378	0.06787771
163	0x3c3a05e1	0.011353941
164	0xc00d50c8	-2.2080555
165	0x3b1a1783	0.002351255
166	0x3961b4e4	0.00021525059
167	0x3d867174	0.06564608
168	0xbd52d690	-0.051474154
169	0x3c7c41a6	0.015396511
170	0xbb3c6ef7	-0.0028752664
171	0xbcb73d30	-0.022368044
172	0x3cc1b24e	0.023644593
173	0xbcaf79e0	-0.02142042
174	0xbbccd405	-0.0062508606
175	0x3caf7b30	0.021421045
176	0xbd37b2bd	-0.044848192
177	0x3c5f4201	0.013626576
178	0xbc9d9c22	-0.019239489
179	0x3cc4d3e9	0.024026828
180	0x3ce70b34	0.028203584
181	0xbe1ea44c	-0.15492362
182	0x3c756354	0.014977295
183	0x3ca0bb1d	0.019620473
184	0xbd063d41	-0.03277326
185	0xbcfc1262	-0.030770484
186	0x3cbb78d5	0.022884766
187	0x3bb985c0	0.005661696
188	0x3b38c4aa	0.0028193393
189	0xbca91b90	-0.020643026
190	0x3c07e73d	0.008294878
191	0xbc416a4c	-0.011805128
192	0xbca06bc4	-0.019582637
193	0x3c83f7a9	0.016109305
194	0xbecfda65	-0.4059631
195	0x3c914fe4	0.01773829
196	0xbc599383	-0.013279798
197	0xbf7945e9	-0.973723
198	0x3d24987b	0.04018448
199	0xbda9c206	-0.0828896
200	0x3bdd0b9e	0.0067457696
201	0x3ccd5a44	0.025067456
202	0xbbdf7ab5	-0.0068200477
203	0x3c2b6016	0.01045992
204	0x3bf97b2c	0.00761356
205	0x3d0a1e7f	0.03372049
206	0x3c8dca79	0.01730846
207	0xbc70f5ec	-0.01470707
208	0xbc9cf7ff	-0.019161223
209	0x3d17924b	0.03700475
210	0xbcb78a0c	-0.022404693
211	0xbda2c87b	-0.07948395
212	0xbe726b74	-0.23673803
213	0xbe1342db	-0.14380972
214	0xbce0db60	-0.027448356
215	0xbd1bc87e	-0.038033
216	0xbcdc394f	-0.026882796
217	0x3e10b246	0.14130506
218	0x3c60ec40	0.013728201
219	0x3ddc7ea9	0.10766346
220	0xbcdf31c5	-0.027245412
221	0x3c1efc50	0.009703711
222	0xc051f908	-3.2808247
223	0x3cf81f86	0.030288469
224	0xbcc88d32	-0.02448139
225	0x3c23bd6b	0.009993891
226	0xc03165cb	-2.771838
227	0x3f412a84	0.754555
228	0x3b562e23	0.0032681308
229	0x3d24b23c	0.04020904
230	0x3b4b18b4	0.0030990066
231	0xbeea00ee	-0.45703834
232	0x3e2d8620	0.16945696
233	0x3c83db1e	0.016095694
234	0xb99244af	-0.00027898463
235	0x3cb3cb8d	0.021947647
236	0xbc9286d7	-0.017886562
237	0xbae1bcce	-0.0017222406
238	0xb9f7b54e	-0.00047246594
239	0x3bdc2def	0.006719343
240	0xbcdf3dbe	-0.02725112
241	0xbc50453d	-0.01271182
242	0xbcf24c70	-0.029577464
243	0xbcf23567	-0.02956648
244	0x3c29f740	0.01037389
245	0xbf95d85a	-1.170665
246	0xbc0cc922	-0.008592876
247	0xbba4d7de	-0.005030616
248	0x397afbb2	0.00023935622
249	0xbc3b989f	-0.011449962
250	0xbb854ad1	-0.0040677567
251	0xbbf3e625	-0.007443207
252	0xbd066012	-0.032806464
253	0x3ab8a350	0.0014086757
254	0xbb2ba2f6	-0.0026189662
255	0x3b52064e	0.0032047215

weight f4 [1, 256]
0	0x3f0498bf	0.5179557
1	0xb9629353	-0.00021607922
2	0x3bc24fbc	0.0059299152
3	0x3ce272c8	0.027642623
4	0xbe2af0c0	-0.16693401
5	0xbb351b4e	-0.0027634683
6	0x3e9de42a	0.30838138
7	0x3c9c91f4	0.019112565
8	0x3d4482b1	0.0479762
9	0x40843126	4.1309996
10	0x3bdf2fd6	0.0068111224
11	0x3d19bab5	0.037531573
12	0xbcf36f09	-0.029716032
13	0x3cfd6126	0.030930113
14	0xbc42e687	-0.011895782
15	0xbd828846	-0.06373648
16	0x3c0f19b1	0.008734153
17	0x3c50f43c	0.0127535425
18	0xbb135555	-0.0022481282
19	0x3b967941	0.0045920913
20	0x3dcb97a1	0.0994103
21	0x3ca618ae	0.02027544
22	0xbc88b64d	-0.01668849
23	0x3cb36193	0.021897113
24	0xbd2fdd2a	-0.042935528
25	0x3d79e0d5	0.061005432
26	0x3c9c67ca	0.01909246
27	0xbea705d5	-0.32621637
28	0x3c9a029f	0.018800078
29	0x3d2d7614	0.042348936
30	0x3d99d871	0.07511986
31	0x3d9bceea	0.07607825
32	0x3bd6e183	0.006557645
33	0xbd5f43f1	-0.054508153
34	0x3c59a914	0.01328494
35	0x3c660dcc	0.014041375
36	0x3d9f8a26	0.077900216
37	0xbd10f75c	-0.03539215
38	0xbbb4d784	-0.0055188555
39	0x3df31d22	0.11870791
40	0x3bb57910	0.0055381134
41	0x3d7efe05	0.06225397
42	0x3f8679eb	1.0505956
43	0x3e6e5eab	0.232783
44	0x3d35cb0b	0.04438309
45	0x3ca19035	0.019722084
46	0x3cdb9560	0.026804626
47	0x3c93caa6	0.018040966
48	0x3df2e252	0.118595734
49	0x3eb0c86a	0.34527904
50	0x3fcf921c	1.6216464
51	0xbc4842af	-0.01222293
52	0x3d07fba8	0.033198982
53	0xbce07978	-0.02740167
54	0x3d192ed0	0.03739816
55	0x3c40262e	0.011727853
56	0xbc667bdd	-0.014067617
57	0x3f687ae7	0.90812534
58	0xbb51d46c	-0.0032017482
59	0x3ff04c89	1.8773357
60	0xc02c629c	-2.6935186
61	0xbd8c9880	-0.068650246
62	0xbceb2199	-0.028702544
63	0x3b390654	0.0028232532
64	0x3a6ce2ff	0.00090365106
65	0x3ed90fad	0.42394772
66	0x3fe46b50	1.7845249
67	0x3f116cb6	0.56806505
68	0xbcc39bd0	-0.023878008
69	0x3ca95b4c	0.020673417
70	0xbdb03fdf	-0.086059324
71	0x3be7de44	0.0070760567
72	0x3c7dc9ff	0.015490054
73	0x3d489f10	0.04897982
74	0xbdc648e1	-0.09681869
75	0x3c9b7c5b	0.018980196
76	0xbc4dc73f	-0.012559711
77	0x3ca75408	0.020425811
78	0xbd2eca02	-0.04267312
79	0x3d092c42	0.033489473
80	0x3f14e3a2	0.5815984
81	0x3c98974e	0.018626835
82	0xbd079dfe	-0.033109657
83	0x3d9104dd	0.07081006
84	0x3c5450d8	0.012958728
85	0xbbe6757b	-0.0070330477
86	0xbd077348	-0.033068925
87	0x3bc97e42	0.0061490843
88	0x3db50c4b	0.08840235
89	0xbbb2da83	-0.0054581775
90	0x3b88745f	0.004164263
91	0xbba91da2	-0.005161003
92	0xbca82960	-0.020527542
93	0x3f1512b8	0.5823169
94	0xbb7a8c6f	-0.0038230678
95	0x3c8c20c0	0.01710546
96	0xbc1e522e	-0.009663148
97	0x3a92cf6a	0.001120073
98	0x3ee3b2bc	0.444723
99	0xbce2dfe3	-0.027694648
100	0x3c2d9c4f	0.010596349
101	0x3cd0104f	0.025398402
102	0x3d9fbfaf	0.078002326
103	0xbd8f8c38	-0.070091665
104	0x3d7fbb3c	0.06243442
105	0x3d8be017	0.06829851
106	0xbb871430	-0.0041222796
107	0x39ff1262	0.00048651086
108	0x3b9b6d60	0.004743263
109	0x3c8243a1	0.015901389
110	0x3e8de65b	0.2771481
111	0xbf20c5b0	-0.6280165
112	0x3d1b4514	0.037907675
113	0x3edbb185	0.42908874
114	0x3d83c4e4	0.06434038
115	0x3ba72290	0.0051005557
116	0xb99b0c73	-0.0002957318
117	0xbc3b6762	-0.011438223
118	0xbd33eb03	-0.043925297
119	0x3cd67688	0.026179567
120	0x3e77c54f	0.24196361
121	0xbce5686d	-0.028003896
122	0x3db43453	0.087990426
123	0xbc73fb5a	-0.01489147
124	0x3bdac9b4	0.006676877
125	0x3c2bd479	0.010487669
126	0x40549149	3.3213675
127	0xbd0739c1	-0.033014063
128	0xbcc26eae	-0.023734417
129	0x3d03dc60	0.032192588
130	0x3cf02901	0.029316427
131	0xbc805dbc	-0.015669696
132	0x3cff19a1	0.03114015
133	0x3c9c86ad	0.019107187
134	0x3c00689e	0.007837443
135	0xbd98b9fc	-0.07457349
136	0x3df1e37b	0.118109666
137	0xbc34a48b	-0.011025558
138	0xbd2f7d49	-0.04284409
139	0xbd40812b	-0.046998184
140	0x3d0c689c	0.03427945
141	0xbc30db7f	-0.010794519
142	0xb93a872d	-0.00017788699
143	0x3c36f7cc	0.011167478
144	0x3d81d5f7	0.06339639
145	0x3d499dd6	0.04922279
146	0x3d8925d4	0.06696668
147	0x3d18f3df	0.03734195
148	0xbc84a94e	-0.016194012
149	0x3da22f80	0.07919216
150	0x3cc2463f	0.023715137
151	0xbb401bba	-0.0029313401
152	0x3e904a4e	0.2818169
153	0x3b3a2dca	0.002840864
154	0x3d09e831	0.0336687
155	0x3c986ec2	0.018607501
156	0x3ca1f5a5	0.019770453
157	0xbd221200	-0.039567947
158	0x3ccbc613	0.024874723
159	0x3f0e79ee	0.556548
160	0x3d9f6fab	0.07784971
161	0xbc7abba0	-0.015303522
162	0xbbd297b8	-0.0064267777
163	0xbd0eca31	-0.034860794
164	0x3fcb2395	1.5870234
165	0x3c8107ce	0.015750792
166	0x3e9618d4	0.29315817
167	0x3dc2d39e	0.09513019
168	0xbeafea17	-0.34358284
169	0x3eadf121	0.3397303
170	0x3c3d382f	0.01154904
171	0x3d6ad22e	0.05732935
172	0xbd4060f0	-0.046967447
173	0x3d3dc9b7	0.04633495
174	0xbd8d65a5	-0.06904153
175	0xbd1df0bc	-0.03855966
176	0xbce093a2	-0.027414147
177	0x3c4ab32c	0.0123718195
178	0x3a31b2b0	0.00067786407
179	0xbcdb66b6	-0.026782375
180	0x3c9dedb6	0.019278388
181	0x3f7fe35e	0.9995631
182	0x3cba821b	0.022767117
183	0xb9d76407	-0.00041082522
184	0x3d9de662	0.07709958
185	0xbd272fbe	-0.040817015
186	0x3c876d97	0.016531749
187	0xbb9519ff	-0.004550218
188	0xbd894851	-0.067032464
189	0x3be53856	0.006995241
190	0xbce64f86	-0.028114092
191	0x3c930839	0.017948257
192	0x3d3e3d95	0.046445448
193	0x3d874746	0.06605391
194	0x3f839646	1.0280235
195	0xbcf739ed	-0.030178988
196	0xbdffba3f	-0.124866955
197	0x3eb71a8d	0.35762444
198	0xbc8f1f3e	-0.017470952
199	0xbe6ee313	-0.2332881
200	0x3cae0a15	0.021245042
201	0x3cb9884f	0.022648005
202	0x3cb0ed2a	0.021597464
203	0x3c5a03d8	0.0133065805
204	0x3c07b4f3	0.008282888
205	0x3bd35ea5	0.0064504915
206	0x3d8009f6	0.062519
207	0x3d02ffa0	0.031982064
208	0xbcbb6a4a	-0.022877831
209	0x3ce7ced7	0.028296871
210	0x3bf2c872	0.007409149
211	0x381d5227	3.7508227e-05
212	0x3f2c978a	0.6741873
213	0x3dd40b2b	0.103536926
214	0x3c4c5e7b	0.012473698
215	0x3da28859	0.079361625
216	0xbf366663	-0.7124998
217	0x3aeff896	0.0018308337
218	0xbcec6fca	-0.028861899
219	0x3fda3e95	1.7050349
220	0x3d2650af	0.04060429
221	0x3d24ca97	0.040232267
222	0x3fc4235c	1.5323291
223	0xbce368b2	-0.027759884
224	0xbcfb9c1e	-0.03071409
225	0x3e2fc358	0.17164361
226	0x40711e5b	3.7674778
227	0x3ff7ac70	1.9349499
228	0xbcbd659e	-0.023119744
229	0x3cccdb4e	0.025006916
230	0x3c86fbe7	0.016477538
231	0x3f28e24d	0.6597031
232	0xc01e255e	-2.4710307
233	0xbc1dcacb	-0.009630869
234	0xbc6d659f	-0.01448956
235	0x3d05915a	0.03260932
236	0xbcbe7dbd	-0.023253316
237	0x3e926d86	0.28599185
238	0x3d3e3f05	0.04644682
239	0x3efa9d55	0.4894816
240	0xbc32f287	-0.010922081
241	0x3cf603d2	0.030031119
242	0x3c062038	0.0081863925
243	0x3e0cc153	0.13745622
244	0x3d96f78a	0.07371433
245	0x3f5a88bc	0.8536489
246	0x3d0cbffb	0.034362774
247	0xbcba0d13	-0.022711312
248	0x3d3f337f	0.04667997
249	0x3d870e3a	0.065945104
250	0x3ca1f2c9	0.01976909
251	0xbcd89786	-0.02643944
252	0x3cb4c146	0.022064816
253	0x3cacaea1	0.021079363
254	0x3d297bc1	0.041377787
255	0x3d763c7f	0.060116287
