SAC/data/exp/InvertedDoublePendulum-v2/2022-07-05-16-45-05_critic.pt (torch, 280599 bytes, 5 tensors)

weight f4 [256, 12]
00000000: b39c 6f3d 8f87 5bbe adba 9abf e16b 713e
00000010: 0d59 dabc 9948 723e 6f1d 81be c163 c9be
00000020: 9726 223d de53 84bd 84c3 5cbe 70a0 78be
00000030: adbc 773e f5c7 433f 0f2d e8bc 0747 9cbd
00000040: 7471 a23d 6fcb c63e 72b3 7fbc f041 a5ba
00000050: 9eb0 8cbe 664a c1bd 6010 69bc 82bf bd3e
00000060: d756 3fbe 4bc7 22bf 11c7 a2bf 42e3 313e
00000070: 3d76 39bd 88e1 f6bd 09e0 aebe 2fd9 95be
00000080: 46f7 75bc ae60 26be e6ef 8dbd 2f2b 40be
00000090: 89f2 58be 1ff8 0d3d 0042 cb3e e35e 1bbe
000000a0: 973a 80bd ed8e 69be 0c87 353e 57ff 7dbe
000000b0: 0842 e2bd 68e2 3d3d 18a5 843e 9ab8 993e
000000c0: 3bca 24be eace af3e 608a 89bf 9c20 45be
000000d0: da04 cdbd cb8e 7dbe 19f8 ff3d 6290 9abe
000000e0: e370 efbd 34d3 30be c834 6e3d 383a 5dbe
000000f0: 4a3c 873e ad4d 17be 1bb5 80bf 33f4 353e
00000100: e51f 333e 473c 3f3e 1b3f 8dbe 0565 8cbe
00000110: ad35 8a3d a833 b23d cef3 6ebe 9c0f 9c3e
00000120: 77b7 a23d 92b9 41bd d6ba 6c3f 77b2 6e3e
00000130: 28b0 ac3e 7202 c7be c856 45bd fb11 513e
00000140: 0e4c c13c 18c7 2b3d 209c 023c 8898 4f3e
00000150: b1da 93bd 1e63 47be 001b e9bf b6f2 4b3e
00000160: 01e9 133e 15ab 1fbd 8e5c 8fbe 7060 98be
00000170: f0ac 3ebe 143c 873e 524e 7ebe e9b3 95be
00000180: c4f5 4fbe 0efe 89bf acb3 d1bf cec4 ffbc
00000190: 6114 23be 22cb 8fbe 2bd7 edbe ff4a a7be
000001a0: 38fa a73e f2a7 5cbd 8060 e03c 99b4 4dbe
000001b0: 3301 393e 79fd 4dbe b1fa 0c3f 4ad9 2c3f
000001c0: 6b41 ed3e 0480 1ebd 79c1 dbba f066 aabd
000001d0: 1214 1cbe 6cc7 80bd 9e6c 11be b958 863d
000001e0: b863 92be 7d6a 68bf 574a 6fbf 7b40 bd3e
000001f0: 0ca3 7bbd b5af b1be 1172 e4bd 57d9 f53d
00000200: b967 3ebe 38a1 dabd 4098 87bd 5099 f0bd
00000210: dd52 2a3e 5540 713d 5959 44bf a826 083e
00000220: e8a7 5ebc 98c3 6e3e 745e 033e fcf7 8fbd
00000230: f325 61be 707a 8abc 9084 423d 4fe7 89be
00000240: 978b 1a3e b83f 8e3e ad0b 5abf c062 203e
00000250: ab3e 913d 4e6d 983e cbac 583d d936 8dbd
00000260: de9a 95be 3415 0b3e 90c2 f2bc dd91 6f3d
00000270: 1e3e 81be 890e 4e3f 7f4f 7ebf f55e 20be
00000280: 62a8 9a3e aa67 263e a8e6 05be 4bae 47be
00000290: e491 123c b408 bc3d b077 7f3e 89a1 563e
000002a0: 182a 503e d687 33bf 5e19 d23e 1286 cd3e
000002b0: 8d19 023f 6a9c 06be 53cd 8c3d e826 5dbe
000002c0: ffcb 0abe 1893 683e 457f 30be 81f3 90bd
000002d0: c038 d63e b298 37bf 3240 4ebf 0dd5 9c3c
000002e0: 605e ec3b 66b9 8bbe 46bd 6cbe d4b7 0abe
000002f0: f424 aabd fcda 853e 6038 753d 8c82 80be
00000300: 051d 39be 1d77 7f3c 547f 0c3f c806 9fbd
00000310: 45d7 a93d 1c47 563d 982a 77be b33e 2c3e
00000320: 9bdb d33d b83c bcbd 5ed4 24be 0e1a ae3e
00000330: 8b6e 363e 5021 223f 9228 b4be dd52 32be
00000340: 287f fdbe e1a3 08be d6c6 453e b56b 07bd
00000350: ba8f cb3e 385a 733e 5050 213e a7c8 e93d
00000360: 1050 4abe 8422 65bf b1ef b7bf 5386 563e
00000370: ffbf 16be 8621 18be bbf8 c7be 4d13 b4be
00000380: 1013 173e 800b 1c3d d8b8 5dbe 7b77 99be
00000390: 049a 9c3e ceff c03f 67dd 873e 807d 9e3e
000003a0: 4166 163d b944 9a3e b8ab 533e f312 4bbd
000003b0: e74e a73e afec 8cbe 5b7b 623e 0d60 84be
000003c0: e6cd 96be 210a 943e a077 eb3f 3932 263e
000003d0: af63 a4be 5618 393b 1667 b73e dc1e c33e
000003e0: 7d82 0c3e c0d9 563c a6aa 273e 8fcf 263e
000003f0: 3c2d 993e becc 2e3f 1e71 bb3f 64b4 9f3e
0.05849905 -0.2143843 -1.2088219 0.23576309 -0.02665379 0.23660506 -0.2521777 -0.3933392
0.039587583 -0.06461309 -0.21558958 -0.24279952 0.24193068 0.76476985 -0.028341798 -0.07630735
0.07931796 0.38827083 -0.015606748 -0.0012608152 -0.27478498 -0.094380185 -0.0142250955 0.3706017
-0.1868547 -0.63585347 -1.2717 0.17371848 -0.045278776 -0.120547354 -0.341553 -0.2926726
-0.015012568 -0.16247818 -0.069305226 -0.18766473 -0.2118627 0.034660455 0.39698792 -0.15172915
-0.06261175 -0.22808428 0.17727298 -0.24804436 -0.11047751 0.046358496 0.25907207 0.30023652
-0.1609277 0.3433755 -1.0745354 -0.1925072 -0.10010691 -0.24761502 0.12498493 -0.3018828
-0.11691453 -0.17268068 0.058155805 -0.2160424 0.26413184 -0.14775725 -1.0055269 0.17768936
0.17492636 0.18675338 -0.27587208 -0.27420822 0.06748519 0.08701259 -0.23335192 0.3048066
0.079451494 -0.047296114 0.9247259 0.23310266 0.33728147 -0.38869053 -0.048178464 0.20417015
0.023595836 0.041937917 0.007971793 0.2027303 -0.072194465 -0.19471404 -1.8211365 0.19916806
0.14444353 -0.038981516 -0.280003 -0.29761076 -0.18620658 0.26413023 -0.24834564 -0.29238823
-0.20308596 -1.0780656 -1.6382957 -0.031221773 -0.15925743 -0.28084666 -0.46453223 -0.32674405
0.3280809 -0.053871103 0.027389765 -0.20088424 0.18066864 -0.20116223 0.55070025 0.67519057
0.46338972 -0.038696304 -0.0016766033 -0.08320415 -0.15242031 -0.06288037 -0.1420159 0.06559891
-0.28591704 -0.9078749 -0.9347281 0.36963257 -0.06143479 -0.34704366 -0.11154569 0.12004345
-0.18594255 -0.10675281 -0.06620836 -0.11747992 0.16633172 0.058899242 -0.76698834 0.13295996
-0.013589837 0.233168 0.12829 -0.07029721 -0.21987133 -0.016904086 0.047489703 -0.26934287
0.15092312 0.2778299 -0.85174066 0.1566267 0.07092031 0.29770893 0.052899163 -0.06895227
-0.29219717 0.13582307 -0.02963379 0.058488715 -0.25242704 0.8049093 -0.9934005 -0.15661223
0.3020659 0.16250482 -0.1307627 -0.19500081 0.008945916 0.091813475 0.24948001 0.20960058
0.20328557 -0.70129144 0.4103498 0.4014135 0.5082024 -0.13145605 0.068751 -0.21596873
-0.13554381 0.22712362 -0.1723605 -0.07077695 0.41840172 -0.7171737 -0.80566704 0.01914456
0.007213399 -0.27289885 -0.23119077 -0.13546687 -0.083078295 0.26143634 0.059868217 -0.250996
-0.18077476 0.015592364 0.5488179 -0.07764965 0.082930125 0.05231391 -0.24137342 0.16820793
0.10344621 -0.09191269 -0.16096637 0.34004253 0.17815606 0.6333208 -0.35187203 -0.17414422
-0.49511075 -0.13343765 0.19314131 -0.0330617 0.39758092 0.23764884 0.15753293 0.114152245
-0.19757104 -0.8950579 -1.4370023 0.20949678 -0.14721678 -0.14856538 -0.39056954 -0.35170975
0.14753366 0.038096905 -0.21652544 -0.2997397 0.30586255 1.5078065 0.26536104 0.30955124
0.03671861 0.30130556 0.20670974 -0.04957862 0.32677385 -0.27524325 0.22117369 -0.2585453
-0.29453963 0.28913978 1.8395882 0.16230096 -0.32107303 0.0028243265 0.35820836 0.3810948
0.13721652 0.013113439 0.16373691 0.16290115 0.29917324 0.6828116 1.4643896 0.31192315

bias f4 [256]
00000000: 1c91 813e d06d 283e 1050 033d 4093 46be
00000010: d97e 3c3d f79c 583e 3151 0abe e132 803d
00000020: c04f 40bd 8dfb 9f3d 288a 603e 53a4 5f3e
00000030: e4f5 283e f3f2 80be bfc6 3b3d fd3e f0bd
00000040: 0835 3a3e 00b6 bfbe 8c3d ed3d f77a 07be
00000050: 4e00 1abe ab71 09be 7aa9 e8bc dfdc 953e
00000060: 7c4c 613e 0761 d73d 8309 c33c 9b44 ce3d
00000070: 0c61 b4bd 9fa8 913c d8a0 f0bd 2470 483e
00000080: 3e43 823e 5ab9 1a3e ff54 23be dbfa c5bd
00000090: c582 2abe 2725 e43d 38e6 fa3e 87b4 a13e
000000a0: 941e 1a3e e00e a83e 0737 1f3e bfaf 213e
000000b0: 481f d43e 98c6 893e fb9d 82bb 7986 4dbd
000000c0: 9285 a43e 942e 7c3e a69a 333e 3034 88be
000000d0: 8067 bd3b 30ee 34bd bc7d 013c c3c4 82be
000000e0: d7ff 33be 7bd3 4c3e a521 9cbe 6c2a eabd
000000f0: 301e 1cbe 23a3 64bc ef82 823e 1778 91bd
00000100: 2cea d6be a739 be3e 72b5 afbe 8fbc 2d3e
00000110: 5db3 d43d c091 9c3e 0bdd 54be 6efd 4c3d
00000120: 6302 89bd 63f1 3a3e 275f fb3e 3523 823e
00000130: 72fa a93d 5811 a13e d212 93be fc37 ebbc
00000140: bfbe f7bb 6d04 6d39 acbf 73be d915 3bbc
00000150: d1be c43e c0bf 123e 8fc8 95bd 2176 5abd
00000160: 7f4e 983e 9cf9 8fbe 2b35 1a3e c0a9 dfbb
00000170: e1f0 48be a4fe c8bd d1f8 1e3e a307 46be
00000180: 0e13 343e 47f3 9a3e 98fe 30bd 46ff 1f3e
00000190: f434 01bd d984 5b3e 0150 f13d 368b 18be
000001a0: 0e84 803d d4bc 533e a05c 8fbd 05f7 62bd
000001b0: 2c22 123d a3d9 94be b326 54be 2996 8f3e
000001c0: b001 5a3e 77f1 9fbe e2af 083e 3aaa f3bd
000001d0: c294 36bd 178c 343e 0af6 87bd 141f 613d
000001e0: b696 933d 0948 c6bc 23df b83e db3e b73e
000001f0: 15c3 69be d86e 5ebe 9aee a2bd dc8a 8fbe
00000200: 0005 16bc dfb8 d0bc da67 563e f2fa 8d3e
00000210: 201a c8ba aae9 34be f1fe d03d fad3 bf3e
00000220: 5a0a 243b 3ca5 63be a4fd 1d3e 2b7e 053e
00000230: ce41 83bd 6e62 53be 0fde 2ebd a333 7fbd
00000240: a92e 39bd 4d64 f33d d96c b7bc 560f 033e
00000250: 128f ac3e c9c5 adbe 4423 03bd 7aa6 7c3d
00000260: da95 a53e 8e1c 1dbe 876e 163e 933e a1bd
00000270: 1835 b1bc 2e9b 663e 98eb 69bd 0d75 60bd
00000280: f020 77bd ab3b 82bd da1f 293e 5ed1 92bd
00000290: 2f4d 363d 9a3b db3c a1b8 903e 9333 8e3e
000002a0: 9cfa b4bd cbb7 943d 4b7f 8a3e f227 143f
000002b0: 77a9 fcbc c811 083e c209 fe3d 4a24 523e
000002c0: 04c6 a93e 6e75 c3bc 54cb e23d edbe d9bd
000002d0: efc6 29be 1dd2 6b3b 222b 963d 9f54 583e
000002e0: 1a06 b1bd 0141 dd3e 3df2 3e3e ccbd 193e
000002f0: daa1 42be 0ce9 203e 3515 883e b2ef 323e
00000300: d36e 2e3e 3809 03be a081 95be 2829 b23c
00000310: c5d1 80be 83d4 2ebe 7bb4 213c 322d 073e
00000320: 32d6 6e3e c7b3 c63e 9e4a 4d3e 5e69 233e
00000330: accb 753d c6bc bf3e 51a9 9e3e 8f00 3e3e
00000340: 5fa0 c5bb f410 e83d 1584 e93e 0c87 7ebe
00000350: 3307 903e 9905 1d3e e936 ac3e dedb 6fbd
00000360: 5803 b43e 27ca 9abe d9b4 9a3e b7cc d3bd
00000370: 49ef d2bd ede9 273e 1823 493e 2080 303e
00000380: 870b 353e 0373 d13c 2aa6 40be 99c7 853d
00000390: 2750 c0bd 7232 e1bd 6461 79bd 709f 06be
000003a0: 0c3b 023d 696b b13d 0ed8 16be 0289 983d
000003b0: f983 45be 2cb5 583d 09de 173e e8eb cf3e
000003c0: ed89 1c3e 15df 14be a19f 41be b01c 463d
000003d0: 15dd 88be e0fb a1bd 8c1a 633e 6fc4 a5be
000003e0: a8ec 073d 8fdd 12bd 7c96 2ebd 3ddd 233e
000003f0: 1138 85bd 12a2 3a3e cad1 09bd 45b5 8bbe
0.25306022 0.1644814 0.032058775 -0.19392109 0.04601941 0.21153627 -0.13507535 0.062597044
-0.046951056 0.078116514 0.21927702 0.21840028 0.1650005 -0.25185356 0.045843836 -0.11730764
0.18184292 -0.37443542 0.11584005 -0.13230501 -0.15039179 -0.13422267 -0.028401125 0.29270074
0.22001833 0.10516553 0.023808246 0.10071679 -0.08807573 0.0177806 -0.117494285 0.19574028
0.25441927 0.15109769 -0.15950392 -0.096669875 -0.16651447 0.11139899 0.49003768 0.31583044
0.15050727 0.3282385 0.15548335 0.15789698 0.41430116 0.26909328 -0.003986118 -0.05017707
0.32133156 0.24627143 0.17539462 -0.26602316 0.0057801604 -0.044172466 0.007903513 -0.25540742
-0.17578064 0.20002548 -0.3049442 -0.114338726 -0.1524589 -0.01395491 0.2549052 -0.071029834
-0.41975534 0.3715336 -0.3431812 0.1696646 0.10385773 0.30579948 -0.20787446 0.050046377
-0.06689908 0.18256144 0.49096033 0.25417486 0.08299722 0.31458545 -0.28725296 -0.028713219
-0.0075605805 0.0002260373 -0.23803586 -0.011418783 0.3842683 0.1433096 -0.07313644 -0.053335313
0.29747388 -0.28120124 0.15059344 -0.0068256557 -0.19623138 -0.09814194 0.15524603 -0.1933885
0.17585394 0.3026373 -0.04321155 0.15624723 -0.03154464 0.21437396 0.11782838 -0.14896855
0.062751874 0.20677501 -0.07000089 -0.055411357 0.03567712 -0.29072294 -0.20717888 0.2804425
0.21289706 -0.3123891 0.13348344 -0.118977025 -0.04457546 0.17631565 -0.06638725 0.05496128
0.0720648 -0.02420427 0.3610774 0.35790142 -0.22828324 -0.21721971 -0.07955666 -0.2803563
-0.0091564655 -0.025478778 0.20938054 0.2773052 -0.0015266575 -0.17667261 0.10204876 0.37466413
0.0025030584 -0.22231 0.15428787 0.1303641 -0.064090356 -0.20643017 -0.04269224 -0.062305104
-0.045210514 0.11884365 -0.02239077 0.12798819 0.33702904 -0.3393996 -0.032016054 0.061682202
0.3234089 -0.15342924 0.146906 -0.07873263 -0.021631762 0.22520134 -0.057109445 -0.05479913
-0.060334146 -0.06359037 0.16516057 -0.0716884 0.0445072 0.026761819 0.2826586 0.27773723
-0.088368624 0.07261618 0.27050242 0.5787345 -0.030842526 0.13288033 0.12404205 0.20521656
0.33158886 -0.023859706 0.11073938 -0.10632119 -0.16579793 0.0035983392 0.07332446 0.2112603
-0.08643742 0.43213657 0.18647094 0.15013808 -0.19007054 0.157139 0.2657868 0.17474249
0.17034464 -0.12796485 -0.2920046 0.02174814 -0.2516004 -0.17073254 0.00986969 0.13200834
0.23323897 0.38809034 0.20047995 0.15958163 0.06000869 0.3744871 0.30988553 0.185549
-0.0060310806 0.113313586 0.45608583 -0.24856204 0.28130493 0.15334167 0.33635643 -0.05855929
0.351588 -0.30232355 0.302161 -0.10341781 -0.10299546 0.1639783 0.19642293 0.17236376
0.17680179 0.025567537 -0.18813387 0.06532211 -0.09390288 -0.1099595 -0.060883895 -0.13146758
0.031794593 0.08663065 -0.14730856 0.07448007 -0.19288625 0.052907154 0.14830793 0.4060967
0.1528699 -0.14538224 -0.1890855 0.048367202 -0.26731172 -0.079093695 0.22178096 -0.3237643
0.033184677 -0.035855826 -0.04262398 0.16002364 -0.065048344 0.18225887 -0.033647336 -0.27286735

weight f4 [256, 256]
00000000: b80c 543e 9a5f 653d 2619 cd3e c0c3 4fbb
00000010: 3b23 683d a748 523e a04f 4a3e f740 6c3e
00000020: fb9e c6be 82e9 c5bd ab38 dd3d 0f77 7e3e
00000030: b6aa 073e c545 653e 8387 2cbc dcfc 3bbe
00000040: 55af 84bd 9e0c 8b3d e978 843e c8ed 1abe
00000050: eb2d bbbe c76e b63e a5a6 ac3d 3f08 2cbb
00000060: c9ff 263e 2c03 6d3e 2a58 b9bd a69a 8a3e
00000070: de24 003c 8e72 ab3c 3fcc b33c 80a7 2f3e
00000080: 7d6c a53e d7ab 863e ac66 86be 258c 8d3e
00000090: 0bf9 87be d6bf 683e 0eaa 033d ce4d 51bd
000000a0: 151c 0d3e 33c7 7fbe 2c35 ca3e 0fac 9b3e
000000b0: 6a12 3cbc 216d c93c 9e14 f1bd 87f9 fcbb
000000c0: 0893 103d a217 573e e31b ce3e 874c 933e
000000d0: fe39 fc3e 69cd 46be c49b 7dbe 33c7 0c3f
000000e0: 4d30 b5be 36f7 203d 178c ca3d 8d97 0abf
000000f0: ea5d 36be c68f 5abe b308 443d bf51 3d3e
00000100: 186b 853e a188 823d c45d b1be b86d 40be
00000110: e404 973e d116 193f 0c0f e0bc 3f4c 043f
00000120: fcf0 fa3d 63d2 843e a1a6 e8bb 4f8e d33e
00000130: 2651 793e f11d 223d 16df 96be 410e b63e
00000140: 1596 dbbd 1b0f 69be 88b8 b1be 1fa1 b93d
00000150: b955 863c 9aaf 2f3e 4105 b13d 212f 573e
00000160: 0630 243e f917 3c3e 60b8 abbd b49e 943e
00000170: 2795 58be 4a36 d7bc 978a 813c 9c53 4a3e
00000180: c5dc a43e 7278 dfbb ed40 d4be 141b 29be
00000190: 8d58 553e cacc babd 8f39 5d3e c62f 35be
000001a0: 79bb abbc 9e96 a03e 3633 e33e 984c 3dbe
000001b0: 8327 1ebd fab9 fabd 81e2 2ebe 8e87 663e
000001c0: bdef cd3d fa4a 81bd 86ad 21be 919c 29bc
000001d0: 7759 a4be 1648 bfbd 758d b53e dc28 c53e
000001e0: 2815 2d3e 298b 47be 41cf 66be dd17 a8bd
000001f0: e93a 183d 311b efbd 2702 043e 6216 bc3e
00000200: 9d6c 5c3e 2103 89be 0c5b a13e 1c7c 863d
00000210: 1242 db3c a5cb 843e 4b93 bc3e 76cf e73a
00000220: 1c63 ab3d b8ae daba cb1e 9dbb 8048 e73d
00000230: 49e2 c23d d2f3 22bf 4438 7abe c0ae f2bd
00000240: 343a a93d df30 b53e 0ca0 8a3e b7d3 b43e
00000250: aa89 863e 6197 98bd d004 1f3d 98c1 0d3e
00000260: 57a2 3f3e 6262 97be cb06 b13e 00eb 36bf
00000270: 465d 0a3f 3a4b 93bc dc55 d13d 4cf2 783e
00000280: dc27 823e 1d9f 113f 738f 84be c00f 1ebe
00000290: f0fb d9bd 7045 1dbd b240 a2bc d4ee b33e
000002a0: 1018 eb3c 6236 8c3e 5a13 24be 11a5 eb3c
000002b0: 3b23 0dbe e073 873e 49d8 ee3e 93e6 b83c
000002c0: afd9 b63b af86 813d a487 823d 353b 83be
000002d0: f6fe a8be 53fc 273e 9a9c 73bc 84bb 343d
000002e0: bb01 f53c 2bd9 e0bc 66cd f9bc 7a61 35bd
000002f0: 5e96 543e 1d0c 0e3e d818 403e 0c8f 9d3e
00000300: e1c0 883e 590c 723e c2fd 79be 48f0 bdbd
00000310: 734e 5c3e 80ec 713e 5e3c abbe eac1 df3d
00000320: 84dc f03c e908 853e d11c e53e f960 433e
00000330: 60d8 683e 7005 a43c 6ffa 0c3c 8867 703b
00000340: 50dc 1a3e 61c0 143e 9275 96bd e732 09bf
00000350: 8c09 2dbd a10b 4dbe 89bb 893e e1bd e5bd
00000360: 51ee d6bd f922 f33d 6962 433e c635 f6ba
00000370: 844f d33e 87ae 21be a00d f83e 940b cb3e
00000380: 9633 523e 683f 553c d897 7a3e e04e b33e
00000390: ae40 633e e6e7 5b3d 0ee0 8f3e f10b 8c3d
000003a0: 1ce9 7a3c 276b 743d 9c42 9fbe ac11 77be
000003b0: 3fd6 f33d e930 293e 222b 2d3e 0768 813d
000003c0: 3a6b aebe 9f5b 403f 0e87 40be 0271 3f3e
000003d0: 12b9 9a3e e668 ec3e c1e1 0d3e ba4b dbbd
000003e0: 2cc7 6a3e a04f a3be bbc7 743f 86be d3bc
000003f0: 7bfb 56be 149f 463d e28a 203e 075f 21bf
0.20707977 0.055999376 0.4005825 -0.003170237 0.056674223 0.20535527 0.19756937 0.23071657
-0.38793167 -0.09663679 0.10801824 0.24850105 0.13248715 0.22389896 -0.010530355 -0.18358177
-0.064787544 0.06789516 0.25873497 -0.15129769 -0.3655847 0.3563139 0.084302224 -0.0026250032
0.16308512 0.23145741 -0.09050019 0.27071112 0.00782129 0.020928647 0.021947978 0.1715374
0.32309332 0.26302978 -0.26250207 0.27645984 -0.26557192 0.2272943 0.0321446 -0.05109959
0.13780244 -0.24978332 0.39493692 0.30404708 -0.011479 0.02458817 -0.117715105 -0.0077201757
0.03529647 0.21005109 0.4025565 0.28769323 0.49262995 -0.19414295 -0.24766451 0.54991454
-0.35388413 0.03929826 0.09890001 -0.541375 -0.17809263 -0.21343908 0.04785986 0.18488215
0.2605827 0.06373716 -0.3464185 -0.18791854 0.2949592 0.5980044 -0.027350925 0.5167884
0.12252995 0.25941762 -0.007099942 0.4131951 0.24347362 0.039579336 -0.29467076 0.3555775
-0.10721985 -0.22759669 -0.347111 0.090639345 0.016398298 0.1715683 0.0864358 0.21014072
0.16033944 0.1836852 -0.08384776 0.2902733 -0.21150647 -0.026271004 0.015813155 0.19758457
0.32199684 -0.006819778 -0.41455784 -0.16514236 0.2083456 -0.09121092 0.21603988 -0.17694005
-0.020963417 0.31364912 0.44375008 -0.1848625 -0.0386119 -0.122425035 -0.17078592 0.22512648
0.10055492 -0.06313129 -0.1578885 -0.01035227 -0.32099506 -0.09339921 0.35459486 0.38507736
0.16902602 -0.19486679 -0.22539999 -0.082076766 0.037165556 -0.11675108 0.12891446 0.36735827
0.21525808 -0.267602 0.31514776 0.06566641 0.026764903 0.25936618 0.36831126 0.001768573
0.08368513 -0.001668415 -0.0047949306 0.11293125 0.09515817 -0.6365329 -0.24435526 -0.11849737
0.082630545 0.35388848 0.2707523 0.35317776 0.26276904 -0.07450748 0.03882295 0.13843381
0.18714271 -0.29567248 0.34575495 -0.7145233 0.54048574 -0.017980207 0.102214545 0.24311179
0.25421035 0.5688341 -0.25890693 -0.15435696 -0.106437564 -0.0383963 -0.01980624 0.3514315
0.028697997 0.2738524 -0.16023007 0.028765233 -0.1378297 0.26455593 0.46649387 0.022570884
0.005580149 0.06324517 0.06373528 -0.2563111 -0.3300702 0.16404848 -0.01486888 0.04412414
0.029908052 -0.027447304 -0.03049345 -0.044282414 0.20760486 0.13871808 0.18759477 0.307732
0.26709655 0.23637523 -0.24413207 -0.09274346 0.21514301 0.23625374 -0.33444494 0.10925658
0.029402025 0.2598336 0.44748548 0.19079961 0.2273879 0.020022124 0.00860463 0.0036682803
0.15123105 0.14526512 -0.073466435 -0.53593296 -0.042245433 -0.20023967 0.2690089 -0.11217857
-0.10494674 0.11871905 0.19080509 -0.0018784336 0.41271603 -0.15789233 0.48447895 0.3965727
0.20527491 0.0130156055 0.24471986 0.35021114 0.22192642 0.053687952 0.28100628 0.06838215
0.015314367 0.0596725 -0.31105506 -0.24127835 0.119060986 0.16522564 0.16910985 0.0631867
-0.34066182 0.751398 -0.1880152 0.18695453 0.30219322 0.4617378 0.1385565 -0.10707803
0.2292754 -0.31896687 0.95617265 -0.025847685 -0.2099437 0.048491552 0.1567798 -0.63035625

bias f4 [256]
00000000: 030e 553c 7dc0 153d a441 103e c840 2a3e
00000010: 5293 6cbc a8c9 37bc 3ea0 653d ccd5 163e
00000020: dacb 493e 6b11 ef3d 1980 433d 57fd 703d
00000030: b425 07ba 61e4 c13d 5e17 943d 3312 e83c
00000040: fba8 78bb d088 37bd 5f39 363d d025 ccbc
00000050: 8f97 403d 34d5 003e 528c 393b 6576 60bc
00000060: 8793 763a 141a e83d 3821 4dbd e2cd 053e
00000070: a113 9a3d 9be5 0b3e 8a18 703d 0833 b33d
00000080: 2582 fb3d bace 5e3d 2162 9b3d 3423 8ebe
00000090: ab05 0d3d b35c 753d c51a 473e b998 903d
000000a0: 0dce 873d c7a9 713d 0928 123d 690a 893d
000000b0: 63a9 bfbb f69f 09bd a924 48bd 71e7 3f3d
000000c0: 6805 2a3e 0b98 243e 3a40 19bd 1f09 123e
000000d0: ea08 1d3d 2dc6 b03c b34e d63c 96d1 c43c
000000e0: 7b08 7f3d 794c e23d c97f 3ebd 451f 3b3d
000000f0: efa5 aebb 9fc4 a73d fe66 b73b 303c 603e
00000100: f937 8a3d ceb3 933d f9d9 c5bc 5c55 10bd
00000110: 9818 f53c 0127 b33c d7d1 163e a622 e8bc
00000120: 9742 1a3e 42d9 d33d 1b38 6d3d 004c 7b3c
00000130: d0d8 323e afeb 073c 1095 dcbc ade1 9b3d
00000140: a895 d13c ef2c 1e3e 3ab0 49bd 7911 043d
00000150: dab7 073d f99a fe3c 61b3 c53d 794a 573e
00000160: bac1 043e 8b2e 013e 4ed6 fcbc 992f 463d
00000170: 3e35 233e 0904 39bc e6a3 18ba 51bb 1ebd
00000180: 1031 50bc e2bd f03d a604 1a3e 0203 643d
00000190: 9cd2 043e 7b0e ba3d d697 e63c e589 323e
000001a0: 5e8d 8ebb c79e 1a3e 0473 5bbd 74bf d93c
000001b0: f21d 8a3d d9d0 413d 2d5e 08bd 1983 4d3d
000001c0: 244b e43d dff4 023c 96b9 963d 1040 0a3d
000001d0: 3a3d 3a3c d932 1c3d d015 2e3d ca36 2e3e
000001e0: 7dd1 823d 2d9a 2b3c 3064 2b3e 2204 5e3d
000001f0: bb41 003e 11e9 43bd 8c49 863c 1dd3 0f3c
00000200: 0976 1e3d c6cb 433d 2f69 293d 254a 5abd
00000210: cac4 d03d 9210 6c3e a3a7 5a3d 8248 673d
00000220: c6ac c23d d32b bcbc eaaf 213c 7489 2a3d
00000230: b473 78bb ef11 45bd 2a21 0a3c 278b 1b3e
00000240: ba70 963c 7e27 793c a80d b53d f128 833d
00000250: fa5e 973d e2f8 603d 297f 1d3d 0b80 023e
00000260: e183 82bc 8dba 96bd 3a7f ad3c 01bd c63d
00000270: 4203 36bc c17d c4bc 014b c03c 81bd 4abd
00000280: 454f 333d 0e62 a83d ca3b 0a3d 06fd 243c
00000290: 23f1 dbba 34e4 4b3e f834 713d f6f1 db3d
000002a0: e706 7c3d d31c cf3d 7988 ad3c 771c 803d
000002b0: 361f cc3c 4c87 5ebd 7508 313d 15e0 293e
000002c0: 65ed 163d 9dec f73d 1ad9 073c 911f d4bb
000002d0: 8a36 243d 2585 953d 9465 643d 0557 7bbc
000002e0: 6c0b c43d c851 6a3d 1ce2 353d caf7 cc3d
000002f0: b349 7e3d 3c8b 273e 9ed7 9abb e1ff bd3d
00000300: b9c1 253e aca4 883c 6126 653d c57b afba
00000310: 2fac 393d 5020 693d 6442 f73d 8d63 363d
00000320: 4afc db3d 3276 343c 995e 303c f872 a03d
00000330: a7ba a0bc 3f99 6e3d cb9f 073e e1dd 36bd
00000340: d7f3 4e3d 3783 513e 902a ac3d dcb6 1fbd
00000350: eae1 40ba 0161 183d 92b6 053d c5a3 a83d
00000360: 9ae2 403c e6f1 183e 21a8 f23d 40e9 ce3c
00000370: b5cc 2f3e 2cba 1a3e a4cd 263e 7def 813c
00000380: 6586 403a 5148 513d 9fb5 e03d 7c05 9b3d
00000390: 6ce2 e63d a782 473d 471a d83d c8cf 1f3d
000003a0: e590 ac3c 83cd 223e 1fc0 d13d a8f0 823e
000003b0: 9707 6b3d a698 533d d1dd 053e 953a e0bc
000003c0: 5409 063d 039e 893d 6035 ad3d f606 c63c
000003d0: ac73 c6be dbfc 19bd 1e91 513d fee3 ed3b
000003e0: c657 103d ae42 503e fb3f 62be dfd6 47be
000003f0: 6dda aebc dd3d 9b3d 8f8c 39bb e055 9bbc
0.013003829 0.036560524 0.1408754 0.16626275 -0.014439421 -0.011217512 0.056061022 0.14729995
0.1970667 0.11673244 0.047729585 0.058835354 -0.00051554595 0.09467388 0.072310194 0.02832899
-0.0037942517 -0.04480821 0.044488307 -0.024920374 0.047019538 0.1258133 0.0028312397 -0.013700102
0.00094061386 0.11333099 -0.050080508 0.1306682 0.07523275 0.13661806 0.058617152 0.08749968
0.122806825 0.05439637 0.07587076 -0.27761233 0.034429234 0.059902858 0.19443806 0.070603795
0.06631098 0.058999803 0.03568271 0.06691439 -0.00584905 -0.033599816 -0.048863087 0.04685158
0.16603625 0.16073625 -0.037414767 0.14261292 0.03833858 0.021578873 0.026160574 0.02402572
0.062263947 0.11049742 -0.046508584 0.045684118 -0.0053298394 0.08191799 0.0055969944 0.2189796
0.06748957 0.072120294 -0.024151789 -0.035237655 0.029918954 0.021869184 0.14728485 -0.028336834
0.15064465 0.10344173 0.057914834 0.015337944 0.1746552 0.008295937 -0.026926547 0.076114036
0.025584057 0.15446828 -0.04924033 0.032243226 0.03313432 0.031079756 0.096533544 0.21024503
0.12964526 0.12615411 -0.030863907 0.048385236 0.15938279 -0.011292466 -0.00058227626 -0.038752858
-0.01270701 0.11754967 0.15040836 0.05566693 0.12970966 0.09084793 0.028148573 0.17435415
-0.0043503484 0.15099631 -0.053576484 0.02658055 0.06743993 0.047318313 -0.033292938 0.050173853
0.111471444 0.007992952 0.073596165 0.0337525 0.011367137 0.03813443 0.04250127 0.17013088
0.06387613 0.01047377 0.16737437 0.05420316 0.12525074 -0.04782969 0.016392492 0.008778361
0.038686786 0.047801755 0.041360077 -0.053293366 0.101937845 0.23053196 0.053382527 0.056465633
0.0950561 -0.022970116 0.009868601 0.04163499 -0.0037910761 -0.048112806 0.0084307585 0.15189801
0.0183643 0.01520717 0.08840495 0.06404293 0.07391162 0.054924853 0.038451348 0.12744157
-0.015932025 -0.073598005 0.02117883 0.097040184 -0.011109175 -0.023985745 0.023473265 -0.04949713
0.04377677 0.082218274 0.033748426 0.010070091 -0.0016780238 0.19911271 0.058888406 0.1073951
0.06153002 0.1011292 0.02118324 0.06255429 0.024917226 -0.054328248 0.043220956 0.16589387
0.03684749 0.12105677 0.008291507 -0.0064734896 0.040091075 0.07300786 0.055760935 -0.015340571
0.09572491 0.0572069 0.044405088 0.100081995 0.062082004 0.16361707 -0.0047254106 0.09277321
0.1618718 0.016680084 0.055944804 -0.0013388327 0.045330223 0.05691558 0.1207321 0.044528533
0.1074148 0.011014508 0.010764741 0.078344285 -0.019620253 0.058251616 0.1324455 -0.044645194
0.050525513 0.2046021 0.08406556 -0.038992748 -0.00073578826 0.037201885 0.032644816 0.082343616
0.011772776 0.14936027 0.11848474 0.025257707 0.17167933 0.15110081 0.16289383 0.015861267
0.0007344245 0.051094357 0.109721415 0.075694054 0.11273655 0.048708584 0.10551887 0.039016515
0.021065185 0.15898709 0.10241722 0.2557423 0.057380285 0.05165925 0.13072897 -0.027371684
0.03272374 0.067195915 0.08457446 0.024173241 -0.38760126 -0.037594657 0.051163785 0.007259845
0.035239957 0.20337936 -0.22094719 -0.1951556 -0.021344388 0.07580159 -0.002831254 -0.018961847

weight f4 [1, 256]
00000000: fffd 0d3f 39ec acbf 91a1 e8bf 6ea5 3f40
00000010: 82d1 0f3f 1cdf 83bf 20e0 a2bf cf9c 75bf
00000020: ba36 a4bf 1771 bbbf 8e2f 183f 5234 d33f
00000030: b804 1f3f 842e 9fbf 9de3 8cbf 2966 013f
00000040: 3d30 0f3f eb9b a7bf aaa7 083f a7ca 0a3f
00000050: b522 bebf 4433 93bf fca7 89bf c7eb 113f
00000060: 41c8 0a3f c1ef 9dbf ec3a 143f 2f34 82bf
00000070: 2cea a3bf 17dc 7fbf 56a8 bbbf 83c5 9bbf
00000080: 8cd3 84bf d4de 84bf 0df0 9cbf 770a c33f
00000090: 2e6d 183f 9f52 113f 2f5e f2bf e521 89bf
000000a0: 3912 abbf f270 013f 9efc 0d3f 4261 0d3f
000000b0: 0073 233f f957 0d3f 0f80 123f 1f7a 91bf
000000c0: 8951 3f40 c06c b1bf ae80 0c3f f0de 3c40
000000d0: ccae a9bf 47af 173f 9224 89bf 0e5c 123f
000000e0: 5204 173f 5609 45bf eb24 1d3f ea5b 173f
000000f0: 2502 183f 2bc8 7cbf ccda a7bf d23e 82bf
00000100: 302f 073f 688c 0640 2281 c6bf 9844 0abc
00000110: 4d86 183f 68b3 143f 299f 9abf 2944 133f
00000120: 76ad 4340 cefe 9bbf f6ec 073f a1f3 123f
00000130: a4db 9dbf df96 b2bc 10b0 1b3f 751b a1bf
00000140: 7249 063f e986 3940 67df 21bd f8aa 053f
00000150: 2b8f 1c3f 3f07 103f 04c9 8ebf 299f 3f40
00000160: c6a3 01c0 8fe7 4140 f772 0a3f d8a4 193f
00000170: b722 92bf bde2 0d3f cc5c 113f ad72 013f
00000180: 5cf1 123f d5b2 0140 2dbf 90bf 69cf 0b3f
00000190: ab1f 46bf 0c4f 8abf 33dc 1b3f ef08 3c40
000001a0: 0429 f33f b874 4140 034b 1a3f b17f 88bf
000001b0: 5715 93bf 1499 183f 87cb 013f e7fa 1c3f
000001c0: f35b 3d40 0034 a5bf c542 83bf c86a a5bf
000001d0: bc81 a4bf 3808 b3bf bcc7 94bf 56f2 98bf
000001e0: ab08 a4bf 3cbf 7abf b72f 4040 c011 bcbf
000001f0: a3e1 9abf 6b08 143f ebdb 173f fc45 1d3f
00000200: 44a2 0e3f 4547 103f c621 a4bf cb25 093f
00000210: a2ae 78bf b12d 7ebf 54f9 e9bf 23d8 0e3f
00000220: 0609 9dbf 645b 153f 7fab 9fbf 9caf 023f
00000230: eac8 193f a423 76bd 9889 193f 4407 8bbf
00000240: 0b6b 0b3f db21 1a3f 07e5 a7bf fac1 193f
00000250: 2f57 84bf 428b f63e 1ea8 0d3f 1120 3e40
00000260: 46db 183f c246 dbbe 6f87 133f bff2 a3bf
00000270: ce3d 163f f371 053f df99 3bbb d2bb 0f3f
00000280: f867 1c3f 4336 87bf 5e72 e1bc 42ab 9ebf
00000290: 73a3 1a3f 15a5 a2bf 87f4 abbf 24a2 8dbf
000002a0: 1dd0 083f 1341 1240 c7c5 0a3f 8830 0d3f
000002b0: 846a 193f f4bb 173f 0755 85bf 5e43 63bf
000002c0: 756e 89bf f78c aebf 37f2 0f3f f852 163f
000002d0: 0dba 02bd ec3f 76bf 0ead 99bf 7161 0a3f
000002e0: eda4 85bf 3fbd a1bf a47d 8fbf 0232 9bbf
000002f0: d4bd afbf 872c 8fbf 586d 0d3f 289f 4240
00000300: 9e97 92bf e848 203f 289e b8bf 51dd 103f
00000310: fdac 0a3f f6e3 a3bf dcdd 8abf 0713 0e3f
00000320: e313 a8bf 30bb 42bf 8b86 163f 9648 94bf
00000330: c0a6 063f 06d8 0640 9f61 6dbf 928c 133f
00000340: 16a2 0a3f d48b 9fbf 0232 86bf c8a0 173f
00000350: a167 c2bf 7f8e 173f 2c36 fd3e 46df 86bf
00000360: 675c abbf 86d8 a5bf 8e93 9fbf be32 91bf
00000370: 7cb4 8ebf 504f 76bf d301 8cbf e158 143f
00000380: 7a8a 96bf dc3a 0f3f f69f 80bf 2ebe 9fbf
00000390: 402c 3f40 55dd 0d3f 0d0a 86bf 50bd 97bf
000003a0: b40c 133f 85df 85bf 3a78 e1bf 28aa 8ebf
000003b0: 1c49 84bf b3ae 183f c8cb 98bf fed5 223f
000003c0: 7df1 85bf 7926 fa3e 3e54 a9bf b969 103f
000003d0: b83c a63f fc6e 003f 080c 173f d47b ed3f
000003e0: 64c1 7dbf d4c1 87bf c207 8c3f 9319 b13f
000003f0: e750 0b3f 6a55 afbf 1ee3 0f3f c25e 1e3f
0.5546569 -1.350959 -1.8174306 2.994472 0.5617906 -1.0302463 -1.2724648 -0.95942396
-1.2829201 -1.4643887 0.5944756 1.6500342 0.62116575 -1.243607 -1.1006962 0.5054651
0.5593298 -1.3094457 0.53380835 0.5421547 -1.4854342 -1.150002 -1.075439 0.5700039
0.54211813 -1.2338792 0.5790241 -1.0172175 -1.2805839 -0.99945205 -1.4660747 -1.2169651
-1.0377059 -1.0380502 -1.2260758 1.5237569 0.59541595 0.56766695 -1.8934993 -1.0713469
-1.3364936 0.50562966 0.5546359 0.5522653 0.6384735 0.5521236 0.5722665 -1.1365393
2.9893515 -1.3861313 0.5488385 2.951107 -1.3256469 0.59251827 -1.0714285 0.57171714
0.5899097 -0.7696737 0.6138446 0.59124625 0.5937827 -0.9874293 -1.3113647 -1.0175421
0.5280638 2.1023197 -1.5508158 -0.008439206 0.59579927 0.5808625 -1.2079822 0.5752588
3.0574622 -1.2187135 0.5309595 0.57403 -1.2332654 -0.021800457 0.60815525 -1.2586504
0.5245582 2.8988593 -0.039519694 0.52214 0.61155957 0.56261057 -1.1155095 2.9940894
-2.025621 3.0297582 0.5408167 0.60017157 -1.1416844 0.554241 0.5678222 0.50565606
0.57399535 2.02654 -1.1308342 0.5461336 -0.7739207 -1.0805373 0.6088287 2.9380453
1.8996892 3.022749 0.6027071 -1.0663968 -1.1490887 0.5960858 0.50701183 0.61320347
2.9587371 -1.2906494 -1.0254751 -1.2923212 -1.2852092 -1.3986883 -1.1623454 -1.1948955
-1.2815145 -0.9794805 3.0029123 -1.4692917 -1.2100109 0.57825345 0.59319943 0.6143491
0.5571635 0.5635875 -1.2822807 0.5357329 -0.9714147 -0.9928847 -1.8279214 0.5579855
-1.2268379 0.58342576 -1.2474211 0.5104921 0.60072196 -0.060092583 0.59975576 -1.0861592
0.5446021 0.6020791 -1.3116769 0.6006161 -1.0339106 0.4815312 0.5533465 2.9707072
0.59709585 -0.4282742 0.5762853 -1.2808455 0.58688056 0.52127 -0.002862565 0.56145966
0.61096144 -1.0563434 -0.027520355 -1.2396014 0.60405654 -1.2706629 -1.3433999 -1.1065106
0.53442556 2.2852218 0.54208034 0.5515218 0.59928155 0.5927117 -1.0416573 -0.8877467
-1.0736834 -1.3636769 0.56228966 0.5872035 -0.031915713 -0.9619129 -1.2005937 0.54054934
-1.0440956 -1.2635878 -1.1210217 -1.2124636 -1.3729806 -1.1185464 0.5524497 3.0409641
-1.145252 0.62611246 -1.4423265 0.565877 0.5417021 -1.2803943 -1.0848956 0.55497783
-1.3131069 -0.76066875 0.58799046 -1.1584651 0.5259819 2.106935 -0.9272708 0.5763637
0.54153574 -1.2464547 -1.0484011 0.5922971 -1.5187875 0.59201807 0.49455392 -1.0536888
-1.3387574 -1.2956703 -1.2466905 -1.134361 -1.114883 -0.9621477 -1.0938057 0.5794812
-1.176101 0.5594919 -1.0048816 -1.2479913 2.9870758 0.5541585 -1.0471817 -1.1854649
0.5744126 -1.0458838 -1.7614815 -1.1145678 -1.0334811 0.5964157 -1.1937189 0.63607776
-1.0464321 0.48857477 -1.3228834 0.5641132 1.298728 0.5016935 0.59002733 1.8553414
-0.99123216 -1.0606027 1.0939867 1.383593 0.5442032 -1.3697941 0.5620593 0.6186334
