SAC/data/exp/InvertedDoublePendulum-v2/2022-07-05-16-45-05_critic_2.pt (torch, 280599 bytes, 5 tensors)

weight f4 [256, 12]
000000 9c 0b 41 be d1 65 d1 3d 7f 15 84 be c9 6a c4 3e
       -0.18852085 0.10224498 -0.2579765 0.3836272
000010 f8 c3 93 3e 42 85 89 3d fc 3f ad 3d a4 07 69 3e
       0.2886045 0.0671487 0.0845947 0.22756821
000020 1f a7 cf 3b b0 7e e7 3d f2 5a 78 be a8 5d 53 be
       0.006337061 0.113034606 -0.24253443 -0.20641196
000030 25 53 17 be 6f a2 01 3f e5 de bc 3f 13 66 66 3e
       -0.14777811 0.5063848 1.4755522 0.22499876
000040 69 df b9 3d 24 de b6 3e 47 7d c5 3e 52 d2 63 3e
       0.09075815 0.35716355 0.38572142 0.222482
000050 cd 96 91 3e c8 80 4d 3e 92 79 7e be cf 20 57 3e
       0.28435364 0.20068657 -0.24851063 0.21008609
000060 30 0c 1c 3e 34 3f eb bd 03 29 03 bf 06 18 f6 3e
       0.15239024 -0.114866644 -0.51234454 0.48065203
000070 04 41 c6 3e cd 72 9a 3c a5 28 aa 3c d9 c8 9a be
       0.38721478 0.01885357 0.020771334 -0.3023136
000080 fe 9b 4e 3e 44 1f 01 3e 12 c9 46 be d8 b5 cf bc
       0.20176694 0.12609583 -0.1941264 -0.025355265
000090 13 03 97 3e 8c 59 83 3f f7 e1 f4 3f 2f ec 0d bd
       0.29494533 1.0261703 1.9131459 -0.03464907
0000a0 37 69 26 be da 8b 4a 3e ba cc d6 3e 1c ba aa 3e
       -0.16251074 0.19779912 0.4195307 0.33345115
0000b0 0e 3b 8f 3e 47 c9 81 be 9c 83 2a 3e b9 4c 42 3e
       0.27974743 -0.25348875 0.16651767 0.1897458
0000c0 6c 15 6c be 20 05 3e bf e1 44 23 bf 35 d7 dc 38
       -0.23055047 -0.7422657 -0.63776976 0.00010530503
0000d0 74 e0 ba bd b3 0a d0 be 70 ad 78 be e4 f6 19 3e
       -0.09124842 -0.40633163 -0.24284911 0.15035588
0000e0 73 fb 0b bd a0 50 70 3e a2 22 a1 bd b2 cc 83 be
       -0.034175348 0.23468256 -0.07867934 -0.25742108
0000f0 06 8f 02 3e ea b0 33 be 96 87 06 3e 03 5d 41 3e
       0.12749872 -0.17547956 0.1313766 0.18883137
000100 e0 c5 91 3e 82 62 7c bc ab 52 a0 bd 75 65 6a be
       0.2847128 -0.0154043455 -0.07828268 -0.22890265
000110 f7 f9 a6 3d 44 74 3b 3e 70 07 7e 3e 8f 8f 1b 3e
       0.08153146 0.1830607 0.24807525 0.15191482
000120 44 1f 0c 3e f4 61 70 be 21 38 cc bf 6c 6d 29 be
       0.13683802 -0.23474866 -1.5954629 -0.16545647
000130 ab 0c e3 3d 4b cf 88 bc b6 d4 42 be 3d 7a 78 be
       0.110864006 -0.016700407 -0.19026455 -0.2426538
000140 fe 30 b1 bd 90 34 30 3e ec 3d b7 3d 8e 9f 78 be
       -0.08651923 0.17207551 0.089473575 -0.24279615
000150 e0 51 02 3e b8 89 81 bd 2b 10 e4 3c cc bc 1f 3e
       0.12726545 -0.06325096 0.02783974 0.15599364
000160 51 39 d8 3e 9e 08 51 3e 69 a0 c4 3c 13 f4 52 bd
       0.4223123 0.20413443 0.02400227 -0.0515023
000170 d7 04 45 3d 5e b4 03 3e b8 b2 46 3d a9 14 c0 bd
       0.04810032 0.12861773 0.048510283 -0.093789406
000180 03 2d 0e bf 8f c4 93 be c0 0e 8d 3e 83 4e e7 bd
       -0.5553743 -0.288609 0.27550316 -0.11294272
000190 2d c3 81 be 09 50 9f be 6e 55 f6 bd 48 62 b6 3d
       -0.2534422 -0.3111575 -0.12028013 0.089054644
0001a0 e0 0a eb bd f6 48 8e 3e d3 4e 2e be 81 1b a1 3e
       -0.114766836 0.2779004 -0.17022257 0.31466296
0001b0 d7 a2 18 3e 10 07 bc 3d b7 d3 25 bf 55 8a 84 3e
       0.14905868 0.091810346 -0.64776176 0.2588679
0001c0 26 51 46 bc 2d d4 c3 bd 3e 2c 9f be f6 e2 3e be
       -0.012104308 -0.09561954 -0.31088442 -0.18641266
0001d0 62 ce 90 3e 26 88 7e be cc 31 66 be 02 e2 ea 3d
       0.28282458 -0.24856624 -0.22479934 0.11468889
0001e0 7f 00 39 be a4 1c 48 3e 94 7b 23 3d 67 b7 91 3e
       -0.18066595 0.19542176 0.039912775 0.28460237
0001f0 7d b5 ff 3e 29 fe ae 3d aa 23 f2 bd 9b 75 7d be
       0.49943152 0.08544571 -0.11823209 -0.24751894
000200 07 50 9e 3e 82 49 25 3e 6c 13 99 3d b2 71 2c 3e
       0.3092043 0.16141322 0.074744076 0.16840246
000210 e9 e1 e0 be 9a c5 04 bf bc 40 0f 3e f7 ad 3c 3e
       -0.43922356 -0.51864016 0.13989538 0.18425737
000220 98 a1 7d bc 34 b7 4f be 3f a4 8f bc 87 b9 6d 3d
       -0.0154804215 -0.2028473 -0.017534373 0.05803826
000230 a8 0b de 3d b0 2c 7b 3e 09 42 84 be f4 b7 a4 be
       0.10842067 0.24528766 -0.2583163 -0.32171595
000240 58 df b4 3e fe 69 b0 bd be d8 4a bf e6 17 03 3f
       0.35326648 -0.086139664 -0.7923697 0.5120834
000250 f7 81 c6 3e a4 8a 09 3e 3e 74 69 3d 59 58 8d be
       0.3877103 0.13431793 0.056995623 -0.27606466
000260 02 2b 93 bd fa be 2d 3e 18 6d 69 bd 83 e9 46 be
       -0.071859375 0.16967383 -0.056988806 -0.19425015
000270 db 47 79 3c 1f 9a 9b 3e 0a 57 22 bf 67 d7 d6 3e
       0.015214886 0.30391023 -0.6341406 0.41961214
000280 d5 62 97 3e 4e 88 a7 3c cf 0d 8f bd 19 f1 63 be
       0.2956759 0.020450737 -0.06985056 -0.2225994
000290 1d 20 85 bd c4 58 e5 bd d0 6e ce 3c 18 50 3a 3a
       -0.06500266 -0.11198571 0.025199324 0.0007107272
0002a0 b5 12 07 3e d5 83 de 3e f4 66 71 be 44 4c 99 3e
       0.1319073 0.43459955 -0.2357443 0.29941
0002b0 39 3d ce bd b0 a8 ad 3e ed 90 96 3c 6f a3 4e bd
       -0.10070271 0.3391776 0.018379653 -0.05044883
0002c0 0e 48 77 bd 28 dc f1 3d 54 a1 60 be e5 a8 62 be
       -0.06037145 0.118095696 -0.21936542 -0.2213474
0002d0 35 8a 0c 3f bf 86 a2 3e 91 c1 33 bf 3f ca 91 3e
       0.5489839 0.31743428 -0.70217234 0.28474614
0002e0 16 3f 32 bd e6 a0 a6 bd 71 76 e1 3c 31 21 9d bd
       -0.043517195 -0.08136158 0.027522298 -0.076723464
0002f0 ff a0 9d bd 70 7a c7 3d 89 cf 81 be 41 08 8c be
       -0.07696723 0.0974015 -0.2535365 -0.27350047
000300 6f f1 86 be c1 f3 9d bf eb 1c b9 bf 52 92 5d bd
       -0.26356074 -1.2340013 -1.446195 -0.05409462
000310 64 74 01 3c ca 0d 72 be 37 e9 ed be 15 0f a4 be
       0.007901285 -0.23638073 -0.4646699 -0.32042757
000320 4d 84 8c 3d e6 83 83 3e 48 fc 67 3d 08 a2 08 be
       0.06861172 0.25686568 0.05663708 -0.1334306
000330 79 3e 8e 3e 8b db d3 bd b5 31 5e bf b8 d9 04 3d
       0.27782038 -0.10344609 -0.86794597 0.032434195
000340 c9 a3 df 3e e2 52 0d bd ba 98 3d be f9 57 4a be
       0.43679646 -0.03450287 -0.18515292 -0.19760121
000350 32 23 d6 bd 98 e0 89 bd fe c9 80 be 55 50 37 bd
       -0.10455932 -0.06732291 -0.25154108 -0.044754345
000360 ee 14 82 3d cc 12 7c 3e 01 a1 fc 3c f4 64 af 3e
       0.06351648 0.24616545 0.030838491 0.3425671
000370 75 a8 d1 3d 4a 6c a4 3e 47 a9 87 3e 59 1f a9 bd
       0.10237209 0.32113868 0.26496336 -0.08257932
000380 cd d9 8c bd e8 58 ae bd 72 b9 47 3e 5a 79 a4 be
       -0.0687748 -0.08513051 0.19504336 -0.32123834
000390 be 3f 86 bd fe b9 10 bf a6 fe 3d 3f 8a 19 c6 bd
       -0.065551266 -0.565338 0.7421669 -0.0967284
0003a0 07 52 27 be d7 b5 95 bb d6 39 db bd fd b6 fa 3b
       -0.16339885 -0.004568796 -0.10704391 0.0076512084
0003b0 1e 43 a5 3d 68 ad 6c 3e 5c 7b 17 3e 64 31 21 3e
       0.08069442 0.23113024 0.14793152 0.15741497
0003c0 2d 94 87 3d 57 83 09 bf fc c4 a5 be 0e e5 82 3e
       0.06620059 -0.53716034 -0.3237685 0.2556538
0003d0 82 c6 da 3e 7e 33 31 be 06 07 65 3e cc 8c ee bd
       0.42729574 -0.17304799 0.2236596 -0.116479486
0003e0 1d 7b fb bd b8 34 0b be 40 4a 5d 3d e1 5d 8f be
       -0.12279341 -0.1359433 0.05402589 -0.2800131
0003f0 54 80 17 be 23 ff e1 3e 47 aa df 3f 76 47 9e be
       -0.14795047 0.44139966 1.747384 -0.30913895

bias f4 [256]
000000 a2 fe 36 3d 04 e1 53 3e b8 70 e0 bd f0 fb 9e bc
       0.04467643 0.20691305 -0.109589994 -0.019407243
000010 13 8b 50 3e ec a2 26 3d 5a 36 1b be 38 e2 b0 3e
       0.20365553 0.04068272 -0.15157452 0.3454759
000020 66 b4 9a be 20 c6 9f 3e f2 34 8e 3e e8 99 3c 3e
       -0.30215758 0.31205845 0.2777477 0.18418086
000030 fd 58 ce 3e a9 e4 6a 3e 4a b0 9b 3e 7f 00 bc 3e
       0.40302268 0.2293879 0.30407935 0.36719128
000040 73 84 77 be 86 70 03 3d 3c e9 5a 3e f8 8a 2f be
       -0.24171619 0.032089733 0.21378034 -0.17142856
000050 34 16 26 3e 63 54 81 3d bb 9f 18 3e 86 a2 69 be
       0.16219407 0.063149236 0.14904682 -0.22815904
000060 d9 c6 4b bd f6 3a 06 3e b4 6a 55 3e 6a 89 c7 3d
       -0.049750183 0.1310843 0.20841485 0.097430065
000070 47 8f 59 3e 25 1a e6 bd ca bc 86 3c 82 67 a4 be
       0.21246062 -0.112354554 0.016447444 -0.3211022
000080 50 a8 92 3d eb 7d 12 3d 25 f7 8d bd 94 3e 74 3d
       0.07161009 0.035764616 -0.06931905 0.05962999
000090 32 56 01 3e 71 98 fe bd 06 32 7d be 2f 3e dc bd
       0.12630537 -0.1243142 -0.24726114 -0.10754048
0000a0 a0 e6 b5 3d f4 4c 9d 3e 64 a7 ce 3e 0e c5 9a 3e
       0.08881879 0.30722773 0.40362084 0.30228466
0000b0 40 fa 69 3e 3d 62 45 3e ce 4d 01 be 5b 66 1e 3e
       0.22849369 0.19275756 -0.12627336 0.15468733
0000c0 d9 9a 55 3e b1 86 f4 3d b3 bf 50 3e 89 ba 44 be
       0.20859851 0.11939753 0.20385627 -0.19211783
0000d0 32 d6 b7 3d 29 16 ac bd db 61 c4 bd 3f 3e 2b 3e
       0.089764014 -0.08402664 -0.09588977 0.16722964
0000e0 b9 12 78 3e 83 90 86 3e ff 01 09 be 20 da 52 3e
       0.24225892 0.2628213 -0.13379668 0.2059102
0000f0 cd af a6 3d 7f 04 fa 3e 11 d8 34 3e a0 90 0b 3e
       0.08139 0.48831555 0.17660548 0.13629389
000100 5b 80 12 be a3 ea d4 bc 4e 4e 59 3e 03 01 ff 3b
       -0.14306776 -0.02599079 0.21221277 0.007782103
000110 18 9e 10 3c 3d 08 61 3e c1 34 94 3d 5a 3e 5b 3d
       0.008826755 0.21975799 0.072366245 0.05352626
000120 a4 8e 7a be b6 e4 82 3e 87 c7 a1 3a eb c0 4e 3c
       -0.24468476 0.25565118 0.0012342789 0.012619237
000130 00 a1 92 be 58 a2 9f bd 5a fe 9b 3e 73 f5 1a be
       -0.28638458 -0.077946365 0.30467492 -0.15132694
000140 44 f0 c1 3e 9b 46 8a 3d b2 93 a6 3e 8a c5 96 3e
       0.3787862 0.06751748 0.32534558 0.29447585
000150 ae f3 cc 3d 70 b7 4f 3d 9d 96 cb bd 77 d5 2e be
       0.10007416 0.05071205 -0.099408366 -0.17073618
000160 20 cf 8f 3d 54 23 3d 3e 55 e4 13 be 95 d4 68 be
       0.07021928 0.18470508 -0.1444257 -0.22737344
000170 44 31 01 3e db 01 ca bd 08 32 b1 3c 69 a3 4d be
       0.1261645 -0.09863635 0.021630302 -0.20081867
000180 f7 e6 92 3e d2 42 1e be 3b 0a a7 3e 87 2c a2 3d
       0.28691837 -0.15455177 0.32624993 0.07918649
000190 cf 59 81 bd 31 76 83 3e e2 40 a1 3e d4 ae c1 3e
       -0.06315958 0.2567611 0.31494814 0.37828696
0001a0 14 fd c8 3e 00 dc db 3d c6 9d 91 be 26 60 27 3e
       0.39255583 0.10735321 -0.28440684 0.16345271
0001b0 dc a1 bb 3e 69 b1 be 3e eb 3a 95 3e d8 6d 68 3e
       0.36646926 0.37244728 0.29146513 0.22698152
0001c0 e1 e2 91 bd 5a 78 8e 3e bd e9 99 3e c8 a0 5e be
       -0.07123352 0.27826196 0.3006114 -0.2174102
0001d0 7f 99 a4 3d 4b 27 dd bd d9 a1 06 3e 87 96 66 3e
       0.080370896 -0.1079851 0.13147677 0.22518359
0001e0 7b f5 89 bc 58 7f 78 3c 8e ec d4 3e 90 9f 92 be
       -0.016840687 0.01516708 0.41586727 -0.28637362
0001f0 01 ac 53 be 1c 96 cd 3e ba 37 88 3e eb 97 0e 3e
       -0.20671083 0.40153587 0.26605016 0.1392514
000200 c4 82 d2 be 97 1f 5e be e4 59 04 be 7d 78 c9 3d
       -0.4111539 -0.21691738 -0.12924916 0.098374344
000210 87 47 44 3e 5d e7 02 be f9 c9 79 3b 4f 0c 84 3e
       0.1916791 -0.1278357 0.003811477 0.2579064
000220 e9 a1 26 3e bd 8d f7 3d d8 79 55 3c 39 43 08 3e
       0.16272701 0.12087581 0.013029538 0.13306893
000230 6b 8b 9e 3d 24 8a 5d be d3 c6 88 be f4 3e 46 3e
       0.077414356 -0.21634728 -0.2671419 0.19359952
000240 9e 92 45 3e c7 36 2d bc 93 fa 3c 3d ca 7d b3 bd
       0.19294211 -0.010572142 0.046137404 -0.08764227
000250 73 87 41 3e e3 e7 6e 3c 81 6a 9d 3e c7 12 e2 bd
       0.18899326 0.014581653 0.3074532 -0.11038738
000260 03 25 b9 3e 15 30 d3 3e 2c a9 64 3e b8 c5 a2 be
       0.3616105 0.4124762 0.22330159 -0.31791472
000270 87 2c 68 3e d3 82 48 3d 38 c8 3e 3e 85 37 23 3e
       0.22673236 0.04895289 0.18631065 0.15939148
000280 83 41 09 3e 01 a3 be bd 2b c3 a3 bd f5 78 ac be
       0.13403897 -0.09308434 -0.0799621 -0.33686033
000290 df 80 c2 bd 5b 99 fd 3d 2a da 86 bc ab 56 22 be
       -0.094972365 0.12382766 -0.01646145 -0.15853374
0002a0 c8 68 6f 3e 61 09 65 3e a2 22 95 39 33 32 30 3e
       0.23379815 0.22366859 0.00028445298 0.1720665
0002b0 c1 be 7d 3e d8 32 3a 3b 82 06 ed 3e 21 98 8c 3e
       0.24779798 0.0028411653 0.46294028 0.27459815
0002c0 02 4e eb 3d f0 79 4e 3e fd 2e 7d be 52 02 23 bd
       0.11489488 0.20163703 -0.24724956 -0.039797135
0002d0 10 62 5d 3e 6e 6d 31 3e ac 31 b3 bb 8e 0e 72 3c
       0.21619439 0.173269 -0.005468568 0.014773978
0002e0 f0 e3 82 bd cf 8f 73 be 49 b7 86 3e d1 11 be 3e
       -0.06391132 -0.23785327 0.2631171 0.37122968
0002f0 91 e8 3a bb 38 51 88 3e fa aa 83 be 88 dc 91 3e
       -0.0028519968 0.26624465 -0.25716382 0.28488564
000300 14 f8 83 3e d1 71 b0 be 91 b0 83 3e 9a cd 04 3e
       0.25775206 -0.34461835 0.25720647 0.12969056
000310 92 e5 0b 3c 5d 33 36 3d 5a d4 87 bd 53 81 10 3d
       0.008538621 0.044482578 -0.066323 0.035279583
000320 c0 78 38 be d6 2e 3e 3d 5f a7 12 3e f5 48 39 be
       -0.18014812 0.046431385 0.1432166 -0.18094237
000330 43 f1 60 3e 13 87 63 3e 5f 49 3b 3e cd af 0b be
       0.21967034 0.22219495 0.18289708 -0.13641281
000340 e8 a1 ab 3e a1 4c 83 be 04 7e 13 be 0e c8 97 3d
       0.33521962 -0.256444 -0.1440354 0.07411204
000350 55 87 b2 3e 48 f5 64 3d 58 84 5c bd ec c5 1a 3e
       0.34868875 0.05589798 -0.05383715 0.15114564
000360 b2 33 da bd f8 d3 94 3e 3c 5f b5 3e ca 10 9d 3e
       -0.10654391 0.2906797 0.3542422 0.30676872
000370 fc 78 33 3b 3a e4 af 3e e7 f3 59 3e ec f3 bb be
       0.0027385345 0.3435381 0.21284448 -0.36709535
000380 f6 ed 7e 3e 2b c8 c4 be 45 7c 39 3e 10 e6 a7 3c
       0.24895462 -0.38433966 0.18113811 0.020495445
000390 48 b5 d9 be 3d b6 24 be d9 f1 f8 bc 77 f8 43 bd
       -0.4252112 -0.16085143 -0.03038876 -0.047844376
0003a0 28 52 77 3d 81 b6 da bd 2e 13 fb bc 98 e0 58 be
       0.060381085 -0.10679341 -0.030648794 -0.21179426
0003b0 6c 29 13 3e 13 d3 42 3e 6e 35 0a 3e 1f 0d 95 3e
       0.1437127 0.19025831 0.13496944 0.29111573
0003c0 c1 9e 4a bd c5 8d 6b 3d b8 b5 24 3e 55 39 bc be
       -0.049467806 0.05750825 0.16084945 -0.3676249
0003d0 36 87 9f 3e a9 53 9c bd bc e8 84 3e c6 ba 65 3e
       0.31157845 -0.076331444 0.25958812 0.2243453
0003e0 85 b7 55 3d 38 d9 74 be ae 0f 4b 3e b0 b8 8c be
       0.05217697 -0.23910987 0.198302 -0.27484655
0003f0 f0 a1 20 bb 44 5f 38 bd cf c3 4d 3e 53 62 88 be
       -0.0024510585 -0.045012727 0.20094226 -0.26637515

weight f4 [256, 256]
000000 c2 ad a3 3d 70 48 f5 bd e4 9b 5b 3d c4 71 83 3e
       0.07992126 -0.11976707 0.053615466 0.25672734
000010 ad 12 58 3d 28 88 2e 39 64 2f 74 3e 9d 9d bc 3c
       0.052752186 0.00016644655 0.23846203 0.023024375
000020 67 dd a2 3e 8a 0c 82 3d c5 dd b9 3d 56 48 e7 3d
       0.31809542 0.06350048 0.09075502 0.11293094
000030 f3 44 aa 3c 00 9e 64 bd 2d 68 2c 3d f0 ed 99 bb
       0.02078483 -0.055814743 0.042091537 -0.004697554
000040 08 86 be 3e c9 38 54 3d f6 bf 8a bd 41 41 cb bc
       0.37211633 0.051811967 -0.06774895 -0.024811389
000050 3a 90 08 3d aa 36 72 3d 03 c0 1b bd 47 b5 7c 3d
       0.03334067 0.059134163 -0.038024914 0.061696317
000060 43 b4 9a 3e c6 5f f0 3b 52 fb af bb d4 50 88 bc
       0.30215654 0.007335636 -0.005370536 -0.016640104
000070 a1 ce b2 bd f0 0d e4 bd eb c3 0a 3e 82 53 f8 bd
       -0.087308176 -0.11135471 0.135513 -0.12125303
000080 99 af c8 3d 73 ef 9a 3d d4 bc 20 3e 37 49 14 bd
       0.097991176 0.075652026 0.15697032 -0.036202636
000090 83 de 0e 3e 1d a7 2c 3d e0 5f d8 3c 74 ff bc 3d
       0.13952069 0.04215156 0.026412904 0.09228411
0000a0 d0 a7 c2 3d b9 58 8a 3e 17 4d 63 3a 27 ec d0 3d
       0.09504664 0.27020815 0.000867085 0.102012925
0000b0 6f 7d c5 bd 9b 4d 97 3e 90 dc 34 be 66 8a 1a 3c
       -0.09643065 0.29551396 -0.17662263 0.009432411
0000c0 5f 50 5f 3e 47 4b 4d 3e 41 e8 f3 3c 78 29 44 be
       0.21808003 0.20048247 0.029773833 -0.19156444
0000d0 d7 a3 55 bd be d7 c1 3c 12 a3 b5 3d fb d0 ce 3e
       -0.052158203 0.023662444 0.08868994 0.40393814
0000e0 ff 67 5f 3e 34 bb ca bd 55 ea c8 3e 78 01 d1 3d
       0.21817015 -0.098989874 0.3924128 0.10205358
0000f0 4c 64 30 be 49 33 2a 3e d4 cf f7 3b da aa ce 3d
       -0.1722576 0.16621126 0.007562617 0.10091181
000100 b0 8e 9a 3c 58 75 8a bd 94 fa a6 3d 7c 59 29 3d
       0.018866867 -0.06760663 0.08153263 0.041345105
000110 42 bc dc 3d 76 14 96 bd 08 2b 2b 3e 18 8a 45 3d
       0.10778095 -0.07328121 0.16715634 0.0482274
000120 65 fc 90 3e 5a 29 f9 bd 99 fb de 3c 65 0d f3 3d
       0.28317562 -0.1216609 0.02721958 0.11867789
000130 e3 f3 e3 3d 3d 8d 04 3e 22 01 69 bd 10 89 51 be
       0.11130502 0.12944503 -0.056885846 -0.20462441
000140 49 e8 af 3c 7b 9d e2 bc c8 04 a7 3d 1e dd 7a bd
       0.021473067 -0.027662983 0.08155209 -0.06124603
000150 42 6f 6b bd 71 db cd be a9 ed fc b9 5a 7b 0f 3c
       -0.05747915 -0.40206483 -0.00048242256 0.008757437
000160 6f bd a8 bb 19 23 89 3d 30 69 3e bd 43 b5 08 3c
       -0.0051495354 0.066961475 -0.046487033 0.008343997
000170 44 af f3 3d 16 1b 2f 3d 60 90 a1 3d e8 f9 32 3e
       0.11898664 0.04275044 0.078888655 0.17478144
000180 8e d8 ee 3c ea 59 7e 3d ec d7 4f bd c7 86 b7 3e
       0.029155996 0.062097467 -0.05074303 0.35845014
000190 66 f3 3f 3e be a6 e8 bd 4c 76 93 3d 96 77 85 3c
       0.18745193 -0.113599285 0.07200298 0.016292375
0001a0 fc 70 2d 3c 5d 22 2b bb b2 ba 5c 3e b9 8a 60 be
       0.01058602 -0.0026113011 0.21555594 -0.21927918
0001b0 dc e6 aa bd 6b 16 07 3d 6f d3 18 3b 86 d8 75 bc
       -0.08344814 0.032980364 0.0023319384 -0.0150052365
0001c0 dd dc 39 3e f8 f4 94 bc e1 1d f2 bc 46 4e a1 3e
       0.18150659 -0.018183216 -0.029555263 0.3150503
0001d0 5f 45 83 3e 2e 0c 4d 3e f4 98 dc 3c 8e f1 c0 3c
       0.25638863 0.20024177 0.026928402 0.023552682
0001e0 c2 a2 de 3e 7d 3f 0e 3e a5 b4 38 3d 05 99 4c 3e
       0.4348355 0.13891406 0.04509415 0.19980247
0001f0 b1 47 ef 3d 88 7d ec 3d 99 f1 1d bd da 7d 7f 3d
       0.11683596 0.11547381 -0.038560484 0.06237588
000200 c0 4e 80 3c f8 02 d3 3e 4c 57 4f 3d f2 43 40 3d
       0.01566255 0.41213202 0.050620362 0.046939798
000210 ee 4e 10 3e 62 ca 8b 3e d3 17 42 be 4a d6 96 bc
       0.1409261 0.27302843 -0.189544 -0.018412728
000220 dc 6a 44 3c 7b a9 a8 3e ad a4 f9 ba 55 22 66 bb
       0.011988368 0.32941803 -0.001904627 -0.0035115678
000230 1d 3c 2c bd 70 cd a8 bd a4 16 75 3e 92 64 00 3d
       -0.042049516 -0.08242309 0.23934418 0.03134591
000240 6e 3a 91 3d 43 c0 07 3e 09 0e 28 be f2 f2 dc 3c
       0.07091223 0.13256936 -0.16411604 0.026971314
000250 b1 d8 ce 3d d1 ba 1f bc 8f 65 92 bd 99 8f 52 3d
       0.10099924 -0.00974913 -0.07148277 0.051406477
000260 8e 2b 12 3e be 8a 3a 3c 0a 8f 06 bc 84 54 e5 3d
       0.14274427 0.011385618 -0.008212814 0.11197761
000270 6b 10 2a be 6a 83 8b 3e 56 5f 29 bd 73 33 bb bc
       -0.16607825 0.27248698 -0.041350685 -0.022851681
000280 8c 8c 04 be c5 8e a6 3d 15 79 b7 3b bc 7d 97 3e
       -0.1294424 0.081327 0.005599151 0.29588115
000290 ce 18 0b be b9 01 37 be 79 e6 cc bd 8a 6b 3c bd
       -0.13583681 -0.17871751 -0.10004897 -0.046000995
0002a0 64 56 a1 3d 92 20 04 ba 51 a8 0c 3e ad b8 ef 3c
       0.07877806 -0.0005040254 0.13736083 0.029262865
0002b0 4b 3f ae 3d 5a 2e 85 3e fe a8 cf 3d 8f 39 8f be
       0.08508166 0.26011926 0.101396546 -0.279736
0002c0 b0 0f 9c bd cb d7 82 3d 97 ac 2d 3e 54 33 bc 3c
       -0.0762018 0.063888155 0.16960369 0.022973694
0002d0 df e8 1b 3d 1b f6 cb 3c 4d 35 2c 3e ae c6 2c 3d
       0.03806388 0.024897626 0.16817208 0.042181663
0002e0 89 21 f9 bd e5 b3 66 bd 93 c7 ed 3a 5a 79 d3 3a
       -0.121645994 -0.056323905 0.0018141143 0.0016134188
0002f0 7f 16 51 3d 3c f3 9a be 25 04 75 3e 41 e2 de bc
       0.051046845 -0.30263698 0.23927362 -0.027207496
000300 5e 4f 32 3d 09 4a 2f 3e ed fc 14 bd a0 09 02 bc
       0.04353272 0.17118086 -0.03637402 -0.007936865
000310 d1 f9 00 3e e0 e3 3b 3e 4b c9 92 bd 1b 0b 07 3d
       0.12595297 0.18348646 -0.071673 0.032969575
000320 fb 0b 9c 3e 2c e5 0a 3e 8e 20 0f 3e 86 d0 d0 bc
       0.3047789 0.13563985 0.13977262 -0.025490057
000330 75 40 01 bd 4e c4 a9 3c 1c ef da bb 35 47 95 3e
       -0.03155561 0.020723488 -0.006681336 0.2915589
000340 d0 32 ee 3b 78 89 7b 3e 74 bc b0 3d a0 49 86 bd
       0.007269241 0.24564159 0.086296946 -0.065570116
000350 70 98 f6 3d b3 fe 90 bd d9 15 b8 3d b8 4f 53 3d
       0.12040794 -0.0707983 0.08988542 0.051589698
000360 2f 2d c7 bc 66 76 2a 3d 24 c9 3f 3d a8 14 2f 3e
       -0.024313537 0.04161682 0.046822682 0.17097723
000370 b2 69 6c 3d cc b2 83 bd a4 63 67 3c 3d 7b 9b 3d
       0.057717986 -0.06430587 0.014122877 0.07591865
000380 e7 ec 94 bc 65 97 6e bd 81 5b da 3d f4 51 76 3c
       -0.01817937 -0.05824985 0.10661984 0.015034188
000390 02 39 9c bd 4e c6 1a 3e 99 ad 01 3e 44 df 3b be
       -0.07628061 0.1511471 0.12663879 -0.18346888
0003a0 63 df 0b bd 35 6e 4a be c1 5a 35 3d 08 ab 55 3c
       -0.034148585 -0.19768603 0.044276003 0.013041265
0003b0 68 19 43 bd 84 ea e0 bd 47 e2 10 bd a6 10 80 3d
       -0.04763165 -0.1098223 -0.035372045 0.062531754
0003c0 a8 58 e3 3d 3d b8 b1 be 29 12 07 3e a2 56 9f 3d
       0.11100894 -0.34710875 0.13190521 0.07780196
0003d0 5b 7f ee bd 59 c7 dc 3c 61 35 e3 be fb 11 4a be
       -0.11645385 0.026950525 -0.44376662 -0.19733422
0003e0 8d 20 68 3d 3b cf dc 3e 48 20 bd 3d 7c b2 2a 3e
       0.056671668 0.43126854 0.09234673 0.16669649
0003f0 b3 35 ad 3d cd 9c be 3d 28 d8 aa 3c 46 6f 9f 3d
       0.08457508 0.09307251 0.020855024 0.077848956

bias f4 [256]
000000 db 10 8f 3d d1 4c ba 3d ef 99 f5 3d 44 98 02 3e
       0.06985637 0.09096683 0.11992251 0.12753397
000010 f9 be 0a 3e 07 8d 2d 3d 75 1c b5 3d 80 36 d4 3d
       0.13549413 0.042370822 0.088433184 0.103619576
000020 fc be 55 bc ad ae 52 3d 8b df a9 3d 7d 18 b5 3c
       -0.0130460225 0.051436115 0.082945906 0.022106403
000030 64 c7 a0 3d 89 f2 0a 3e be c7 7d 3d 65 45 c6 3c
       0.07850531 0.13569082 0.061958067 0.024203012
000040 63 b3 1a 3d 64 21 b7 3d 6c 7b 63 3d b6 78 99 3d
       0.037768733 0.08941916 0.055537626 0.07493727
000050 4d a7 83 3d c9 d1 04 3e 59 e8 b4 3d 41 f0 c7 3b
       0.064283945 0.12970652 0.08833379 0.0061016385
000060 27 70 18 3e 5a d2 eb 3d 16 77 41 3d ca 21 e6 3c
       0.14886533 0.11514731 0.04723271 0.028092284
000070 2d 14 b6 3d 49 4c 2b 3d 8f 10 be 3d 78 e3 1d 3c
       0.08890567 0.041820798 0.09280502 0.009636752
000080 93 5d ab 3d 76 67 2a 3c ec ff 05 3e 99 f6 bf 3c
       0.08367457 0.010400644 0.13085908 0.023433017
000090 58 09 ae 3d e6 c4 42 3d f2 51 fe 3d 3c 03 af 3d
       0.08497876 0.04755106 0.124179736 0.08545539
0000a0 21 97 a1 3d 6e d8 98 3d 5b 9c b7 3d 32 3a ed 3c
       0.07890154 0.07463156 0.08965369 0.028958414
0000b0 2d 86 d1 3d 42 b7 f7 3d 99 c8 a4 3c c8 e7 6f 3d
       0.1023067 0.120955005 0.020115184 0.058570653
0000c0 97 eb 1a 3d 40 ad 96 3c f8 5b 0a 3e 37 30 4c 3d
       0.037822332 0.018393159 0.13511646 0.04985067
0000d0 dc 92 98 3d 2e 6c e6 3d 6a 3f 33 3e a3 02 a7 3d
       0.07449886 0.112511024 0.1750466 0.081548
0000e0 bd de 28 3d 10 f1 aa 3d 24 24 fe 3c f0 9f e2 3d
       0.041228045 0.0834676 0.031023093 0.11065662
0000f0 a4 65 c3 3d 6e 0f 3c 3d bf 32 5d 3c e2 85 e6 3c
       0.09540871 0.045913152 0.013500868 0.028140012
000100 ba 0a c5 3d d8 40 a0 3d 14 94 d8 3d d5 90 be 3d
       0.096211866 0.07824868 0.10575119 0.09304968
000110 2f 0c 08 3e 68 84 11 3e b0 f1 57 3d f6 17 b5 3d
       0.13285898 0.14210665 0.052720726 0.08842461
000120 19 0b 04 3d 6d 21 6b 3d 34 1f ad 3d f7 52 7c 3d
       0.032237146 0.057404924 0.08453217 0.06160256
000130 0e fc f6 3d 6f 7d 5b 3d 8c 66 7b 3d cc 8a fb 3d
       0.12059794 0.05358642 0.061377093 0.12282333
000140 f7 e7 c1 3d 75 26 54 3d 42 3d f5 3c 26 10 61 3c
       0.09468072 0.051794488 0.029936437 0.01373676
000150 41 7c ac 3d fe bf d6 3d 9f 61 ee 3d 79 ec d5 3c
       0.08422137 0.10485838 0.116397135 0.026113736
000160 ad 32 c9 3d b3 af a2 3d d7 c5 10 3b 52 d1 fb 3d
       0.09824119 0.07943668 0.0022090578 0.12295784
000170 b7 83 fd 3d 16 22 e4 3c cc 28 92 3c 35 37 d1 3d
       0.12378638 0.027848285 0.01784172 0.10215608
000180 4f 9d 01 3e 30 c2 b9 3d 94 5e 22 3e 91 f0 af 3d
       0.12657665 0.090702415 0.15856391 0.08590806
000190 be 0a 94 3d 84 7e e2 3c c3 b1 c0 3d 85 50 61 3d
       0.072286114 0.027648218 0.09408905 0.05500843
0001a0 f3 fd d3 3c df e7 bf 3d 41 23 09 3e b0 08 c1 3d
       0.025877928 0.09370398 0.13392355 0.09425485
0001b0 38 2a 01 3d c9 7f 01 3e aa c8 fb 3d 9d 29 51 3d
       0.031534404 0.12646402 0.12294133 0.051065076
0001c0 26 56 fc 3d 48 c8 d0 bb b0 10 6e 3d ee 98 80 3d
       0.12321119 -0.0063715316 0.058121383 0.06279169
0001d0 bf 1c 78 3d a3 6e 76 3b b1 9a 86 3d d1 b2 fd 3c
       0.06057429 0.0037602566 0.06572474 0.030969055
0001e0 80 24 9c 3d 24 e0 b3 3b 3c 6e 3f 3d 11 e0 cf 3c
       0.07624149 0.005489366 0.046735987 0.025375398
0001f0 6b 45 cb 3d 44 65 a9 3d 0c 94 ad 3d f6 1e 5a 3d
       0.0992535 0.08271268 0.08475503 0.053252183
000200 f6 b9 ee 3d 44 dd df 3d 8b 07 e5 3d 86 49 27 bc
       0.11656563 0.10930875 0.11183079 -0.0102104
000210 22 ac ef 3d 72 34 49 3d 22 27 f1 3d 54 0b c8 3c
       0.117027536 0.04912228 0.11775042 0.024419464
000220 35 54 54 3c 00 14 5e 3d fb f0 fc bb ea c9 03 3e
       0.01295953 0.054218292 -0.007719157 0.12869993
000230 5a 46 fe 3d 47 8f 21 3d f3 15 ac 3d bd f6 db 3d
       0.12415762 0.03944328 0.08402624 0.10740421
000240 13 c8 da 3c 3d c5 8e bc 83 a2 b7 3c 1f 72 e5 3d
       0.026706731 -0.017428035 0.022416359 0.112034075
000250 63 a6 8b 3d 1d e8 ba 3d 74 1e 6d 3d d5 81 66 3d
       0.06818845 0.09126303 0.05789037 0.05627616
000260 b2 92 d7 3d 69 59 a7 3d e4 2a 36 3d 90 61 f3 bc
       0.10526027 0.081713505 0.044474497 -0.029709607
000270 db b3 a2 3d b2 ed 30 3d 7c a1 f6 3c a5 c7 47 3c
       0.07944461 0.043195434 0.030106299 0.012193595
000280 01 b0 9f 3d 6e c1 13 3c 53 50 94 3d b1 0b 99 3d
       0.07797242 0.009018285 0.07241883 0.07472933
000290 af 98 48 3d 4e 69 cf 3d 67 e1 c4 3d 4e 15 83 3c
       0.048973735 0.10127507 0.096133046 0.01600137
0002a0 18 d4 d7 3d 61 c8 38 3d ce db 2e 3d 77 62 a4 3a
       0.105385005 0.04511297 0.04269009 0.0012541552
0002b0 c6 c8 37 3d 3a 85 56 3d 81 63 5a bd 1d 89 cb 3d
       0.044869207 0.05237315 -0.05331755 0.09938262
0002c0 e3 f5 5b 3d 99 d6 06 3d d5 10 ea 3c 9e 40 33 3d
       0.053701293 0.0329195 0.02857248 0.043762796
0002d0 5d 97 91 3d 81 99 25 3d 97 39 bb bc fc c5 9a 3d
       0.071089484 0.040429596 -0.02285461 0.07557294
0002e0 5c 8e 8b 3d 18 45 51 3d 40 3d a9 3d 6c 45 11 bc
       0.06814262 0.051091284 0.08263636 -0.008866649
0002f0 73 6a 94 3c 14 34 b3 3c f1 5f 4f 3d 7c 45 47 3d
       0.018117165 0.021875419 0.050628606 0.04865025
000300 43 8b d7 3c b1 35 b5 3d d6 e7 f1 3d 8e 57 eb 3d
       0.026311522 0.088481314 0.11811797 0.11491309
000310 8a 93 fb 3d d6 51 de 3d 6e 1b 05 be b3 64 a2 3d
       0.12284 0.10855453 -0.12998745 0.07929363
000320 26 62 14 3e a5 1c 97 3d e2 1c 43 3d 91 b8 a6 3c
       0.14490566 0.073785104 0.047634967 0.02035168
000330 40 37 71 3c 53 67 c3 3d 40 00 9d ba fa 45 e0 3d
       0.014722645 0.09541192 -0.0011978224 0.10950847
000340 c4 83 bf 3d 83 56 ae 3d 41 af 83 3d 0f d7 a9 bc
       0.09351304 0.085125946 0.064299114 -0.02073243
000350 aa c8 aa 3c 4f 66 8c bc 36 5c b6 3d 87 78 51 3d
       0.020847637 -0.017138628 0.089043066 0.051140334
000360 5d df 53 3d 57 ca c9 3d 10 d1 7b 3b 6f ed 4a 3d
       0.051726688 0.098530464 0.0038424172 0.04954284
000370 c0 05 73 3d d2 83 02 3d 45 4a 00 3e f4 a9 ae 3c
       0.059331656 0.031863995 0.12528332 0.021321274
000380 7d f7 85 ba cb c8 6a 3d 6e aa b1 3d 34 e3 e6 bb
       -0.0010220852 0.057320397 0.08675085 -0.0070461277
000390 f8 11 ec 3d de b2 3a 3d 4d e5 b1 3d dd 42 9d 3d
       0.11526865 0.045580737 0.08686314 0.07678769
0003a0 e3 da a8 ba b1 d5 47 3d 79 ef 41 bd 5e eb 12 be
       -0.0012882616 0.048787776 -0.04734752 -0.14347598
0003b0 56 4f 8c 3d 95 60 9a 3d a2 11 a3 3c 1d 0f 29 3e
       0.0685107 0.07537953 0.019905869 0.16509672
0003c0 96 0b 5b 3d ca 1e cd 3d 41 29 3f 3c 2f 05 05 3e
       0.053477846 0.10015638 0.011667551 0.12990259
0003d0 a2 45 68 3c 7e 59 5c 3d 19 36 c9 3d ae 36 f8 3d
       0.014176758 0.053796284 0.098247714 0.12119804
0003e0 7d c1 97 3c 7c 12 4c 3c 9d d5 90 3d f9 f1 99 3d
       0.01852488 0.012455579 0.070719935 0.07516856
0003f0 94 a2 98 3d be 43 4c 3d f8 eb 6a 3d e0 61 e0 3d
       0.07452884 0.04986929 0.057353944 0.10956168

weight f4 [1, 256]
000000 91 8c 9f be e4 60 1a 40 21 9d 8d 3e ae db d8 be
       -0.3116193 2.4121637 0.27658942 -0.42355102
000010 27 d2 a9 3e 74 f3 32 bf 0b 4e ec 3f 00 95 10 bf
       0.33168146 -0.6990273 1.8461317 -0.56477356
000020 b6 45 28 bd 9b 20 13 40 6a 5b a6 3e ad 31 15 bf
       -0.041082107 2.298865 0.32491618 -0.58278924
000030 f0 7a 71 bf e0 b6 ac 3e d3 5b 1c 40 79 8b 0f 40
       -0.9432821 0.33733273 2.4431045 2.2428877
000040 4c 48 0f bf 63 e9 b0 be 8e 58 24 bf 55 2a 46 bf
       -0.5596969 -0.3455306 -0.64197624 -0.77408344
000050 21 81 c3 be 21 e3 a1 3e 1c 4b 11 40 de 4b 10 bf
       -0.38184455 0.31618598 2.2702093 -0.56365764
000060 19 a5 e3 be 91 69 06 bf c1 56 6f bf d1 79 14 40
       -0.44461897 -0.5250483 -0.9349175 2.319935
000070 7a 16 87 3e 81 03 0a bf 73 45 d3 be e1 73 b0 3e
       0.26384336 -0.53911597 -0.41263923 0.3446341
000080 3c 29 b3 3e 3f 15 13 bf 16 0f 1c bf 36 22 a5 be
       0.34992397 -0.57454294 -0.6096052 -0.32252663
000090 a2 49 ac be b6 b7 c7 be e9 07 97 3e 5d 25 c9 3f
       -0.33649927 -0.39007348 0.29498222 1.5714527
0000a0 29 de ce be f4 16 25 bf ef bd e9 be b9 64 14 40
       -0.4040387 -0.6448815 -0.4565272 2.3186476
0000b0 84 f8 9d be 6a 2b aa 3e 4a 48 9c 3e c9 96 ac 3e
       -0.30853665 0.33236247 0.30523902 0.3370879
0000c0 9b 86 9b 3e c0 27 4b 3b 6e 8d 0b 40 88 92 16 40
       0.30376133 0.0030999035 2.1805072 2.3526936
0000d0 6c 44 a7 3e 39 50 a8 3e fc 32 f4 be 06 f3 e9 be
       0.3266939 0.32873705 -0.47695148 -0.45693225
0000e0 a5 fd 47 bf c9 b0 0e bf a9 0b 1a 40 97 5c 18 40
       -0.78121406 -0.557385 2.4069617 2.3806512
0000f0 46 dc a3 3e 1f ef 91 3e 77 e1 ba be 90 58 07 bf
       0.32003993 0.28502747 -0.3650014 -0.5286951
000100 51 a7 7a 3e 16 b8 d9 be fd e7 10 bf ed ce 80 3e
       0.24477889 -0.4252326 -0.56603986 0.25157872
000110 62 74 89 3e f3 e1 96 3e 29 38 ac 3e c7 09 23 bf
       0.26846606 0.2946926 0.33636597 -0.63686794
000120 c9 07 8a 3e 03 90 18 40 fe 52 88 3e 33 d7 11 bf
       0.26959065 2.3837898 0.26625818 -0.5696899
000130 e0 c9 09 40 94 7e 08 40 ec 86 a3 be df 8a 0f bf
       2.1529465 2.1327257 -0.31938875 -0.56071275
000140 e2 2b a8 be 23 93 18 40 aa bd 07 40 5d ae 0e 40
       -0.3284598 2.3839805 2.1209512 2.2293923
000150 37 a3 17 40 76 16 ca be 75 1d 84 3e 89 b3 9f 3e
       2.3693368 -0.3947026 0.25803724 0.31191662
000160 a5 4d a1 3e dd 33 98 3e 54 c5 1c 40 14 50 87 bf
       0.3150455 0.2972707 2.449544 -1.0571313
000170 81 54 94 3e a9 ae 92 3e 3b 2e 1b 40 c8 b2 b2 3e
       0.2897072 0.2864888 2.4246967 0.34902024
000180 f5 1f 8c 3e f2 ce c6 be 7a 4c d2 be b8 e4 39 bf
       0.2736813 -0.38829762 -0.41073972 -0.7261462
000190 bf 3c 09 bf 2d dc ac 3e 7d 83 07 bf ae 79 99 3e
       -0.53608316 0.3376173 -0.5293501 0.29975647
0001a0 08 ad ad 3e 64 7b ac 3e e4 7f 9c 3e 36 d9 0e bf
       0.33921075 0.3368789 0.30566323 -0.5580019
0001b0 d4 09 1b bf 45 66 a5 3e eb de b4 3e d9 d7 12 40
       -0.6056187 0.32304588 0.35326323 2.2944243
0001c0 eb c0 a2 3e 3f e6 16 40 40 43 84 3e 7d 1e 0a bf
       0.3178781 2.357803 0.25832558 -0.5395277
0001d0 a8 d1 b9 3e 1b 5c 94 bf ec 22 0d bf 1e 84 a8 be
       0.36292768 -1.1590608 -0.5513141 -0.32913297
0001e0 58 90 04 bf c5 e4 79 3f eb 54 02 bf 5f d6 ad 3e
       -0.5178275 0.976147 -0.50910825 0.33952615
0001f0 1d ee 11 40 ef 56 d4 3f 8c 88 cf 3f 1d 61 85 bf
       2.2801583 1.658903 1.6213546 -1.0420262
000200 cf 35 a9 3e 13 12 9c be d1 2a 04 bf 97 24 29 bf
       0.33048865 -0.3048254 -0.5162783 -0.66071457
000210 ac 4b 97 3e a6 58 97 3e 67 d1 b9 be 9f d4 b8 3e
       0.2954992 0.2955982 -0.36292574 0.36099717
000220 13 81 1b 40 70 bf ac 3e 4a c8 65 bd 5a 10 14 bf
       2.429753 0.33739805 -0.056099214 -0.5783745
000230 6e ce ec 3f 20 95 1b bf ed 4f 91 3e 88 70 97 3e
       1.8500497 -0.6077442 0.2838129 0.29578042
000240 a4 5b 29 bf 14 c9 29 bf 0e e0 a5 3e 96 f0 89 3e
       -0.6615546 -0.66322446 0.32397503 0.26941365
000250 7c 65 20 40 57 cf 96 3e 39 96 ad 3e 31 63 11 40
       2.506194 0.29455063 0.33903673 2.2716792
000260 64 8c 7f bf 6e 11 0e 40 09 ce a3 3e 6d 91 c7 be
       -0.99823594 2.2198138 0.3199313 -0.3897814
000270 17 76 c5 be 80 95 bc be 72 9b 1a 40 53 dd 1b 40
       -0.38566658 -0.3683281 2.4157376 2.4353836
000280 90 5f d9 be 1a a5 da 3c 3b 82 bb 3e 32 d2 08 bf
       -0.4245572 0.026690055 0.36622795 -0.5344573
000290 74 4c 1d 40 82 d9 f8 3f bb db 34 bf 49 cb 11 40
       2.4577913 1.9441378 -0.7064778 2.2780325
0002a0 a9 c6 15 bf 0d d0 aa 3e 31 8f fd be c1 4a 52 bd
       -0.58506256 0.33361855 -0.4952331 -0.051340822
0002b0 55 8e 1b 40 5a f5 de be da 10 6e 3e f0 c7 9e 3e
       2.4305623 -0.43546563 0.23248616 0.31011915
0002c0 84 01 c0 be c6 6b 4d bf 78 4f a3 3e 06 09 19 40
       -0.37501156 -0.80242574 0.31896567 2.3911757
0002d0 59 cb 97 3e 0c b5 c7 bc af d2 fb be 1e 94 a5 be
       0.2964733 -0.024378322 -0.49184176 -0.32339567
0002e0 ef 1e 13 bf ca d5 a6 3e 05 d9 0d bf 83 25 ca be
       -0.57469076 0.32584983 -0.5540927 -0.39481744
0002f0 3e 7c 1d bf 5d 4f cb be 20 48 5d bf 12 98 b3 3e
       -0.61517704 -0.39708987 -0.8643818 0.35076958
000300 5d ab 0c 40 11 61 15 40 2a aa ef 3f c7 47 aa 3e
       2.1979592 2.3340495 1.8723805 0.33257887
000310 09 a7 af 3e 49 fe a4 3e 1c cb f5 3e eb 61 a4 3e
       0.34307125 0.32225254 0.48006523 0.32105955
000320 c0 d6 fe be f8 13 95 3e 07 1e 73 bf ac 5c b5 3e
       -0.49773216 0.29116797 -0.94967693 0.35422266
000330 7b 42 8e be 1e cc 05 bf f2 8a 1d 40 23 4f d3 be
       -0.27785096 -0.52264583 2.4616055 -0.41271314
000340 0a 4c 94 3e ef c5 a1 3e 27 8f ef be 0f 9d 3a bf
       0.28964263 0.31596324 -0.46788904 -0.728959
000350 c4 04 9b 3e 64 10 6e bd 2c 9d 1b 40 91 8d ac be
       0.30277073 -0.0581211 2.431468 -0.33701757
000360 a0 74 12 40 a8 2f ac 3e 00 9a ee be 69 a4 da be
       2.2883682 0.3363011 -0.46601868 -0.4270356
000370 67 8c a3 3f 0b a4 07 40 c1 49 ce be 87 28 13 40
       1.2777222 2.1193874 -0.40290645 2.2993486
000380 fa 77 fd be 95 18 84 3e cf 9f 06 40 6b 71 1b 40
       -0.49505597 0.25800005 2.103504 2.4287975
000390 1c 37 f0 be ba 19 1d 40 ce 74 fa be 44 9d 94 3e
       -0.46917045 2.4546952 -0.4891724 0.29026234
0003a0 bb 06 1c 40 cb 3a a6 3e 4f 7f 56 bf 86 e6 9a 3f
       2.4379108 0.3246673 -0.8378801 1.21016
0003b0 2b 91 07 bf 8a 1d 96 3e 22 55 14 40 23 97 1b bf
       -0.52955884 0.29319412 2.317696 -0.6077749
0003c0 62 e7 ef be ce 70 d8 3f 85 35 0d bf 4f f2 8d 3e
       -0.4685622 1.6909425 -0.5515979 0.2772393
0003d0 6f 8f ba be 92 8a f2 be f8 e8 d1 be d2 34 e8 3f
       -0.36437556 -0.47371346 -0.40998054 1.814112
0003e0 25 a5 dd be 10 6d ae be 52 c2 c8 be c4 71 06 40
       -0.43290058 -0.34067583 -0.39210755 2.1006937
0003f0 0e 41 b0 3e e9 8e b2 3e e6 32 b3 3e 6d 2b 28 bf
       0.34424633 0.34874657 0.3499977 -0.6569126
