ppo/data/exp/InvertedDoublePendulum-v2/model/2022-06-12-22-29-15_policy.pt (torch, 23127 bytes, 5 tensors)

weight f4 [64, 11]
00000000: 09fa 46be e486 44be 2cbc 20be 3557 a8bd
00000010: 0faa 173e 74ec fcbe bfab abbd bc5c 86be
00000020: 8a03 16be 50a9 dc3d 522e 453e 2cf7 ae3d
00000030: 6dea eabc fcac 57be 68a9 68bd 50f6 2e3e
00000040: 77c9 a4bb 5350 10be 3efc 7c3e 5dc9 20be
00000050: 067f 263e d089 ad3d 1ba7 6ebd 7c77 4f3e
00000060: 9827 703e acb0 083e 6152 9dbe 2eef a63e
00000070: 0054 073d 8fa1 9c3e e0ca 753e 7c79 d73d
00000080: 84e2 543e de72 9dbe 852e 71be 2e01 ef3d
00000090: 945f 98be 3916 eb3d 274b 93be 56e6 24be
000000a0: 7c7f 86be eae0 d43d f081 9a3d 8656 56be
000000b0: 3765 143e 322f db3e e7b8 e0bc 2b79 ac3e
000000c0: b637 713e c2c3 94be 8dd3 9dbe c076 9abe
000000d0: 6816 3d3e 4d87 33be e2a0 e7bd 8ec2 8dbb
000000e0: 7917 8ebe 1344 563e 7aa7 c4be d34f 013e
000000f0: 30ab 383e 062c 68be 27c8 0fbe 28bc 573c
00000100: 2235 3d3e 204d 093e 4826 dd3d ed07 63be
00000110: 4da6 473e 5665 3dbe 360c 37bd 0821 863c
00000120: 3700 a4bc bb60 493e e97f 8abd 0072 6d3e
00000130: f9b8 25be 12c3 24be e71d 553e 9b5b 213e
00000140: b81b db3d 5b36 87bd 0a60 c4bd a7c0 96bd
00000150: dc63 8cbe 1dc7 6dbd 9f08 99be 2c11 67bd
00000160: ade3 35be 356c 95bd 21b6 9cbd 78b5 aabd
00000170: aebe 7dbe a23e 96bd c7e1 123e e66f e73d
00000180: ac9e 983e 602d 463c 1ef0 953e 7f4a 0bbe
00000190: 8717 d7bd f749 acbe 6f54 833e ee81 64be
000001a0: 9c4f 5d3e c581 7b3e 0a92 e33d ba09 9d3d
000001b0: c86a 793d c6fc 75be 1e3b 0b3e 8dc0 b7bd
000001c0: a54c 86be 6ac5 9fbc 66be 76be f4e7 74be
000001d0: a178 d1bd 399b 7abb f030 253e 28dc 46bd
000001e0: 60b3 8b3e 43a4 9b3e 4f29 e5bd 0ab2 0d3e
000001f0: 012c 2ebe a49b 03be 762c c53e 8e9a 863e
00000200: d41d 10be 593c 34be a488 1dbe c8d9 513e
00000210: c8c8 513d 21ea adbd 1cd5 23bd c5c6 923e
00000220: 327f a1bd 1713 803c 7f45 0b3e 91ec fb3d
00000230: 1169 47be a821 2c3d 5e41 873e 1aa5 76be
00000240: b3c9 2d3e 1e25 653e b4a9 48be e157 c73d
00000250: be56 23be b268 8fbe c634 3ebc 660a 85be
00000260: 00e2 ad3a 6843 6d3e 7567 233d c4b2 703e
00000270: 04a9 35be 1614 33bd 6474 363e fad1 263e
00000280: fc61 47bd 23b7 edbd 023a 633e b64e d1bd
00000290: fa62 113e 7ac1 e7bc 7acc 7bbe d4e5 663d
000002a0: f270 11bd 6380 2ebe 104e 40be 3a33 24be
000002b0: 308b 8dbd 54fe 213e 7357 9abe 38d5 8bbe
000002c0: 5ca8 693d 4897 afbe 3b3d cebe 4bb2 febd
000002d0: d90a 6fbe d1e4 a53e 54ae 05be e381 9bbd
000002e0: 906f 9ebd 9ebc 4ebe 3cde 973e 9e2e 0e3e
000002f0: 60b0 16be 78d7 a83e 269b 60bd 10f0 923d
00000300: ac8f 34be 1d41 f03d c104 723d da1f 7fbe
00000310: e8f6 20bd 1e66 5bbe 1871 c6bd 50b0 8dbe
00000320: 6fbf 793e cc78 a33e 9532 473e 6a0a 7b3e
00000330: a570 9ebd 28f5 4f3e 022b fcbd fea2 873e
00000340: 443b 543e 2644 d83a 40d4 003e e588 42be
00000350: 29c8 ca3e 89e7 bf3e 965c 1bbe cf85 303e
00000360: f352 8cbe 9173 303d 0089 2b3e 8b01 05be
00000370: 0907 093e 7d25 823e 00f6 c33d 5b47 743e
00000380: 103e 8ebd 412c 823e d733 09be d9c1 0abe
00000390: 10a1 8b3e ba70 413e f296 913e a0db 223e
000003a0: b539 a13d 819a 32be 5f45 743e 1cf8 48be
000003b0: b6ed 5abd 3ee5 23be 5938 933e 0745 80be
000003c0: 8eaa 1f3e eac3 62be 6d9d 313e 39a3 363e
000003d0: b9b3 f9bd e08d 9c3e 4c7f bc3d f48c 46bd
000003e0: ca61 db3d e6eb 46be 7c46 4bbe 66b6 98be
000003f0: 8783 95be f0bd 4ebe 88a5 53bf 0599 03bf
-0.19431318 -0.19192082 -0.15696782 -0.082197584 0.14810966 -0.4939915 -0.08382367 -0.26242626
-0.14649788 0.10774481 0.19255951 0.08543238 -0.028676236 -0.21062082 -0.056802183 0.17086148
-0.0050288993 -0.14093141 0.24705598 -0.15701814 0.16259393 0.08473551 -0.058264833 0.20260423
0.23452604 0.13348645 -0.30726913 0.32604355 0.033039093 0.3059201 0.24003172 0.10521218
0.20789534 -0.307517 -0.23552902 0.11670147 -0.2976042 0.11478848 -0.28768274 -0.16103491
-0.26269138 0.103944615 0.07544315 -0.20931444 0.14491735 0.42809445 -0.027431918 0.33686194
0.23556408 -0.290556 -0.30825463 -0.30168724 0.18465579 -0.17532082 -0.11309983 -0.0043261712
-0.27752283 0.20924406 -0.38409024 0.12628107 0.18034053 -0.22673044 -0.14041196 0.013167419
0.184773 0.13408327 0.10798317 -0.22170992 0.19497032 -0.18495688 -0.04468938 0.016373172
-0.020019634 0.19665806 -0.06762678 0.23188019 -0.16183843 -0.16090038 0.20812188 0.15757601
0.10698646 -0.06602164 -0.095886305 -0.07360964 -0.27419937 -0.058051217 -0.2988939 -0.05641286
-0.17762633 -0.072960295 -0.07651926 -0.08335394 -0.2477977 -0.07336165 0.1434394 0.1130064
0.29808557 0.012095779 0.29284757 -0.13602637 -0.10502534 -0.3365018 0.25650355 -0.22315189
0.216124 0.24561222 0.11111839 0.07667871 0.06089285 -0.24022207 0.1359677 -0.08972273
-0.2623035 -0.019503314 -0.24096069 -0.23916608 -0.10228086 -0.0038239493 0.1613195 -0.0485498
0.2728529 0.3039876 -0.111895196 0.13837448 -0.17008974 -0.12852341 0.38510484 0.2628979
-0.14073879 -0.17601146 -0.15384156 0.20493233 0.05121687 -0.08491922 -0.03999816 0.28667274
-0.07885589 0.015634103 0.1360073 0.12300981 -0.19473673 0.042024285 0.2641706 -0.24086419
0.16971473 0.2237744 -0.19595987 0.097335584 -0.15951058 -0.28009564 -0.011609262 -0.25984496
0.0013266206 0.23170245 0.039893586 0.23505694 -0.17740256 -0.043720327 0.17817837 0.16291037
-0.04867743 -0.11607196 0.22190097 -0.10220091 0.14197913 -0.028290499 -0.2458972 0.056371525
-0.035508104 -0.17041163 -0.18779778 -0.16035166 -0.069113135 0.15819675 -0.30144843 -0.2731111
0.057045326 -0.34295106 -0.4028109 -0.124363504 -0.23343982 0.32401136 -0.13054782 -0.07593133
-0.077361226 -0.20189139 0.2966174 0.1388497 -0.14715719 0.3297689 -0.05483546 0.071746945
-0.17632931 0.117311694 0.059086565 -0.24914494 -0.03929797 -0.21425673 -0.0968954 -0.27673578
0.24389432 0.31928098 0.1945289 0.24515691 -0.07736329 0.20308363 -0.123128906 0.2649154
0.20725733 0.0016499802 0.12580967 -0.18997534 0.39605835 0.37481335 -0.15172037 0.17238544
-0.27407035 0.043078963 0.1675148 -0.1298887 0.1338159 0.25419226 0.09568405 0.23855345
-0.06945431 0.25424388 -0.13398682 -0.1355051 0.27271318 0.18890658 0.28435475 0.15904093
0.07872335 -0.17441751 0.23854588 -0.19625896 -0.053449355 -0.16005418 0.28753927 -0.25052664
0.15592405 -0.22145048 0.1734521 0.17835702 -0.121924825 0.30576992 0.092039675 -0.048474267
0.10712011 -0.19425926 -0.19851106 -0.2982666 -0.2920191 -0.20189643 -0.82674456 -0.51405364

bias f4 [64]
00000000: 4925 e93b 290e 863e db99 b53d 709b 1cbe
00000010: 3577 083e b87a b8be 6213 a3be 1238 e2bd
00000020: 42a1 16be 5a5b 80be aa63 8ebc c0a8 213e
00000030: a2c8 953e 3d15 9c3d f342 89be 7eaa 8a3e
00000040: 39f2 9e3e 75cf 103e 78fe b53e f22a 813e
00000050: a950 81be fc0b b2bb 16c6 993e 3aa2 493d
00000060: 7fa5 8a3d 7fa4 db3d 226d 913e 6c23 83be
00000070: 6e97 1ebe b94f 943c 7100 c7be c17a 113d
00000080: c6c3 113c ffab 873e bbfe 57be 9480 81be
00000090: a830 c0bd 1510 79be a63c 2abe 6966 b9be
000000a0: 1756 803d 1e64 993d 496b 9a3e 5e55 08bd
000000b0: 942f 99be 14f1 60bd bd7d e5bd 9ab4 81bd
000000c0: 2f3b 7e3d 7631 2b3e f50c 093e c850 aa3e
000000d0: 50a6 8d3b 7d44 9abd a0a9 babd 16e9 92be
000000e0: ddee 88be e7f4 823d 3834 80be bbfa b2bc
000000f0: e043 8cbc 5c6e 8f3e c397 863e 6164 0d3e
0.0071150404 0.26182678 0.08867236 -0.1529367 0.13326724 -0.36031127 -0.31850725 -0.11045851
-0.14709952 -0.25069696 -0.017381508 0.1578703 0.29254633 0.076212384 -0.2680889 0.270832
0.31044176 0.14141639 0.35545707 0.25228077 -0.2525685 -0.0054335576 0.3003394 0.049226977
0.06769847 0.107247345 0.28403574 -0.25612962 -0.15487453 0.018104421 -0.38867524 0.035517458
0.008896774 0.2649841 -0.21093266 -0.2529341 -0.093842804 -0.24322541 -0.16624698 -0.36210945
0.0626642 0.07489799 0.30159977 -0.033284537 -0.29919112 -0.05491741 -0.11205623 -0.06333275
0.06206816 0.16718087 0.13383849 0.33264756 0.0043228045 -0.07532594 -0.09114385 -0.28693455
-0.26744738 0.06394368 -0.2503984 -0.021848073 -0.01712221 0.28013885 0.2628766 0.13807823

weight f4 [64, 64]
00000000: be70 00be 3e4f 843d 459b a43d e815 e9bb
00000010: 8462 03bd eda9 6ebd 42e3 32bd a3da 0dbe
00000020: 53bf c63b 6aa6 ce3d 8fc2 863d 0267 8bbd
00000030: 519d 6dbd 5e21 413d 47d3 f9bd 5156 803d
00000040: f0f8 a9bd 7eea 8e3d 64ff 36bd e2f5 08be
00000050: 5222 69bd 7fa6 903d 03af e2bd a3c8 eabc
00000060: 1044 c33c c60c 72bd 7c5c 7e3c fb24 b6bc
00000070: 8e02 033e 25f6 613d ddef 8a3c f990 c2bc
00000080: f984 9937 9284 b4bd 961c ac3d f3c6 123b
00000090: 1926 56bd 93d6 bcbd 117c 07bd 4676 a23d
000000a0: f134 8e3d c0f8 8b3c 4c08 aebd 3713 23bd
000000b0: 3372 4dbd 1351 edbc cac9 b43c 5dbb e33d
000000c0: 43a7 b7bd 9ba7 90bc 39c1 a7bb 401f 973d
000000d0: 5171 c1bd f528 8e3d af38 c63d 659c 87bc
000000e0: a59e 54bc 1fff 903c ff62 d13d 15a3 ae3d
000000f0: 77c7 13bd d648 ae3d 496b 913d 393b 07be
00000100: c7b5 0f3d c750 05bc a8d3 31bd 578a d63d
00000110: 7da7 393c 8947 55bd 6d95 eabd 6364 cbbd
00000120: 1756 2f3d 7d83 c83d af6b 4fbd b8d7 a9bd
00000130: e0c4 c0bc dc36 91bd 1e19 9b3d 0a4f 0c3d
00000140: 8886 123e 74b0 ac3d 427a 6b3d 00e2 1e3e
00000150: 17db 97bd 80ad b6bc e059 b33d eff4 5a3e
00000160: 9a23 d5bd 323e 5fbd 60d7 043e c0a9 273d
00000170: 0833 573d 1858 a13d e229 95bd 2c56 afbd
00000180: 1a44 003e 45a4 84bd a748 b7bd c7c1 57bd
00000190: 3cc4 e83b ef4c ef3d 697e ac3d 7428 07bc
000001a0: 49dc b53c a5df ba3d 617d cdbd c651 083e
000001b0: d9f6 b93d 1ef4 78bb 96a1 9e3d a857 20bd
000001c0: a924 a2bd b2c0 51bd aa52 11be dce8 c0bc
000001d0: af79 efbc 7fa5 863d 2179 44bd 741b 763d
000001e0: ea69 d73d 08c6 e33c bf09 15be cc44 213a
000001f0: d27b ba3d 7665 543d 587c e6bd cd8a 75bd
00000200: ba41 08bd e2a2 d73d 03fe 7d3d 930a 7bbd
00000210: 31c3 42be 4422 9bbd 9f48 503d 41e7 0fbd
00000220: 2bd9 8dbd 2d87 a9bd 6403 e93d 3915 253d
00000230: 872d c43d 6e3b 8f3c 8fc1 763d fb1b e53d
00000240: 22bb 2cbe 5551 df3d 55ea e53d 75ef 233c
00000250: 3fbb 9f3d acdc 123d 32b8 91bd e50f 6bbe
00000260: ee62 743e 937b e03d 226c 5b3b 5ee2 173d
00000270: 3031 ae3c d7dc a7bd 0af4 ac3d 656e 823d
00000280: 6a7c 7dbd 8877 bd3d 9a21 d1bd 1e27 10bd
00000290: acb8 c2bd 015d 8abc f3dd c4bd c91e 22be
000002a0: 3468 9c3d 5f99 623d 3881 c83d 64f2 9dbd
000002b0: 0930 a9bd bd62 2dbe 7602 0e3e 93d1 323d
000002c0: 14d5 3dbc 1d24 a63c 7668 b23c af5d 1f3e
000002d0: b6a2 23be f4e6 b13d edd2 3cbd 3806 1bbe
000002e0: 81b6 b73c 6100 993d ad4a 0a3e 3d4e 8e3d
000002f0: 774d 8ebd 9656 233c 4dae 20bc 4b97 8e3d
00000300: 9034 033d 843a c03d 196e 513d e4a4 953d
00000310: 963c efbd 725b 813d d4ce 513d 259c adb9
00000320: 1baa d6bd 977d ab3c 2cb4 0cbd 07c4 673d
00000330: eadd d63d f053 92bd 77a7 14be 6ca1 8fbd
00000340: dbeb f6bd dcdb 6b3c 67c7 1cbd 3130 00bd
00000350: 1b1f c93c e929 993d 2408 d2bd c144 bebd
00000360: 4640 413e 803f de3d 11c6 e33d ffb8 bebd
00000370: 8564 0fbc 3714 af3d ade9 243e 8efa 393e
00000380: d8be 15be 3c2b 7bbd cb15 a63d 746a c43c
00000390: 07c1 8bbc a94e f53c e0f9 dd3d 1c62 853b
000003a0: 76ad 1a3e f29d dcbd eb05 2cbd 1856 913d
000003b0: 9e9c 5bbb af8a 0dbe 3812 6cbd 371b 883d
000003c0: c811 6a3d d59a 243c 3d85 d1bd 894c 5d3b
000003d0: bb62 0a3d 5563 d93d f559 53bd 4a35 81bc
000003e0: d65a b23d d34f f83d d5f6 afbd 89a9 d8bd
000003f0: b279 8d3d a95a e6bd f8b1 92bc f3bc 25bc
-0.12543008 0.06460427 0.08037428 -0.007113207 -0.032076374 -0.058267523 -0.04367376 -0.13852935
0.006065288 0.10090335 0.06580078 -0.068067566 -0.058011357 0.047150962 -0.12198501 0.062664635
-0.08299434 0.069783196 -0.044677153 -0.13375047 -0.056917496 0.070630066 -0.11068537 -0.028660124
0.023836166 -0.059094213 0.01552498 -0.02223443 0.12793943 0.055166382 0.016960079 -0.023750769
1.8300942e-05 -0.08814348 0.0840389 0.0022396415 -0.052282427 -0.09220614 -0.033077303 0.07932715
0.069436915 0.017086387 -0.08497676 -0.039813247 -0.050157737 -0.028969323 0.022068877 0.11119721
-0.089674495 -0.017658046 -0.0051194695 0.07379007 -0.094454415 0.06941406 0.0967878 -0.016554067
-0.012977277 0.017699776 0.1022396 0.08527199 -0.036078896 0.08509986 0.07100541 -0.13206185
0.035085466 -0.008136935 -0.04341474 0.10475605 0.011331436 -0.052070174 -0.11454282 -0.099312566
0.04280671 0.097907044 -0.050639804 -0.08293098 -0.023531377 -0.07090542 0.0757315 0.034255065
0.14309132 0.08432093 0.05748964 0.155159 -0.07414835 -0.022299528 0.08757377 0.21382497
-0.10407181 -0.054502673 0.12972784 0.04093337 0.0525389 0.07878131 -0.07283379 -0.08561358
0.12525979 -0.064766444 -0.08949404 -0.052675035 0.007103471 0.11684596 0.08422548 -0.008249391
0.022199767 0.09124688 -0.1003368 0.13312444 0.090802856 -0.0037987302 0.07745664 -0.039146096
-0.079171486 -0.05120916 -0.1419169 -0.023548536 -0.029232828 0.065745346 -0.04796708 0.060084775
0.105182484 0.02780439 -0.14554499 0.0006151914 0.09105648 0.051854573 -0.112541854 -0.059946824
-0.033265807 0.10529114 0.062009823 -0.06128938 -0.19019772 -0.07574895 0.050850507 -0.03513265
-0.06926187 -0.08277736 0.113776 0.040303443 0.09578996 0.017484393 0.060243186 0.111869775
-0.1686826 0.10904185 0.11226336 0.0100058215 0.07799386 0.03585498 -0.071152106 -0.22955282
0.23865864 0.1096107 0.00334812 0.037081115 0.021263689 -0.08196419 0.08444984 0.06368712
-0.06188623 0.092513144 -0.10211487 -0.035193555 -0.095078796 -0.01689005 -0.09612646 -0.15832056
0.07637063 0.055322047 0.097902715 -0.07712248 -0.08261115 -0.16932197 0.13868126 0.043656897
-0.011586446 0.020280892 0.021778326 0.15563081 -0.15980038 0.08686629 -0.046099592 -0.15139091
0.022425892 0.074707754 0.13505049 0.069485165 -0.06948369 0.009969374 -0.009807182 0.069624506
0.03203255 0.09386161 0.051130388 0.07306841 -0.11681478 0.0631627 0.051222637 -0.00033113468
-0.10481664 0.02093391 -0.034351513 0.05658343 0.104915455 -0.07144916 -0.14517008 -0.07013211
-0.120567046 0.01439568 -0.038276102 -0.03129596 0.024550965 0.07478697 -0.10255459 -0.092904575
0.18872175 0.108519554 0.111217625 -0.09312629 -0.008751993 0.085487776 0.16104765 0.18161985
-0.14623582 -0.06132053 0.081096254 0.023976542 -0.017059816 0.029944735 0.108386755 0.0040705334
0.15105233 -0.10772313 -0.04199783 0.07096499 -0.00335101 -0.13822435 -0.057634562 0.06645816
0.057145864 0.01004668 -0.10230491 0.0033767542 0.033785563 0.10614649 -0.05159946 -0.01577248
0.08708732 0.121246 -0.08592001 -0.10579211 0.06907977 -0.11247761 -0.017907128 -0.01011585

bias f4 [64]
00000000: 1401 88bc a98a 98bd 15d8 11bd f4f9 ab3d
00000010: df77 25bd 42a3 a23c 2481 bab9 d137 99bd
00000020: e374 9b3d e75f f2bc 0839 aabc 5e4f abbd
00000030: 69c7 993c c928 adbd 5d45 c83b b5a8 ddbc
00000040: 3ecf e5bd 679a c23d 528d b1bc 39c4 29bc
00000050: 0db3 8f3d 8912 d9bd cd15 8f3c d502 aabd
00000060: 2fb4 e3bd 7066 9abd 1349 e3bd 3403 c1bd
00000070: 5338 a8bd 1efd 483d f5f3 ff3c 60ff 9e3d
00000080: 4238 c0bd c38e 443d 280c ba3c 5336 d23d
00000090: 650d 3f3c f4ad 5abd 926b 88bc 7df8 c73c
000000a0: 62d2 b53d 2c2d 98bd 9f8b f7bd 8bdc 1a3d
000000b0: 675b 043d 642e 813d 2bde 813d a340 9bbd
000000c0: 3cc3 d5bd bff4 f3bb 8a8a b9bd 7efe 83bb
000000d0: 508c c0bd 8a98 383d 978a 19bd c37f 77bd
000000e0: 152f 1a3d 059a 593d 001d abbc 8079 bf3d
000000f0: 3418 ffbd 87a8 debd bef9 e63d 6a92 edbd
-0.016602077 -0.07448322 -0.035606463 0.08397284 -0.04039752 0.019853238 -0.00035572902 -0.07481349
0.07590654 -0.029586745 -0.020779148 -0.083647475 0.018771844 -0.08455045 0.0061117844 -0.027057985
-0.11221169 0.09502106 -0.021673832 -0.0103617245 0.07016573 -0.105992384 0.01746645 -0.083013214
-0.11118352 -0.0753907 -0.11097922 -0.09424439 -0.08213868 0.049069516 0.031244257 0.07763553
-0.0938573 0.04798771 0.022710875 0.10264268 0.011660908 -0.05338855 -0.016652856 0.02441048
0.08878018 -0.07430491 -0.120871775 0.037807982 0.03231373 0.063076764 0.06341203 -0.07580688
-0.104376286 -0.0074449475 -0.09059627 -0.0040281406 -0.094017625 0.045067348 -0.037485685 -0.060424577
0.037642557 0.0531254 -0.020887852 0.09349346 -0.12455788 -0.10871988 0.11278103 -0.11600192

weight f4 [1, 64]
00000000: d48d 76be cb13 b43e b6ff 18bf 7f61 b5be
00000010: 0cc3 41bd 5408 89be 6c6f 873d b50b acbd
00000020: 5030 5ebe 8aba 313f 0782 0e3d b440 e2be
00000030: b207 263e bb91 a7bd 1b5a 1b3e 6b15 b53c
00000040: 6f38 023e 71bd b8be 6c59 3bbe 7426 c6be
00000050: 7572 a63e 4f5d 3a3e 42fc b4bc 94b2 dbbe
00000060: e2cc 793d b3f1 fa3e 3e50 3abd 7647 a63e
00000070: 9a97 b13d 1e1b 9a3e 4b93 b53e 00fd aa3e
00000080: c43e d9be 3fe6 b03e c962 1c3f 0465 b1bc
00000090: b2d0 e3bd 76cf 05bf 7b43 a5be 1ac3 1dbe
000000a0: 4236 8d3e 1653 27bd 64fe 95bd a2bc 8f3c
000000b0: 302e 663d 7010 3c3e 2c66 b6be 76ec 8abe
000000c0: ffb9 d53d e23f 533e cbcb a93e 509b c33e
000000d0: 1b87 7cbe ac35 b23e 5806 ba3d f2a3 973e
000000e0: ec49 a73c 550c 353d 9960 b2be a2f1 51be
000000f0: 6caf 003e 1780 073e 9608 61bd 4892 bd3d
-0.2407754 0.3517135 -0.59765184 -0.35425946 -0.04730515 -0.26764166 0.06613049 -0.084006704
-0.21698117 0.6942526 0.034791972 -0.4418999 0.16213873 -0.08182093 0.15171091 0.02210494
0.1271684 -0.36082032 -0.1829583 -0.38701212 0.325092 0.18199657 -0.022092942 -0.42909682
0.060986407 0.49012527 -0.04548668 0.32476395 0.08671494 0.30098814 0.35463938 0.3339615
-0.424307 0.34550664 0.61088234 -0.021654613 -0.1112379 -0.52269685 -0.32278046 -0.15406457
0.27580458 -0.04085072 -0.07323912 0.017546002 0.05619639 0.18365645 -0.35624826 -0.2713353
0.104358666 0.20629838 0.33163294 0.38204432 -0.24660914 0.34806573 0.09083241 0.29617268
0.02042099 0.044201214 -0.34839323 -0.20502332 0.12566918 0.13232456 -0.05493983 0.092564166
