ppo/data/exp/InvertedDoublePendulum-v2/model/2022-06-12-22-29-15_value.pt (torch, 22999 bytes, 5 tensors)

weight f4 [64, 11]
-0.17015173 -0.89906806 -0.28769833 0.36323878 -0.12544039 -0.5059222 -1.0954869 -0.26411298
-0.21352601 0.29021257 -0.032190293 -0.31809488 -1.497349 0.43359023 -0.3290659 -0.132348
-0.6284786 -1.6801912 0.13190386 0.0649532 -0.21091616 -0.27656856 0.6024383 1.5619628
0.17137434 -0.56952375 -0.36800653 1.3910111 2.3493137 0.60713756 0.23868175 0.23891968
0.29027945 0.42935145 1.7762796 -0.79162234 -0.5230921 -0.25977826 0.7829506 0.4478374
-0.8554587 0.11660785 0.13336655 -0.093705 0.24370025 1.4554286 0.157703 0.21597828
0.38654566 0.37812117 0.18502755 0.20786397 0.079265594 -0.044948608 0.20589131 0.09114326
1.1096367 -1.6365361 -0.0774347 0.37390167 0.81786275 1.7851111 0.0384048 0.25872022
0.19540828 0.198627 -0.22060965 0.58692855 -0.53497523 0.35155398 0.19476452 -0.13351676
1.6261572 0.73320735 0.026709776 0.024727315 -0.19499242 -0.856005 0.14081262 0.11637898
-0.43467468 -0.73285633 -0.4007576 0.27579123 -0.08350899 -0.1815522 0.08695716 -0.043102503
-0.062113192 0.3756176 -1.3394322 0.06435623 -0.04484791 -0.56623733 -2.1938703 -1.1598266
-0.11946832 -0.14774132 0.23853165 0.3674367 0.39345345 0.20229627 0.43660012 1.0020598
1.3342458 0.9897198 0.052336644 0.24488324 -0.2312606 0.051843077 0.23964238 -0.054662585
-0.16236596 0.2058628 -0.45760992 0.33905053 0.38593578 -0.182995 -0.22451146 0.108929336
0.20481306 -0.038180012 -0.86509705 0.43106812 -0.06049991 0.10145528 0.0002220375 0.20696011
-0.1467705 0.1878564 0.19032604 0.29889965 0.65665615 0.47465214 -1.3229222 -0.3695368
-0.52764195 0.36322057 -1.2402664 -1.6468678 -0.12161673 -0.012370169 0.15702483 -0.14677589
-0.7088116 0.17535755 0.27073684 0.80512315 -0.28314888 -1.1945257 -0.8245222 0.04674238
-0.25795963 0.12231368 -0.31837103 -1.2946244 -0.5000514 -0.37885603 -0.21090452 -1.1711988
-1.0553514 0.59670573 -0.24481988 0.28042156 -0.098689824 -0.2990138 0.539632 -0.26966327
0.0849414 0.88561296 -0.20174481 0.17852521 -0.28655204 -0.2459196 -0.04537508 -0.0025521219
-0.18056177 -0.15030551 -0.11620667 0.43001407 0.60962594 -0.17576109 -1.0975174 -1.0435995
0.18776295 0.23013103 -0.069557264 0.4049106 0.93448293 -0.8474343 -0.00036464696 -0.7395704
1.2353413 1.1959281 -0.3299957 0.20748948 0.09777632 -0.02957502 0.25039706 0.14450343
2.6906528 -0.8532842 -1.2986176 0.47214106 1.1424167 2.4307415 0.117178865 -0.17001739
-0.16502722 -0.364452 -0.7231132 -1.2288084 -0.75025284 0.24168663 -0.34602317 -1.6814249
-1.5513455 0.066607684 0.034055263 -0.052058592 -0.026943754 1.6089902 -0.8482581 -0.2531353
-0.24085584 0.4360979 2.1859066 -0.25991705 -0.037470415 0.17428637 0.033332735 0.15756823
-0.5511227 0.25285316 -0.5303597 -0.00035143667 0.8806971 0.38799906 -0.17558207 -0.1024231
-0.1617022 -0.113201365 -0.40250903 -0.44720003 0.9233238 -0.66551864 -1.1164811 -0.0045152656
-0.17869541 0.7856889 0.12723556 0.22823745 -0.14836855 -0.35825822 -1.2925227 0.5295053
00000000: 413c 2ebe 5329 66bf 324d 93be 6ffa b93e
00000010: 7273 00be 1e84 01bf ea38 8cbf d139 87be
00000020: 90a6 5abe be96 943e f8d9 03bd 55dd a2be
00000030: 22a9 bfbf 8aff dd3e 537b a8be 3c86 07be
00000040: f9e3 20bf 8110 d7bf ce11 073e 2f06 853d
00000050: 68fa 57be 659a 8dbe 6539 1a3f 66ee c73f
00000060: c17c 2f3e 4fcc 11bf 5a6b bcbe a70c b23f
00000070: 285b 1640 5e6d 1b3f fd68 743e 5ca7 743e
00000080: 829f 943e f4d3 db3e 215d e33f c3a7 4abf
00000090: 5de9 05bf a801 85be 736f 483f f24a e53e
000000a0: 57ff 5abf 19d0 ee3d 3e91 083e 68e8 bfbd
000000b0: 8f8c 793e 7c4b ba3f e57c 213e 6929 5d3e
000000c0: 50e9 c53e 1999 c13e dd77 3d3e 4bda 543e
000000d0: 0056 a23d 081c 38bd 2cd5 523e 51a9 ba3d
000000e0: 9308 8e3f 047a d1bf 1696 9ebd 0a70 bf3e
000000f0: 745f 513f 857e e43f 5a4e 1d3d fa76 843e
00000100: 1c19 483e e064 4b3e 7fe7 61be f340 163f
00000110: 23f4 08bf e2fe b33e 5a70 473e 9eb8 08be
00000120: eb25 d03f 7ab3 3b3f 76ce da3c f090 ca3c
00000130: 18ac 47be 2523 5bbf 2f31 103e 1a58 ee3d
00000140: ae8d debe 799c 3bbf 1a30 cdbe 8234 8d3e
00000150: c306 abbd d2e8 39be 9816 b23d 408c 30bd
00000160: 676a 7ebd f350 c03e 8472 abbf 33cd 833d
00000170: 71b2 37bd eef4 10bf 5f68 0cc0 3375 94bf
00000180: ceab f4bd 8049 17be a441 743e aa20 bc3e
00000190: bb72 c93e c126 4f3e 0d8a df3e 7f43 803f
000001a0: 91c8 aa3f 475e 7d3f f35e 563d acc2 7a3e
000001b0: 94cf 6cbe 6859 543d d064 753e e0e5 5fbd
000001c0: 4343 26be b3cd 523e d94b eabe 0898 ad3e
000001d0: 6099 c53e 0b63 3bbe 55e6 65be 5816 df3d
000001e0: 84ba 513e a562 1cbd 0077 5dbf f6b4 dc3e
000001f0: c1ce 77bd c9c7 cf3d bdd2 6839 5aed 533e
00000200: 024b 16be 6e5d 403e d4e4 423e 6009 993e
00000210: 9e1a 283f 9b05 f33e 8455 a9bf ed33 bdbe
00000220: 8b13 07bf 0cf8 b93e 0dc1 9ebf 90cc d2bf
00000230: 3112 f9bd 40ac 4abc 1ecb 203e 6b4c 16be
00000240: ad74 35bf ee90 333e 059e 8a3e 8d1c 4e3f
00000250: e4f8 90be 38e6 98bf e313 53bf f074 3f3d
00000260: 4913 84be 987f fa3d 8701 a3be 41b6 a5bf
00000270: 5e03 00bf 6bf9 c1be 5bf7 57be d8e9 95bf
00000280: c115 87bf b5c1 183f 10b2 7abe 6a93 8f3e
00000290: e41d cabd 5618 99be 5325 0a3f 4e11 8abe
000002a0: c2f5 ad3d 88b7 623f 3196 4ebe 50cf 363e
000002b0: f3b6 92be 59d2 7bbe 38db 39bd 8041 27bb
000002c0: 2fe5 38be b0e9 19be c3fd edbd ce2a dc3e
000002d0: 7210 1c3f b7fa 33be 737b 8cbf ab94 85bf
000002e0: ee44 403e 78a7 6b3e 0a74 8ebd 7150 cf3e
000002f0: 463a 6f3f 74f1 58bf 162e bfb9 7c54 3dbf
00000300: aa1f 9e3f 2c14 993f 32f5 a8be 1f78 543e
00000310: f43e c83d 5047 f2bc 0b34 803e b5f8 133e
00000320: a833 2c40 d570 5abf 1a39 a6bf 79bc f13e
00000330: b63a 923f 4591 1b40 79fb ef3d 0a19 2ebe
00000340: e5fc 28be 7499 babe f21d 39bf 9849 9dbf
00000350: 9210 40bf b37c 773e f329 b1be ee38 d7bf
00000360: 7d92 c6bf 9c69 883d 887d 0b3d 643b 55bd
00000370: 26b9 dcbc 64f3 cd3f 7127 59bf f39a 81be
00000380: eaa2 76be 3948 df3e e5e5 0b40 d913 85be
00000390: 947a 19bd 2078 323e e887 083d 9159 213e
000003a0: 6116 0dbf f875 813e a7c5 07bf 0841 b8b9
000003b0: 5d75 613f d0a7 c63e c9cb 33be 34c3 d1bd
000003c0: 4395 25be 1ed6 e7bd aa15 cebe 67f7 e4be
000003d0: f35e 6c3f 6e5f 2abf dae8 8ebf cbf4 93bb
000003e0: eefb 36be e822 493f 0a4a 023e 14b7 693e
000003f0: eded 17be 9f6d b7be 6271 a5bf a98d 073f

bias f4 [64]
0.24997818 -0.7193494 -1.3212675 0.67606556 -0.4772401 -0.1930176 0.14440297 -2.833291
-0.033804942 0.4095155 -0.50881463 0.6929059 -0.19251585 -0.7205978 -0.63681966 0.54546493
-0.63407785 -0.8083244 -1.4106358 -0.30686754 -1.0722618 -0.48426408 -1.036516 0.52034825
-0.04017274 -0.021363739 -0.036093824 1.2629925 2.0980117 -1.0825151 0.10879035 0.0012057639
-0.70183086 -0.65132457 -0.14177564 0.2292089 0.5658409 -0.3079918 -0.04517993 0.108921856
-0.0692506 -0.32027516 1.0640804 -0.017265161 0.7447717 -0.09411562 0.2410565 -1.7356226
0.7319852 -0.24595414 0.2559809 -0.09786728 -0.008222115 -0.049274784 -0.65424085 -0.020627134
-2.3615642 0.28537524 0.8046893 0.29390773 -0.63931364 -0.045333203 1.6405036 0.16496812
00000000: 48fa 7f3e 4827 38bf 4b1f a9bf a212 2d3f
00000010: d058 f4be 68a6 45be 5fde 133e a454 35c0
00000020: 0d77 0abd 04ac d13e ad41 02bf 4862 313f
00000030: e022 45be 1979 38bf 9d06 23bf 97a3 0b3f
00000040: ed52 22bf 59ee 4ebf b78f b4bf be1d 9dbe
00000050: e03f 89bf 76f1 f7be 8eac 84bf 8b35 053f
00000060: 2c8c 24bd 0203 afbc 1ed7 13bd bda9 a13f
00000070: d345 0640 db8f 8abf 7acd de3d b90a 9e3a
00000080: 30ab 33bf 35bd 26bf a22d 11be bdb5 6a3e
00000090: f3da 103f 1ab1 9dbe 970e 39bd 6c12 df3d
000000a0: 42d3 8dbd 1bfb a3be c933 883f ab6f 8dbc
000000b0: 5ca9 3e3f b1bf c0bd 84d7 763e e228 debf
000000c0: 6263 3b3f 67db 7bbe ee0f 833e a46e c8bd
000000d0: 0db6 06bc 5bd4 49bd 547c 27bf 3cfa a8bc
000000e0: de23 17c0 b41c 923e 1e00 4e3f 137b 963e
000000f0: 0faa 23bf 4faf 39bd 06fc d13f 67ed 283e

weight f4 [64, 64]
-0.46939048 0.42128032 1.2627474 0.18340823 -0.16222192 0.828581 0.20601402 0.1086409
-0.9235937 -0.563429 -0.30336908 0.059618782 -0.6234918 -0.5886826 0.123245 -0.09685938
-0.50212336 0.025374923 0.26940066 -0.38597485 0.49025986 0.012813095 0.051603537 -0.06954001
-0.64678085 -0.76239717 0.41783905 -0.4175336 0.11944407 -0.08787096 -0.6347449 -0.38957453
0.28015518 0.23711027 0.6406698 -0.41084015 -0.7888201 -0.5479437 0.14846225 -0.55243045
-0.5947362 -0.09508536 -0.6456084 0.15911399 -0.597252 0.05037725 0.49284706 -0.0032207752
0.21736737 0.16557725 -0.517064 -0.13369234 0.61236435 -0.5411925 0.13974455 0.23336816
-0.0004976109 -0.8817093 -0.14683396 0.16121322 0.005250492 -0.10234769 0.17302348 -0.08279967
0.14007595 -0.0462139 0.22224198 0.020593429 -0.0707904 -0.5394302 -0.30066603 0.35356185
0.21286388 -0.06713689 0.04821095 -0.16996865 0.21092989 -0.061129306 -0.15358752 0.107207075
-0.30034354 -0.192049 -0.39776018 0.5038881 -0.24514154 -0.073868 -0.20242506 0.07521328
0.14717431 0.4265023 -0.27347842 0.15574954 0.3699331 0.45256823 0.10673575 0.2982597
0.14548634 -0.13179517 -0.5819718 0.06371859 0.35773906 0.21772489 -0.21538147 0.3942675
0.42057237 0.160516 0.18652473 -0.08281599 0.571828 0.4515912 -0.22659491 -0.26078728
0.24567702 -0.2629279 0.41081238 -0.26188654 0.17101021 0.6319002 0.27143472 -0.03642718
0.5897255 -0.013122751 -0.07482136 -0.34255248 0.0023992017 0.5197143 0.07374573 0.23926534
0.116894074 0.13873905 -0.03781756 0.09294258 -0.11685606 0.21902043 0.05491468 0.0041944208
-0.15957893 0.017050028 0.07523258 -0.109121926 0.07515504 0.1601844 0.08365195 0.049812052
0.16896895 -0.399528 0.09704951 0.38743514 0.11225031 -0.049441647 -0.13241051 0.2865863
-0.23916486 0.055093884 -0.008038372 -0.02157103 -0.07655762 -0.11216249 -0.030273594 -0.1275918
-0.14499417 -0.015452374 -0.26061887 -0.043847505 0.200509 0.057790924 0.01976514 0.16497564
0.2719958 0.117278434 -0.0022915923 -0.14425465 0.059500266 0.035778083 -0.04380274 0.0040193005
-0.024334805 -0.08332795 0.072963275 -0.12738962 0.15924102 0.47964746 -0.10335251 -0.3088221
0.10682163 0.08224637 0.037749894 -0.14690006 0.17531185 -0.047767535 -0.066925086 -0.1299618
0.5822463 0.72336614 0.66330063 -0.4445549 -0.25958887 -0.9059422 -0.6462416 1.0670375
0.42929474 -1.1597271 -0.6157631 -0.058922723 1.7466676 0.73473155 0.13844845 0.4092917
0.9100534 -0.7628518 -0.97087246 1.1191909 -0.11821149 -0.3991524 0.48430595 0.49928823
0.42320603 0.56236637 -0.07736879 0.17759976 0.43220255 -0.5101487 0.11532343 0.28877074
0.50335664 -0.91910547 -0.87456715 -0.44506422 0.59305936 0.2892868 -0.6688535 0.55866164
0.81043786 0.4845612 -0.3051241 -0.12819205 -0.026518548 0.14823611 -0.08499796 -1.002272
0.8157715 0.1143762 0.28850654 -0.4287996 -0.45439163 0.528444 0.106467046 0.06538878
-0.37583998 1.147739 -2.2963305 0.032306917 -0.0708972 0.27525857 -0.5372188 -0.28744748
00000000: f353 f0be 0eb2 d73e b5a1 a13f 5ecf 3b3e
00000010: 811d 26be e21d 543f 57f5 523e 1f7f de3d
00000020: a370 6cbf e23c 10bf 3153 9bbe d332 743d
00000030: 299d 1fbf e7b3 16bf e067 fc3d 365e c6bd
00000040: 288b 00bf 12df cf3c e2ee 893e 7f9e c5be
00000050: 5703 fb3e 04ee 513c 3b5e 533d fe6a 8ebd
00000060: 6e93 25bf 762c 43bf 00ef d53e f7c6 d5be
00000070: 189f f43d b1f5 b3bd a47e 22bf 5076 c7be
00000080: 8070 8f3e 09cd 723e f002 243f a459 d2be
00000090: 1df0 49bf 0a46 0cbf 7d06 183e 156c 0dbf
000000a0: a240 18bf 1dbc c2bd 9846 25bf c7ee 223e
000000b0: 82e5 18bf 6058 4e3d 7356 fc3e a413 53bb
000000c0: 8d95 5e3e 158d 293e 4e5e 04bf a5e6 08be
000000d0: e9c3 1c3f 978b 0abf 3219 0f3e 10f8 6e3e
000000e0: 1a72 02ba b3b7 61bf a45b 16be 1415 253e
000000f0: 520c ac3b aa9b d1bd 112d 313e e092 a9bd
00000100: 1270 0f3e c94a 3dbd 6793 633e 8db3 a83c
00000110: 8ffa 90bd 1918 0abf e6f0 99be 0f06 b53e
00000120: fdf8 593e 117f 89bd d878 453d 430c 2ebe
00000130: 01fe 573e b962 7abd 0c46 1dbe 628f db3d
00000140: a1c6 99be 7ea8 44be 39a7 cbbe cffe 003f
00000150: 6206 7bbe 1b48 97bd 8448 4fbe 6c09 9a3d
00000160: ddb4 163e 825e da3e 5d05 8cbe cf7c 1f3e
00000170: df67 bd3e 06b7 e73e 4698 da3d 7fb5 983e
00000180: 5ffa 143e 50f5 06be 1bfc 14bf e47e 823d
00000190: 9329 b73e 46f3 5e3e f68c 5cbe 6edd c93e
000001a0: 4355 d73e 4e5e 243e 5700 3f3e 6e9b a9bd
000001b0: 5263 123f f636 e73e 7f08 68be e985 85be
000001c0: c292 7b3e 7c9e 86be 0056 d23e fe15 86be
000001d0: 4d1d 2f3e 36c4 213f 7ef9 8a3e ab34 15bd
000001e0: 40f8 163f cf00 57bc f13b 99bd 0a63 afbe
000001f0: ed3b 1d3b ff0b 053f 0008 973d f901 753e
00000200: 2966 ef3d 9c11 0e3e 96e6 1abd ae58 be3d
00000210: 3b52 efbd e446 603e 37ee 603d 5a71 893b
00000220: a968 23be 80ac 8b3c 8a13 9a3d 517b dfbd
00000230: e3ea 993d 6107 243e b751 ab3d b907 4c3d
00000240: 3206 2d3e ef8e ccbe e5c1 c63d e65d c63e
00000250: 7ee3 e53d 5383 4abd 9f96 07be 71bb 923e
00000260: a2e7 74be 20aa 613d 60b3 03bc bbb5 b0bc
00000270: 3eca 9cbd 73b5 e5bd 5400 f8bc 6da7 02be
00000280: 5a79 14be f42b 7dbc d66f 85be 7199 33bd
00000290: 3b52 4d3e 2db6 6c3d 81ea a13c 60ef 283e
000002a0: 0943 8b3e ad2f f03d 8a2e 16bb 7eb7 13be
000002b0: 8db6 733d 0a8c 123d 806a 33bd 56b4 833b
000002c0: c959 c7bc d8a7 aabd c56d 953d 6d72 02be
000002d0: 1410 233e 5a94 f53e 7baa d3bd ee1d 9ebe
000002e0: 4cc5 da3d c970 a83d a29f 1a3d f86c 16be
000002f0: f384 333e e4a7 43bd 0510 89bd b514 05be
00000300: 180e 153f 862e 393f 12ce 293f b39c e3be
00000310: d5e8 84be d4eb 67bf 1770 25bf af94 883f
00000320: 85cc db3e f071 94bf a7a2 1dbf f458 71bd
00000330: ce92 df3f 5e17 3c3f 6ec5 0d3e af8e d13e
00000340: 42f9 683f 414a 43bf 198b 78bf a641 8f3f
00000350: de18 f2bd b45d ccbe f3f6 f73e b5a2 ff3e
00000360: 76ae d83e 3ef7 0f3f 8773 9ebd b6dc 353e
00000370: a749 dd3e 1b99 02bf b12e ec3d c2d9 933e
00000380: fbdb 003f 7f4a 6bbf a2e3 5fbf 75df e3be
00000390: bdd2 173f 661d 943e fc39 2bbf 7304 0f3f
000003a0: db78 4f3f 6818 f83e 3a39 9cbe c744 03be
000003b0: 6d3d d9bc 35cb 173e 6913 aebd 734a 80bf
000003c0: 67d6 503f 123e ea3d 21b7 933e 9f8b dbbe
000003d0: 05a6 e8be 1b48 073f 650b da3d 8dea 853d
000003e0: 196e c0be 1de9 923f 14f7 12c0 4254 043d
000003f0: 8d32 91bd b1ee 8c3e 2c87 09bf 512c 93be

bias f4 [64]
0.6826654 -0.08432933 0.03273971 0.30205655 0.057572115 0.041456774 -0.41198212 0.23598664
0.39137864 -0.00428366 0.27938157 0.14838262 0.1275208 0.08356313 0.08389239 0.11638607
-0.3600937 0.0031550215 0.24043897 -0.44643608 -0.44722182 -0.046808645 0.29136553 -0.5536845
0.08009629 0.15579265 -0.19550458 0.66418415 -0.080795445 0.4233891 0.1254004 0.34334236
-0.2251476 -0.39036697 -0.1931663 -0.052766554 0.17053762 0.03838658 -0.53565115 -0.04139913
0.47127715 0.01964995 0.1917546 -0.0013421711 0.10577399 0.28094143 0.123155065 0.25002974
-0.063398704 0.1253555 0.37067682 -0.1312581 -0.34003285 0.022731762 -0.3449896 0.44612056
-0.087041296 0.2827996 0.07109937 -0.102984145 -0.25043622 0.14015241 0.09198602 -0.14102538
00000000: 29c3 2e3f dbb4 acbd 131a 063d 28a7 9a3e
00000010: bdd0 6b3d 94ce 293d 52ef d2be 7ba6 713e
00000020: c862 c83e f25d 8cbb 1a0b 8f3e 9df1 173e
00000030: d094 023e 2523 ab3d c6cf ab3d d25b ee3d
00000040: 345e b8be 7ac4 4e3b a235 763e 4593 e4be
00000050: 42fa e4be 6cba 3fbd dd2d 953e 44be 0dbf
00000060: 8609 a43d 1c88 1f3e 5a32 48be f907 2a3f
00000070: 1578 a5bd 75c6 d83e f668 003e 92ca af3e
00000080: 188d 66be 2ede c7be 63cd 45be be21 58bd
00000090: 6aa1 2e3e 3f3b 1d3d 6f20 09bf 2292 29bd
000000a0: 3d4b f13e eff8 a03c 515b 443e caeb afba
000000b0: 09a0 d83d 8ed7 8f3e b938 fc3d e603 803e
000000c0: 2ed7 81bd 315d 003e 5ac9 bd3e 8668 06be
000000d0: c918 aebe f637 ba3c 7aa2 b0be ea69 e43e
000000e0: b542 b2bd 1ccb 903e 8c9c 913d 5ae9 d2bd
000000f0: 2d39 80be 1d84 0f3e 2b63 bc3d f568 10be

weight f4 [1, 64]
-3.1191158 1.098318 -0.7124148 3.2657893 0.12613751 -0.65806556 -1.2805674 -0.12768249
-0.77992165 0.06372096 -1.9815257 1.0511416 0.78709596 0.61732906 -0.21019423 -1.994342
1.9642684 0.66165257 -3.1778884 1.6437196 1.7663541 1.0751678 1.4757156 3.7464619
0.97836834 -1.3771942 0.6532796 1.5511147 0.9540747 1.6578126 -1.9050065 4.0741
1.942395 -0.9650138 3.6055994 -0.15809906 3.937415 -0.732963 3.5462918 1.7095034
-1.5144727 0.030391313 1.8345706 -0.0063173645 -0.6323077 0.8542356 -0.86506754 0.7472627
0.8298019 -0.8127791 1.3083957 0.5195083 -0.31839678 -0.44384682 1.2352668 1.1115788
2.0955007 -0.7647452 0.27707136 1.2069826 3.2307334 -0.08238631 -1.5343566 1.1518354
00000000: 989f 47c0 af95 8c3f d160 36bf b102 5140
00000010: 312a 013e fc76 28bf a2e9 a3bf 33bf 02be
00000020: f2a8 47bf 2280 823d a2a2 fdbf cf8b 863f
00000030: 1f7f 493f 4709 1e3f 283d 57be 9946 ffbf
00000040: 266d fb3f 1062 293f 8662 4bc0 6765 d23f
00000050: e417 e23f 199f 893f 40e4 bc3f 08c6 6f40
00000060: 5976 7a3f e647 b0bf 553d 273f ed8a c63f
00000070: 3d3e 743f 3433 d43f 41d7 f3bf 075f 8240
00000080: 66a0 f83f 250b 77bf 24c2 6640 b8e4 21be
00000090: 9bfe 7b40 77a3 3bbf 72f6 6240 02d1 da3f
000000a0: 3eda c1bf 34f7 f83c 36d3 ea3f e501 cfbb
000000b0: ebde 21bf 2faf 5a3f 1175 5dbf 9c4c 3f3f
000000c0: e66d 543f 4b12 50bf 8379 a73f 7ffe 043f
000000d0: e704 a3be e43f e3be 391d 9e3f 3748 8e3f
000000e0: af1c 0640 57c6 43bf 4cdc 8d3e 687e 9a3f
000000f0: 56c4 4e40 27ba a8bd cc65 c4bf 586f 933f
