ppo/data/exp/InvertedDoublePendulum-v2/model/2022-06-17-09-07-44_actor.pt (torch, 23319 bytes, 5 tensors)

weight f4 [64, 11]
00000000: b426 a3be ec3b 19bf fffa 653e a5a8 75be
00000010: d327 36bf f0af ccbe 144a 08bf bcb9 1cbe
00000020: 0274 953e efb7 57be 48dd c53d 66f2 99be
00000030: c433 e03d 5616 a4be 8ffe 12bd f6e5 72be
00000040: 2dab 273b b747 4ebe 7383 083e b2e2 863c
00000050: 2a99 2abe 20a3 b2bc 004a e83d a2da 0a3f
00000060: 4606 8c3d 441c 5f3e 3d34 9fbe 927a 1b3e
00000070: 785b b13e b0cb 743d adea 893e 36a4 2a3e
00000080: 40c4 813d 91df 813d 2425 bf3e e577 2fbf
00000090: a1ff dd3d aa8b c6be f5c8 b1be 5846 c3be
000000a0: a18e 2ebf 67ef 283d 244c 3b3e beba 883e
000000b0: 2e81 1c3e 0b34 3a3e 623b c43e 84fa a93e
000000c0: dbde 16be 259f 24be 0913 ed3e 3844 2d3f
000000d0: 9a06 8a3e 00c9 d1ba a0c9 633e f5b6 09be
000000e0: bc1a 363e 8317 97be f5f0 b03e fc3c 3e3e
000000f0: 0654 bebe e929 ff3d 6fac 1abf dfcf ecbc
00000100: bb40 51be 3002 7d3d 2440 613e 53ab a03e
00000110: 162c 8abe 15a1 a8bb eae0 c73e 1506 4a3f
00000120: c864 05bd 4292 1cbf 5f2f 18be e240 30be
00000130: c8ed 393d e19e a43e b2fe 1d3f bc99 4ebe
00000140: b4e1 ec3d 62f8 92bc f363 06be 36f0 953e
00000150: df4c 9c3d cbcc 68be 1857 973e 60ce 873e
00000160: 4d4b 043d 35b2 9c3e 6929 cdbe b98c bebd
00000170: 60e6 b33e d053 5cbe 9cfd f53d 7d30 2fbe
00000180: 2349 2ebe ee80 043e da0f 37be 3de8 22bf
00000190: 1af2 4dbf 4941 55bd 696b 0b3f 7f37 153f
000001a0: f7bd 51bf d3d1 aebe 0730 a13e 4aec 84be
000001b0: 94f5 97be 241b 20be 3e7d c6bd 8614 34bf
000001c0: dce7 563e 28d5 6dbd 32fe 993e f09d bdbd
000001d0: 2897 13be 6846 44be 10ac 173e d032 80be
000001e0: e86d 6d3d aa96 8c3d ee48 393e 90a1 443e
000001f0: 875d 8abc 5d71 ec3d ba82 1cbd 1d74 1e3e
00000200: 2ff4 943e 7af8 733e 9d57 81be 9c32 aa3d
00000210: 43e4 833e 72aa 74be 1df1 22bd 586a f33e
00000220: c80e 84be 0355 b83e ed53 30bd 9c33 51ba
00000230: ae1d 1cbe d3d3 8cbe 8036 54bb 968a 39be
00000240: faa1 99bd 5dda 1d3e 4e38 c03e b31a f53c
00000250: 8d25 a33d 1ec2 86be 08a4 68be c216 dc3d
00000260: 20c7 1ebd fe89 10be 5eb2 3c3e 38c6 0abe
00000270: 6c03 603e 35c3 a5be 5cf6 3bbd 6b12 1f3f
00000280: f6a8 b33e a4a7 e23e 351a 92be e6ed 473e
00000290: 5eb5 e1bd ab7f e4bd f580 4abe cc37 d5bd
000002a0: cd91 28be 74e0 86be 272e 8ebe dcd9 103d
000002b0: f2be 443e 1261 583e c5a7 50be 80aa 7b3d
000002c0: 2026 593e 1eb2 073d 436b e2bc 6a58 74be
000002d0: 64ce 4f3e e5f7 10be 2848 15be ddcd 453e
000002e0: e7c1 e6bd e0d9 b7bc cc9d 97bd 16fe 11bf
000002f0: 5c39 34be 41ab c33e 50ee cabe ccf6 9dbf
00000300: 138d 15bf 6f0d 813d 3506 833e 6819 043d
00000310: 9277 31be 7098 ce3c 3632 b2bd edfa 52bf
00000320: d440 a93e 14a0 8bbd 6df4 243d 7353 69be
00000330: f918 b6be 4de2 c5be 86ee 5b3e 00c8 173d
00000340: e0d5 8e3e 786e 183f b3e7 443f 8f9b abbd
00000350: 9762 e23e 6e60 563f e09e 313f 2619 ac3e
00000360: 9a85 d9be 2baa e4bd 5015 acbc c110 10be
00000370: 19ee 41bd 5f1c 8d3e 85a6 85be 404e 26bd
00000380: f422 e63e 8c59 c7be 11f2 75be 35a2 a43e
00000390: aa0c ffbd e0b5 0d3c 40e8 e73d d65f 8ebe
000003a0: d88c 93be 6dee 6d3d ca7a 393e c36c 71be
000003b0: f83b 4abd df90 cfbe 8565 ba3d 5d37 ce3d
000003c0: 80c7 c7bc 3cc5 a83d 3fc0 02be c66a 97bf
000003d0: 352b ebbe b4df 40bd b8a9 a9bd e4eb 12be
000003e0: 8f05 13bf ff8a 8b3f 73d8 4ebe 800a 1b3c
000003f0: a8c5 da3d d826 cebc 6498 c43f d421 d53f
-0.31865466 -0.5985706 0.22459029 -0.23990114 -0.71154517 -0.3997798 -0.53238034 -0.15305227
0.2919007 -0.21066259 0.09661347 -0.30067748 0.109473735 -0.3204829 -0.035887297 -0.23720536
0.0025584206 -0.20144545 0.13331394 0.016465519 -0.1665999 -0.0218063 0.113422394 0.5423986
0.06837134 0.21788126 -0.31094542 0.15183476 0.34640098 0.059764564 0.26936856 0.16664204
0.0633626 0.0634147 0.37333024 -0.6854232 0.10839773 -0.3877843 -0.3472363 -0.38139606
-0.68186384 0.041243937 0.18290764 0.26704973 0.15283653 0.18183915 0.38326555 0.3319894
-0.1473345 -0.16076334 0.46303585 0.6768222 0.26958162 -0.0016005337 0.22244883 -0.13448699
0.17783636 -0.29510126 0.34558836 0.18577951 -0.3717348 0.124591656 -0.6041936 -0.028907714
-0.20434849 0.061769664 0.21997124 0.3138071 -0.2698676 -0.0051461556 0.39038783 0.7891553
-0.032566816 -0.6116067 -0.1486182 -0.17212251 0.04539278 0.32152465 0.6171676 -0.20175833
0.11566487 -0.017940704 -0.13124065 0.2928483 0.076318495 -0.22734372 0.29558635 0.2652464
0.032298375 0.3060471 -0.40070656 -0.093041845 0.351367 -0.21516347 0.12011263 -0.1710834
-0.17020087 0.12939808 -0.1787714 -0.6363562 -0.8044754 -0.052064214 0.5446077 0.58287805
-0.8193049 -0.34144458 0.31481954 -0.25961524 -0.2967955 -0.15635353 -0.09691857 -0.70343816
0.20986885 -0.05806461 0.30076748 -0.0925864 -0.1441313 -0.19167483 0.1481173 -0.25038767
0.057966143 0.068646744 0.18094227 0.19202256 -0.0168903 0.1154506 -0.038210608 0.15473981
0.29092547 0.23825255 -0.25262156 0.08310434 0.25760087 -0.23893145 -0.039780725 0.4754207
-0.25792527 0.3600236 -0.043048788 -0.00079804077 -0.15245697 -0.2750536 -0.0032381117 -0.18119273
-0.07501598 0.1541533 0.37542957 0.029919958 0.079661466 -0.26319975 -0.22718823 0.10746528
-0.03876412 -0.1411514 0.18427417 -0.13552177 0.21876305 -0.32375494 -0.045889243 0.6213748
0.35089844 0.44268525 -0.2853562 0.19524345 -0.11020921 -0.11157163 -0.19775756 -0.10411033
-0.16461869 -0.2634312 -0.27769586 0.035364017 0.19213465 0.2113078 -0.20376499 0.0614419
0.2120595 0.03312885 -0.027639037 -0.23861852 0.20293576 -0.14157064 -0.14578307 0.19316812
-0.11267453 -0.022442758 -0.07403144 -0.5702833 -0.17600006 0.38216594 -0.39634943 -1.2340941
-0.5841839 0.063013904 0.25590673 0.03225079 -0.17330769 0.025219172 -0.08700983 -0.8241413
0.33057272 -0.06817642 0.040272165 -0.2278574 -0.35565928 -0.38649216 0.21477708 0.03705597
0.2789755 0.5954356 0.76916045 -0.0837928 0.44215843 0.8374089 0.6938305 0.33612937
-0.42484742 -0.111652695 -0.021006256 -0.14068891 -0.04734621 0.27560708 -0.26103607 -0.04060197
0.44948542 -0.38935506 -0.24018122 0.32155004 -0.12453587 0.008649319 0.11323595 -0.27807492
-0.28818393 0.05808871 0.18113247 -0.23576646 -0.049373597 -0.40540215 0.091013946 0.100691535
-0.024387121 0.082407445 -0.12768649 -1.182946 -0.45931402 -0.04708834 -0.082843244 -0.14347798
-0.57430357 1.0901793 -0.20199756 0.009462953 0.10682231 -0.025165007 1.5359006 1.6650949

bias f4 [64]
00000000: 4a06 2abf 9c27 0dbe 76aa ee3c 861f 723d
00000010: 2fe7 853e 9b83 2dbe 5eaa e1bd 0d7e d13d
00000020: f435 ea3d 4d79 8b3f a3cd 953d e911 6b3e
00000030: 0ec2 b5ba a9f2 19be a915 1dbd 1577 63be
00000040: ed82 24be ab63 7cbf 0027 e9bd 20be 6c3f
00000050: 89ac 863e 49f1 2e3e 7d2e 1c3e 34a5 9cbd
00000060: 28db a7be 0872 63be 5aa7 86bd 4b3b 4ebe
00000070: d21c 173e e647 6e3e ba87 5b3c 2d33 c4be
00000080: 68a4 813d 0a27 a3bf 7e73 86bd d334 ee3d
00000090: 5547 25bd a8ae 233d 51ce 753e 6da9 1a3e
000000a0: 00dd 45be 07d5 5abe 7661 17bf 0faf 44bd
000000b0: 337b 8abe 81c3 743f fc0e 233f d08f c2bc
000000c0: c0b0 37bf 1e05 133e 4af1 953e 9a50 91bc
000000d0: ab2b 4b3e 5509 f13e e9c0 803e c216 683d
000000e0: 47c5 3c3e 0628 573e 0cf3 30be b926 28bd
000000f0: 4ae5 33be 98b8 05bd c5bc b138 0821 b0bd
-0.66415846 -0.13784641 0.029134016 0.059112094 0.26152942 -0.16944735 -0.11018823 0.102291204
0.11436072 1.0896393 0.07314613 0.22956051 -0.0013867037 -0.15033974 -0.038350735 -0.22213395
-0.16065569 -0.9858958 -0.11384392 0.9247761 0.2630351 0.1708423 0.15252109 -0.076486975
-0.3278439 -0.22211468 -0.065748885 -0.20139806 0.14757088 0.23269615 0.013399059 -0.38320294
0.06330186 -1.2746289 -0.06564997 0.11631169 -0.04035123 0.039961487 0.24004485 0.15103693
-0.19322586 -0.21370326 -0.5913309 -0.04801851 -0.2704712 0.95610815 0.6369474 -0.023750216
-0.71754074 0.14357421 0.2928565 -0.01773863 0.19840877 0.47077432 0.2514718 0.05666233
0.1843463 0.21011361 -0.17280215 -0.041052554 -0.17567936 -0.032646745 8.475179e-05 -0.0860005

weight f4 [64, 64]
00000000: 88d6 303c e6ff 0e3c 69dc 75ba 8c18 bfbc
00000010: 516c 8ebd 46eb 8b3d 9829 053d 61e8 a2bd
00000020: 626a 5e3d 9335 d0bd f1d8 a4bd 7ec5 ecbd
00000030: 51a9 2e3c 3bc4 013d 4d97 21bd 4d7b 683d
00000040: ab65 023e 2d99 c2bd 7b30 f13c b203 0dbd
00000050: 0625 57bd 5c1b e7bd cda8 82bd 9875 07be
00000060: b5e8 8dbd e234 78bc f66b cfbc 7af1 36bd
00000070: 6175 f7bc 0f2b 23bd db2f 1fbd 1cac 8e3d
00000080: fc1f c63b b2e2 bb3c ac77 56bd eb85 ee3c
00000090: 6b12 2e3d eebf a8bc 3ae7 e5bc 85bc af3d
000000a0: e682 7e3d 2978 e0bd e5a5 38bd dd4e 13bd
000000b0: 1706 f7bc ea36 7e3d c1a9 753d 98a7 bd3d
000000c0: db20 87bd 75c0 fe3b 6b1f b93d 10ba 9e3d
000000d0: a3a6 cd3b 8092 debd 7145 bcbd a2b0 233d
000000e0: d196 e3bd 553a 943d b686 68bd dcae 2dbd
000000f0: 285e f13d a3da c5bd 1ef9 1c3d ff66 d43c
00000100: 16f6 fa3d 8322 dc3d 0aad 643d fc08 ca3d
00000110: 02c2 a7bd af85 fa3d dee7 87bd 4160 acbd
00000120: dcc6 603d adbb 8b3c 47f8 b03d 34c2 a83c
00000130: 9022 523d f3ac 423d 5094 ad3c a53c b13d
00000140: b397 c4bc 07aa 8ebd 3174 72bd 9054 df3c
00000150: ac01 21bd 2f46 c8bd 4f1a e13d 6ca1 013e
00000160: aa2b 263d 6407 a73d 12e8 a0bd 449e 123e
00000170: baac 5e3c dcad 543d df61 81bd 9e92 84bd
00000180: 4ef9 0f3d b580 e7bd dd13 fcbc f54a acbc
00000190: ab73 aa3d 6f5a dd3d 77f5 49bd cd09 ccbc
000001a0: 52dd a4bc f925 983c 38f8 673d 16ba 033d
000001b0: 44c7 a8bd 5dd5 eebd 00fe 46bd 2006 c6bc
000001c0: 027a d7bd a05a b7bd 8d28 79bd 120f 033c
000001d0: 367d 03bd 8fe8 61bc 22c7 3b3d 2043 d7bb
000001e0: 0239 da3d 9566 0a3e 8b0a da3d 3d92 1e3d
000001f0: a178 c83d 7a50 2cbd ee88 ee3d 8639 48be
00000200: d283 d13d 5ea4 4abd 075e 0abc c6f4 123e
00000210: a807 f63c 9df4 60ba 1df9 5cbd 22e4 7dbd
00000220: 9d0e 2b3d d1b0 60bd 1173 3b3e d061 c7bd
00000230: 6744 0abe 743a 9fbd e2ef 233b 8884 33bd
00000240: c73d adba 4809 cd3d b084 d23d e488 be3d
00000250: a83b 653c b15f bebc 55da bc3d dbd3 9c3d
00000260: f4b2 d1bc eb83 f2bd 4efd ff3d a954 273e
00000270: c462 023e c687 34bd b60f 8e3d 7184 7f3e
00000280: 84ad 913d 64dc 1abe 29ea d8bd 6e63 b0bd
00000290: ec91 473d 9e1c 0bbc ff09 453d 4444 17bd
000002a0: fb01 193e 51ac f6ba 94c8 303e 033b 03bc
000002b0: c3fb 37bd dc9e 81bd 3d0d e6bd 72ab c13d
000002c0: e0e4 b2bd 6caa 05bc 4a4d 133e 06ce 693d
000002d0: 0328 9c3a bb22 3e3e 58fb ab3d 5dc8 8b3b
000002e0: d999 753d 3d22 663e 4b97 8fbd 2c23 243b
000002f0: 46dc 063d cf11 8f3d ff0e 5d3d d341 83be
00000300: 89c2 b0bd 5303 a23d ffdf c93d d1b3 80bd
00000310: 5c1b 97bd 85e8 37bd 42f4 863d 22cc 393d
00000320: 166f 0cbe 9762 523e 1291 68bd f540 94bd
00000330: fedd af3d 99b6 c6bc db3a 783d c0ee d4bd
00000340: 7a08 f53d eae8 f43d f2e9 1c3d b8be b5bd
00000350: 0d04 e2bd 83f9 a1bd e02f b4bd 2f57 b03b
00000360: bca8 03bd c568 1a3e a102 21be aba2 13be
00000370: 05ef 36bd 3182 a43d d3a8 323d bfa9 52be
00000380: 2357 0abe c77d 2e3e ccc2 613c 2f42 993d
00000390: 6d83 563c 76b7 d9bd 0d4e c4bd ef8f 88bd
000003a0: 836a f4bc 0310 2a3d 1788 40be 9711 073e
000003b0: 6053 d83d 8e52 2e3c 86d5 593d 1af1 96bd
000003c0: a7cf 313b 4ce3 c83d 8e9f bd3d 61f9 b73d
000003d0: debe 10bd 2f3a dfbd 91dc 8bbd bf49 e0bc
000003e0: dad1 753c 66cc 76be d225 16bd 4cee 3dbd
000003f0: 9bcb 6abc 78ac b23d 07c2 60bd 25f9 6d3e
0.010793336 0.008728003 -0.0009378852 -0.023327135 -0.069542535 0.06831984 0.03251037 -0.07954479
0.054300673 -0.101664685 -0.08049191 -0.11561106 0.010660485 0.03168128 -0.039450932 0.056758214
0.12734096 -0.09501872 0.029442063 -0.034427352 -0.052525543 -0.11284515 -0.063798524 -0.13228452
-0.06929151 -0.015149327 -0.025320034 -0.044663884 -0.030207338 -0.039835986 -0.038863998 0.06966421
0.0060462933 0.022935245 -0.05236022 0.029116591 0.042498033 -0.020599332 -0.028064359 0.08580879
0.062136553 -0.10960419 -0.045080084 -0.03596388 -0.030154271 0.06206409 0.059976343 0.092604816
-0.065980636 0.0077744075 0.090391956 0.07750332 0.006275968 -0.108677864 -0.091929324 0.039963372
-0.1111275 0.072376885 -0.056769095 -0.042403087 0.11785537 -0.09660842 0.038323514 0.025928019
0.122539684 0.1074877 0.055829085 0.09864995 -0.08191301 0.12232529 -0.06636022 -0.084167965
0.054877147 0.017057264 0.08641105 0.020600416 0.051302493 0.04752822 0.021188885 0.08654145
-0.023998117 -0.06966024 -0.05919284 0.027262002 -0.039308235 -0.097790115 0.10991346 0.12659234
0.040568985 0.081557065 -0.07856764 0.14318186 0.013590986 0.051923618 -0.063174956 -0.064732775
0.035149865 -0.11303846 -0.03077119 -0.021031836 0.08322843 0.108082645 -0.04930636 -0.024907017
-0.020125065 0.018572794 0.056633204 0.032159887 -0.08241132 -0.116617896 -0.048582077 -0.024172843
-0.10521318 -0.08952832 -0.060829688 0.0079991985 -0.032101832 -0.013788356 0.045844205 -0.006569281
0.106554046 0.13515694 0.10646542 0.038713682 0.09788633 -0.042068936 0.11647211 -0.19553193
0.10230221 -0.04947316 -0.008445269 0.14351186 0.030032948 -0.0008581372 -0.05394851 -0.061985143
0.041761983 -0.054856125 0.18305613 -0.09735453 -0.13502656 -0.07774821 0.0025014807 -0.043827564
-0.0013217264 0.10011536 0.102792144 0.093034536 0.013991274 -0.023238989 0.09221331 0.07657596
-0.025598027 -0.118415676 0.12499486 0.16340889 0.12732989 -0.044074796 0.069365904 0.24952866
0.071131736 -0.15123135 -0.105915375 -0.08612715 0.048723146 -0.00849071 0.048105236 -0.036930338
0.14942162 -0.0018819665 0.17264014 -0.008009675 -0.044917833 -0.06329128 -0.11232994 0.09456529
-0.08735061 -0.0081583075 0.14384952 0.057081245 0.001191378 0.18567936 0.083975494 0.0042658285
0.059961174 0.22473998 -0.07011279 0.0025045378 0.032924913 0.069858186 0.05396938 -0.25636157
-0.08630855 0.0791079 0.09857177 -0.06284297 -0.07378265 -0.044899482 0.06589557 0.04536069
-0.13714251 0.20545422 -0.056778975 -0.07238952 0.085872635 -0.024256991 0.060603004 -0.103971004
0.119645074 0.11958487 0.038309045 -0.08874267 -0.11035929 -0.07908919 -0.08798194 0.005381487
-0.03214334 0.15079029 -0.15723659 -0.14417522 -0.04466154 0.080326445 0.043618035 -0.20572565
-0.13509803 0.17040168 0.013779353 0.07483327 0.013092858 -0.106306955 -0.095851995 -0.06668078
-0.029835945 0.041519176 -0.18801914 0.13190304 0.105627775 0.0106398 0.053182147 -0.07370205
0.0027131827 0.098089784 0.09258948 0.08983112 -0.035338275 -0.108997695 -0.06829179 -0.027378915
0.015003646 -0.2410141 -0.036657162 -0.046369836 -0.01433077 0.08724302 -0.05487254 0.23239572

bias f4 [64]
00000000: fb26 823c 0c46 083e adaf 4d3d db86 5bbd
00000010: 8470 af3d 770e 9a3c a5ba 88bd 4a00 3abd
00000020: 8f97 60bd 23aa 6e3d 380b d03d b366 b33d
00000030: 7254 403d 6a35 d2be 231d c23d 7957 4bbd
00000040: 150b 88be d3d9 dcbd 031b 4a3d d17b a7bc
00000050: 2075 383e 4dd5 e6bc d8ae 03bc 87fd 91bd
00000060: a442 833d ea20 d83d bdf4 573e 5db3 75bd
00000070: 2f6e 8dbd 3b07 dc3c cc66 443f e7cb 59bc
00000080: 2f6d 18bd 3e3e 363d f653 f43d b744 f13d
00000090: 2a27 b9bd a008 b5bd 23f8 7c3d b9fe 433a
000000a0: 57fe 743c 00c5 1bbe cc03 94bd 6d54 afbd
000000b0: d417 f53d 15be c8bd 0066 2dbd 455e d3bd
000000c0: 7a64 bcbd 7dee bfbc 5659 58bb ee7c 743d
000000d0: 35aa ef3c 2cba e5bc d313 02be 6cea 77bd
000000e0: 6b48 2bbd aefc 413d 1d91 a9bd 1d20 b83d
000000f0: 40a7 c9bc 78ab 3bbe 26e5 dabd 94ed 2dbe
0.015887728 0.13307971 0.050216366 -0.053595405 0.085663825 0.018805725 -0.066762246 -0.045410432
-0.054832038 0.058267724 0.1015839 0.08759823 0.046955533 -0.41056377 0.09478214 -0.049643967
-0.26570955 -0.10783734 0.049342167 -0.020444782 0.1801343 -0.028177882 -0.0080372915 -0.07128435
0.06409195 0.10553153 0.21089454 -0.059985507 -0.069057815 0.026858917 0.76719356 -0.013293243
-0.0372135 0.044492953 0.11930077 0.117806844 -0.09040673 -0.08839536 0.06176008 0.00074766163
0.0149532175 -0.15211868 -0.07227287 -0.08561025 0.119674355 -0.0980188 -0.042333603 -0.10320715
-0.09198852 -0.02342915 -0.0033012233 0.059689455 0.029255966 -0.028042875 -0.12702875 -0.060526296
-0.04181711 0.047360115 -0.08279631 0.089905 -0.024615884 -0.18327129 -0.10688238 -0.1698516

weight f4 [1, 64]
00000000: 3976 b13d d7ad 65bd def3 91bd adcc dcbb
00000010: c657 e23e 8230 e4bb 4ea3 1dbd acad 2abd
00000020: 0452 b1be e3b8 a43f 296e 5fbd 888f 4abd
00000030: 62fd 62be e748 bdbf 6277 a93c 84ba 343d
00000040: a479 df3f a636 5dbf cf8c b7bd dda0 00bc
00000050: 100d 3b3f 5b58 953d cf08 46bc a4ff 9bbe
00000060: cc9a 863f 85fd 313f 9f94 963f 932d bbbe
00000070: d725 8bbf f326 d8ba dee0 1cc0 1a20 15bf
00000080: 5dcf 313c ca44 7cbd cf5f c5bd 3de3 6b3e
00000090: 6421 f8be cfed 543c ba8c e0bc a899 f4bd
000000a0: 3395 853f b55f 0ec0 3dcd 4fbd fe8a bcbd
000000b0: c086 123d f517 b63f 276e 03be 8306 d3bc
000000c0: 212f 0f3f bd15 393d 745b 56bc 3d9e 81bd
000000d0: fca1 ae3d 1862 f8bb b841 c8be e913 433c
000000e0: 1ff4 003f feac 9f3f 044f 3b3a e1f4 9fbc
000000f0: 92bb 84bd b05a b5be c665 72bf 0529 44bf
0.08665127 -0.05607399 -0.07126592 -0.0067382664 0.4420759 -0.0069637904 -0.038485818 -0.041669533
-0.34632885 1.2868923 -0.054548416 -0.04945329 -0.2216697 -1.4787873 0.020686809 0.044123188
1.7458997 -0.8641151 -0.08962404 -0.007850853 0.73066807 0.07292243 -0.012087061 -0.30468476
1.051599 0.69527465 1.1764106 -0.36558208 -1.0870923 -0.00164911 -2.4512248 -0.5825211
0.010852662 -0.06158904 -0.09637415 0.23035903 -0.48462975 0.012996151 -0.027410854 -0.1194337
1.0436157 -2.2245915 -0.05073284 -0.09206198 0.03577304 1.4226061 -0.12834989 -0.025759941
0.5593129 0.045186747 -0.013083328 -0.0632901 0.0852699 -0.007580053 -0.3911264 0.011906602
0.503725 1.2474668 0.0007145258 -0.019525947 -0.06481089 -0.35420752 -0.94686544 -0.7662509
